trained_models/init_svhn_svhn_lenet_103_epochs.model (torch_old, 497135 bytes, 8 tensors)

layer0_weight f8 [6, 3, 5, 5]
0	0x3fb396e07a6ba2cb	0.0765209483030375
1	0xbfb54be7b11dbdbe	-0.08318946909070399
2	0xbfaf1fdd692bb4ee	-0.060789984787200754
3	0x3fbd23c6594503ab	0.11382713012154848
4	0xbfa03e99b16dc458	-0.03172760287169102
5	0x3fb689ea72afa627	0.08804192829088518
6	0x3fb65846b1271ae5	0.08728448700922405
7	0x3fba6ee8383998df	0.10325480816536324
8	0xbf98bd5a5979ce14	-0.02415982409588764
9	0xbfb863932e5af5e2	-0.09526939279290716
10	0xbf717615ec843c30	-0.004263005867200895
11	0xbf41031ba2117500	-0.0005191693236487327
12	0x3fb93eda19b3fafd	0.09861529471889337
13	0x3f9834056a1c300c	0.023635944940039663
14	0xbfbce738781784fb	-0.11290314609461298
15	0x3fb383062073d80b	0.07621801655099618
16	0xbfb27ed1851efe5f	-0.07224759578729721
17	0x3f83875b96c3f188	0.00953551820611477
18	0xbfae2e196475e841	-0.05894545890164738
19	0x3f7bfcd6d1676810	0.006832923062086507
20	0xbf7e4801687d45e0	-0.007392888546591675
21	0x3fb78f1bc26de5e7	0.092027411430443
22	0xbfb060188f9700fe	-0.06396630769359388
23	0xbf802f331d6714c0	-0.007902526221082673
24	0xbfa739f389305996	-0.04536400842350756
25	0x3f7fea46a4702e10	0.007791782328250743
26	0x3f8aceaf68ca2088	0.013089533219741392
27	0x3fbab453a6441dab	0.10431406792860425
28	0xbfb9ffb50962013f	-0.10155803183625255
29	0xbfaa652589531178	-0.051552937520258746
30	0xbf976cb9ed824ab4	-0.022875695344348926
31	0xbf9915a904ed3f20	-0.024496689725594156
32	0x3f80abe382a43f18	0.00814035170017706
33	0x3fa08219384c7f02	0.032242572901166625
34	0x3fb9e871b77eb7d3	0.10120306711061682
35	0xbfb5129ab22d1fba	-0.08231512880331496
36	0xbf9aa062bcf8cb98	-0.026002447875906748
37	0xbfb2c03a55fd4535	-0.07324566459034972
38	0x3f9b0610b8a41a6c	0.02639032484969521
39	0x3fb6a315181e2aed	0.08842593993010057
40	0x3fb8744b8214d29d	0.09552452016652997
41	0x3fa58dbfdfe9a512	0.042097087939348424
42	0xbfb3cb9519ebefda	-0.0773251713071085
43	0xbfa02d5a15b1180a	-0.031596007488175884
44	0xbf717e74ae6bcc50	-0.004270988260702671
45	0xbfb710cced1be42e	-0.09010010517876374
46	0x3fb48d1950bb6b7f	0.08027799817084079
47	0x3f8243b43ebf16f8	0.008918197789067758
48	0xbf75833f8c454e40	-0.005252121194945725
49	0xbfa0dbe8a0a768c4	-0.032927770243718096
50	0x3fb0139b996255ef	0.06279919142465194
51	0xbfbd53ebd7440138	-0.11456178670414807
52	0x3fab6b8f52cda332	0.05355499158651468
53	0xbfb543efbb2ca67c	-0.08306787795722842
54	0xbfbd5fa146c699aa	-0.11474044778751727
55	0xbfb305f242b060ae	-0.07430948379658517
56	0x3fb9d0ca30fb4a4d	0.10084212966766266
57	0x3fb3ec019a23667b	0.0778199197115103
58	0x3fb64394d3878697	0.08696870960514001
59	0x3f94b3cf7127eb04	0.020217171937455994
60	0xbfbbb529f19035f2	-0.1082330908540923
61	0x3f9f55950a6b4a74	0.03059990764706773
62	0xbfbaa09643345bf7	-0.10401286259398988
63	0x3fa2c7429e0a729a	0.03667648486336823
64	0x3fad38711d270e6a	0.057071242149984894
65	0xbfb212225d496186	-0.07058920648103681
66	0xbf93273ccca1c358	-0.018704366674174494
67	0xbfa9745d8b23b780	-0.04971592257957891
68	0x3fbd1d79791f7d11	0.11373099524597687
69	0x3fb0e48ab4691d03	0.06598727135234488
70	0xbfb37c3e201a133f	-0.07611454280602191
71	0xbfa84e34d0eb66d0	-0.04747166681563686
72	0x3fb0a2bf2c1583c5	0.06498331857939295
73	0x3f9c3cc019bb999c	0.02757549435673355
74	0x3f8e508c28ad85a8	0.014802069655788966
75	0xbfb1684f74d68d22	-0.06799790003292519
76	0x3fa6db1d23b822b6	0.04464045582796443
77	0xbf97d99cd2b20d7c	-0.023291063651880148
78	0xbfae4399493f0f60	-0.059109487715913955
79	0xbf905c4e759ddfdc	-0.01597712128520344
80	0x3f9399a768371ab4	0.019140830741686002
81	0x3fa508a794286b2a	0.04108165439193663
82	0xbfb1e3245988ca61	-0.06987216173073697
83	0x3fb949984971d7f1	0.09877921860774543
84	0x3fb1928d97f6f42d	0.0686424728400687
85	0xbf7aaf1cb7781630	-0.006514656233326074
86	0xbfb16c759fe280cb	-0.06806121018826443
87	0x3fb288912267536f	0.07239634599620869
88	0x3fb3e8f621e03d81	0.0777734596924713
89	0x3f9ceb305ee517d4	0.02824092463676904
90	0xbf98a56d39cfac3c	-0.024068552640454252
91	0x3fb55bd43fa828e1	0.08343245081065077
92	0xbfa43fd848f3d368	-0.0395495976498868
93	0x3fbd4c611dd228b5	0.11444670656252039
94	0x3f99c92f1489760c	0.025181518200374994
95	0x3f9b8e93d76af054	0.026911077521376406
96	0x3faacf24f5787c8e	0.05236163612811949
97	0x3f92b13de9be6724	0.018254248992526048
98	0xbfa90df4a5d2efca	-0.048934598200019844
99	0x3fb81d6639f31d3d	0.09419859804903737
100	0x3fad31345dab38fe	0.057016025957283376
101	0x3fbd114ffed70a0d	0.11354541751556031
102	0xbfa76019416bf708	-0.04565504954915239
103	0x3faac4e2e6b2074a	0.052283373509466616
104	0xbfaf81ce7851954e	-0.06153722017988149
105	0x3fa7f574e343f332	0.04679456018673135
106	0x3fbb7d46a3530e29	0.10738030898488006
107	0xbfb58b54efa9a8b4	-0.08415728427067642
108	0xbfb1eb82b152d6d8	-0.06999985531987407
109	0xbfb2e1ca47e9e84e	-0.0737577844210204
110	0x3fa33f148ddb207e	0.03759063941612427
111	0x3f87527c3120fcd8	0.0113877966397226
112	0xbfa2beb407baec18	-0.03661120027887693
113	0x3fb7ca738eecc7fd	0.09293291320207682
114	0xbf8e0c992e100418	-0.014672466963022088
115	0x3fba77c16d39cca3	0.10338982502598752
116	0x3fa6fbe49d8685ae	0.04489054129522728
117	0xbfb9c2f216a3eeab	-0.10063088467353036
118	0xbfb49ab9bda9710a	-0.0804859245340063
119	0x3fb723008fb7c0e7	0.0903778410790924
120	0x3fa9910490272bc2	0.04993452319794002
121	0xbf98ff60e12a0c28	-0.02441169142049318
122	0x3facd8507fbe582a	0.056337848275845495
123	0x3faceafec2cbef0e	0.05648037078750977
124	0x3fa66752240f6682	0.04375702562510943
125	0x3f9114538ecd560c	0.016679101553867468
126	0xbfa225608c10a7ee	-0.035441414926324785
127	0x3f9661b9f816940c	0.021857171790220106
128	0x3fbc6ae0731a78c1	0.11100580988065457
129	0xbf9e1ad448eb30bc	-0.02939922041950703
130	0xbfbb4fa3f87cf3a3	-0.10668396774867843
131	0xbfb7abbdfd124f70	-0.09246432713035602
132	0xbfbae78a9cd337c6	-0.10509554222809844
133	0x3f96351557b30384	0.021686871984232706
134	0x3fb7fac544f444b1	0.09367020543529027
135	0x3fa6398df26a3f9a	0.043407855836561995
136	0x3fb158050f08bc25	0.06774932496112791
137	0x3fbb4e6b5c42bb4b	0.10666533472497723
138	0xbfa38a868d2d7db2	-0.03816624139175974
139	0xbf975b160ef0aa20	-0.022808403646346176
140	0x3fa06d31d3e6357a	0.03208308898602304
141	0x3fb1f02897cf3b87	0.0700707789066951
142	0xbf61ce02b01e9780	-0.0021734287738181535
143	0x3f7acdd8d39f9db0	0.0065439672270949795
144	0x3fb4e1f2b02cd341	0.08157269288205972
145	0xbfab867264c73809	-0.05376012306406614
146	0x3f6a5651dce37da0	0.003214988602038907
147	0x3fa4e78cf664da0e	0.040829091145884275
148	0xbf694ba0c2c47cc0	-0.0030878200397093936
149	0x3fa3d7537f5f0b22	0.038752183244943575
150	0xbf90954664988194	-0.016194438829303673
151	0x3fbd0870dd5fd8e1	0.1134100475754596
152	0xbf97a493e1ae77cc	-0.02308875145865112
153	0x3f9698f45f3ba484	0.02206785041099525
154	0x3fb095e586f48457	0.06478724045565919
155	0x3fbc952eff400167	0.11165136081399894
156	0xbfb4fe661b24d145	-0.08200681841555475
157	0x3f8f01eed33708a8	0.015140405483979727
158	0xbfa7c33d5d41b17c	-0.04641143573175818
159	0x3fbc0dab41734fe9	0.10958357189093672
160	0xbfa4d1cc4d537880	-0.0406631321327362
161	0xbf6b66138068bd20	-0.0033445721521939836
162	0xbfbca93620a3b397	-0.11195696160184664
163	0x3fb7dee26dbd2e13	0.09324469737219258
164	0xbf778a3e331674f0	-0.005747073142086764
165	0xbfbc35adb794c8c1	-0.11019407016718487
166	0xbfaab14b16c70516	-0.052133890657851165
167	0x3fb6c063eadb4d97	0.08887314304165837
168	0x3fa4af150b0b146e	0.04039827117734594
169	0xbf9bb43d542122d8	-0.02705474687562312
170	0xbfb8a2973a2be798	-0.09623093767359447
171	0x3f9f5b0b441b16b4	0.030620742828225203
172	0x3fb644bc5f6a5e2b	0.08698632554511991
173	0xbfa8d2cc45977ff6	-0.04848326062688095
174	0xbfae212db1e3a0a9	-0.0588468818330637
175	0xbf8082bbbb77f770	-0.008061854036892163
176	0xbfbd72f20d0396bf	-0.11503517930722305
177	0x3fa91ee65492cd16	0.04906387121573112
178	0xbf74c1df85757860	-0.005067704324885097
179	0x3fb895370cdb9321	0.09602684081944492
180	0x3f9d42d09d3529c4	0.028575191111750234
181	0xbfa8da108f4be54c	-0.04853870152687509
182	0x3fa861df832eec16	0.047621712459168616
183	0x3fb445f8b325768f	0.07919268010797452
184	0xbf9f8607819231c0	-0.030784718783751108
185	0x3fac36a698d4d42a	0.05510445228211609
186	0x3fb222dc805e9fdd	0.07084444173835842
187	0x3f8ab7a8b776f258	0.013045614336868613
188	0x3f80302ac1b86680	0.007904371296763246
189	0xbfb57a48bcabe68e	-0.08389715772855252
190	0x3fb857a345821565	0.09508724638916062
191	0xbfb08ea566b68755	-0.06467660672799742
192	0x3fb60a61ab017a59	0.08609590935655244
193	0xbfb9af04b06b9d33	-0.1003268175805843
194	0xbfb17eddfd025bee	-0.0683420889566688
195	0xbf99a993e53ea8f4	-0.025060950152387698
196	0xbfb55b5114cc4eee	-0.08342463262334451
197	0xbf9d9bbdb539b9ec	-0.02891441744434957
198	0xbf8e2982df477ad8	-0.014727613867703424
199	0xbf71b4ff623aa140	-0.004323003380399648
200	0x3fafa8eed09429b6	0.06183573051574191
201	0x3fb0c6c06a4c5abd	0.06553270907566407
202	0xbfa0efdbaf6fbf56	-0.03307997242506981
203	0x3fa1f6979e4d8f52	0.035084474634259025
204	0xbf7f7b64297ae930	-0.007686034448563014
205	0xbfb2268b9009e4c0	-0.0709006525666096
206	0x3fa2bd22a62dc61e	0.03659923819112641
207	0x3fb3f5e75a0d87b5	0.0779709429603191
208	0xbfad4dce9310a8e4	-0.05723424477794639
209	0x3fb232114af674cb	0.07107647018570444
210	0x3fa416ae19422a2e	0.039235535224254256
211	0x3fb11ccc58b8b207	0.06684567609836033
212	0xbfb1bd98194a8008	-0.06929922692734192
213	0x3fba85e30e918d75	0.10360545259168481
214	0xbfadd6cbecf0e88c	-0.058279392884700604
215	0x3fb2c6b2fb21c3f1	0.07334440833234603
216	0xbfb16c1e97c6ff6c	-0.06805602269650785
217	0x3fb669823b34853f	0.08754743524015839
218	0xbf80217b3253dce0	-0.007876360391021853
219	0x3fb218d3b3978707	0.07069132933204623
220	0x3fb19f756b6aeeaf	0.0688393962145095
221	0xbf822f0a19912d30	-0.008878783135648577
222	0xbf7ab6913c59e130	-0.006521766020903194
223	0xbfb05e04b34534ae	-0.0639346063300816
224	0x3fa3fa94cd4b65be	0.039021158275953635
225	0x3fbc9a7558097f81	0.1117318477567988
226	0xbfbb4cfe633674cd	-0.10664358064828434
227	0x3fb721503268843f	0.090352070147234
228	0x3fb23c81686e6bb7	0.07123574065774006
229	0xbf941d194e809684	-0.019642253319168038
230	0x3f9c320c912ca074	0.02753467212747336
231	0x3fb18201d18b2bdd	0.0683900009709499
232	0xbfabc7a78a5adbeb	-0.05425761760618982
233	0xbf513e8b6d35b580	-0.001052509459295109
234	0x3f86ef9bed575c98	0.011199205570774404
235	0xbfba7325fcbe4cf7	-0.10331952496044382
236	0xbfb8cbef47a184b1	-0.09686179636766458
237	0xbfb7569ace35c8da	-0.09116523298669979
238	0x3fa10e8996c0cf4a	0.0333140369915826
239	0xbf883b8d1f015f08	-0.011832335003574737
240	0xbf9be5ecdc7d49fc	-0.027244282682042695
241	0xbfb1f74846940a68	-0.07017947886564857
242	0x3fab705531b83df2	0.05359140617303727
243	0x3f6381d697525e20	0.0023812476379807684
244	0xbfa06de746b0f6e0	-0.03208849656992441
245	0x3fb43200ee962429	0.07888799500337086
246	0xbf9d4a0b247c8060	-0.02860276613421353
247	0x3f70783095a76140	0.00402087190965289
248	0x3fb813b820c12d25	0.09405089187309963
249	0x3fb72b361451800f	0.09050310131124227
250	0xbfb419d2591249c4	-0.07851900744052559
251	0x3fa8d7ee41d75f5a	0.048522420441883
252	0xbfb47729828a282e	-0.07994327008250998
253	0xbfad17b0fae21fe5	-0.056821375489619
254	0x3f91e3c7163875f4	0.01747046540378068
255	0xbfb3a1715078fe46	-0.07668216910041634

layer2_weight f8 [16, 6, 5, 5]
0	0xbf5e20b2c07ccc40	-0.0018388505577149467
1	0x3fb21b69d6cd523f	0.07073079580488527
2	0x3fb2b9d31225364b	0.07314795678140588
3	0x3fa45fbbb6cd38f4	0.0397928867956682
4	0x3faf32b7fa441992	0.06093382768635815
5	0x3fa3732e9050edd8	0.03798814307853221
6	0xbf9745ddd195f160	-0.022727456967446158
7	0xbfb4be5d908b8dcb	-0.08102974680837531
8	0x3f9d755043abd110	0.028767828111953497
9	0x3fb11469b1734789	0.06671772558482138
10	0x3fb318da7256ec03	0.07459798137180944
11	0x3f9369979e26c4ec	0.018957489993856422
12	0xbfa7c3a07d0de0be	-0.04641438986340195
13	0x3f91c5a6adf47650	0.0173555415795959
14	0xbf964861b5cba0ee	-0.02176048919764722
15	0x3f96394abd10f1d8	0.02170292643516966
16	0xbf92e59a149f41a8	-0.018453986653015925
17	0xbfa164b0e4f6894c	-0.03397133631667035
18	0xbfb0e82458479298	-0.06604220538390349
19	0xbf80e34968c93460	-0.008246015081704694
20	0x3f799835d1592530	0.006248674607897173
21	0x3f99cfe9a612ffa0	0.02520718647133402
22	0xbfa8788a1ab32423	-0.04779464317250184
23	0x3fb1b627417a0e93	0.06918568943552321
24	0xbfb1896e21f820ce	-0.06850326852157027
25	0xbfa61bc9cee55b25	-0.04318075800499902
26	0x3fabd99dbb740176	0.05439465440031459
27	0x3fb1f1d744f68b29	0.07009644921940307
28	0xbfa6ca5cccff8614	-0.044512653373896566
29	0xbf6e0f912298a0c0	-0.003669532267640191
30	0xbf93aec1bdd06a76	-0.019221331796965356
31	0xbfa7a101e82a3d42	-0.046150264349416506
32	0xbfb3752999998834	-0.07600650787347335
33	0x3faa16188fd7eeb2	0.050949828681010514
34	0x3f94a87f1a6d1428	0.020174013126297435
35	0x3fab8724fc745e76	0.053765445534904296
36	0x3f9305a8a2e53678	0.01857627386316671
37	0xbfa84ce165d2014f	-0.047461551360359004
38	0x3fb38e7444cee43f	0.07639242820631952
39	0xbfaa99eeca14a742	-0.05195566384129659
40	0xbfa94ac3fe030343	-0.04939854121903988
41	0x3f92f8596f1b5e4c	0.018525502592494456
42	0xbf8b8f08694a3830	-0.013456407273476939
43	0xbfab1e0782f67ebe	-0.05296348069827904
44	0x3f9fb733522e729c	0.03097229184241944
45	0xbfa502a944fcafd1	-0.04103592841269655
46	0x3fb0910c693076cd	0.0647132641610952
47	0x3fad7cabd230d312	0.05759179058842369
48	0xbf614ddc4511ed80	-0.0021123220581650837
49	0xbf9ac21d690b930c	-0.026131114517641982
50	0x3fa8160446fef03e	0.04704297415398216
51	0xbf9aff044ba3c7b6	-0.026363436810193007
52	0x3fadcc3522ef7afe	0.058198605074485585
53	0xbfa4ba976166f483	-0.04048607887259783
54	0x3fa10475104b29a2	0.033237131346669516
55	0x3fabc06bb628943e	0.05420242880453728
56	0x3fa4b63e5a3099e2	0.040452908048155725
57	0x3f75d7fd59868880	0.005332936904240637
58	0xbf93137b4a2ac548	-0.01862900390796554
59	0x3f8c7727bf3e7278	0.013899145625879003
60	0xbfa758a71fbee6b8	-0.04559824240227556
61	0xbf959428d91256c0	-0.021072996376992448
62	0x3fb32955a310dfab	0.07484946471310987
63	0xbfb3660c7652902e	-0.07577588928921905
64	0xbfa77cc1544c2449	-0.04587368158360811
65	0xbf92d7fb4a2c7448	-0.01840202942104366
66	0xbfa59b5bdd4e24a7	-0.042200918927002555
67	0xbfafcd621bc5e382	-0.0621138247397033
68	0x3f9d9ea8d1f3aaf4	0.028925550283854087
69	0xbfab1634f4aa6b12	-0.05290379988328743
70	0xbfb07ebe4d354b9d	-0.06443395028081374
71	0x3fa9deb5f043769a	0.05052727277664566
72	0xbfb352b9df677bf6	-0.07548104957776033
73	0xbfa2468bfce537da	-0.035694479580896846
74	0x3fb4e401aa92ceef	0.0816041032256256
75	0x3f91ea954e012368	0.017496426473630505
76	0xbf42e3a7fe1b0b80	-0.000576455142628482
77	0x3f94fd121a4b2914	0.02049663815959331
78	0x3f70d0d6e5256190	0.004105414804449828
79	0xbfa337297cf5f735	-0.03753022814178878
80	0xbfad401eb91578d4	-0.0571298218662705
81	0x3f74ddbb2d83a290	0.005094271815530363
82	0x3fb45b915b59667d	0.07952221374707764
83	0x3fa6367e0a5ac252	0.04338449360273401
84	0xbf8dbb771adab6b0	-0.014517717844991423
85	0x3fa5710017d66688	0.04187774935708172
86	0xbf826ec786a03d08	-0.009000357433278441
87	0x3f7604fcc79e4090	0.005375850125247564
88	0x3f75426252df26c0	0.005190261914273797
89	0x3fb42e542d6c80b5	0.07883192166309778
90	0xbf6b897f5e6ae100	-0.0033614623710854774
91	0x3fad5d3fd7ff8e16	0.05735206138322384
92	0xbfa1e03e2acf1770	-0.03491396210260589
93	0x3f9613116feb3d6c	0.0215571140823249
94	0xbfb4423ff460e4e0	-0.07913589206954752
95	0xbfa88481cc14e3cb	-0.047885948335938254
96	0xbfaa1fe0c74d7582	-0.05102446015255692
97	0xbfa5bedf6aa86996	-0.04247186829543918
98	0xbf7a0ac606255d70	-0.006357930690078603
99	0x3f876d5ed7e25350	0.011439076388606445
100	0xbf5a5f981386b300	-0.0016097054595817784
101	0x3fa4d8eedff91276	0.04071756824535992
102	0xbfa2a75542bc305f	-0.03643289985311137
103	0x3faa0f75db681dda	0.05089920333199034
104	0x3fa28fa5b56a38a0	0.036252191920639776
105	0xbf8dd1f23b7093f8	-0.014560596884686902
106	0x3f8553fc97bf79f8	0.010414098149280612
107	0xbfa92dc262dfc580	-0.04917724091491049
108	0xbf8b8cdcc380e630	-0.013452267376226151
109	0x3fb46c3f976e77e9	0.07977673956926846
110	0xbfab1ebd43590bee	-0.05296889731518904
111	0xbfb42fb4e0a46345	-0.07885294422557106
112	0x3fae40e88a7b060a	0.05908896151005301
113	0x3f7210b9993dcf70	0.004410481447724254
114	0x3f93d5e617a86160	0.019370646661714175
115	0x3fb306eb0a524bf3	0.07432431222905204
116	0xbfaaad16c8264ebc	-0.052101814205483404
117	0x3fa74865ffd802ea	0.04547423122494883
118	0xbfa7f4021cf91d2d	-0.046783510243182704
119	0x3faeb0cb604d4d76	0.05994258451996874
120	0xbf8744159427c670	-0.011360329231112604
121	0xbf892bfaa1a551d8	-0.012290914590871546
122	0xbf8893b2c23c62f0	-0.012000462105377946
123	0xbf88166de0d3ce20	-0.011761530326544423
124	0x3f6960c128c9a3a0	0.0030978939669705358
125	0x3fb19b1fc88e2afb	0.06877325674410521
126	0xbf818d624ffb3210	-0.008570449891885296
127	0x3f9d3b2af20e97a4	0.028546019577013873
128	0xbf98564532cc5468	-0.02376659510180837
129	0xbfaeeaf67f976a16	-0.06038637454522104
130	0xbf99a9c7a1b57c72	-0.025061721081666773
131	0xbf9e3f5417d13358	-0.02953845401161756
132	0x3f9e7f80c0c69d7c	0.029783260122397945
133	0xbf773fe0efd17fa0	-0.005676153811776802
134	0x3f9ac28ebc9b1c64	0.026132803212729164
135	0xbf8a012b75de7298	-0.012697543654036011
136	0x3fab123bbef8c90a	0.05287348467062898
137	0xbf8a242105fc0078	-0.012764223094109392
138	0xbf6ae53874f625c0	-0.0032831289933638874
139	0x3f8287eb9e63b6d0	0.009048310061611359
140	0xbfb0f06e86d20ed7	-0.06616869727627815
141	0xbfa2a84d06f2400b	-0.036440283868728406
142	0x3fabb427c493c8ca	0.05410885119080573
143	0x3f8433b10f3a83d8	0.009864218976248937
144	0xbfa51164a4a8ede7	-0.041148324108202954
145	0x3fb39ffb09ab5565	0.07665986047807889
146	0xbf944e44287f424a	-0.0198298120229217
147	0xbfa1378a50707e4b	-0.03362686378409004
148	0x3faf2a1bae6832ee	0.06086813453666716
149	0xbfa129f067dc7bdd	-0.03352309482419689
150	0x3f9de6f0b4a4d694	0.029201279664639104
151	0x3f28927056ff6c00	0.0001874696858966407
152	0x3fb4b13ccedd37ed	0.08082943010705863
153	0x3f9b73dae4e9b77c	0.026809139463174855
154	0xbfa08629a01b01b3	-0.032273579401138085
155	0x3f77127eaa7bbed0	0.005632872380132617
156	0x3f9e652ea1886b88	0.029682854279694776
157	0x3fac6b082e511b7a	0.055504089025411
158	0xbfb1936c014a47e7	-0.06865572959421194
159	0x3f8e91f83cbdc3c8	0.014926852563549434
160	0x3fadaa4daf0d866a	0.057939937227968155
161	0x3f6baba97a403920	0.003377753268075115
162	0xbfac41f57a33514c	-0.055190726439522025
163	0x3f9103eece2d1aa8	0.01661656506919465
164	0xbfa318191e873d6f	-0.03729322908076937
165	0x3f95a944e7041244	0.021153523063747195
166	0x3fb17a41b996dca5	0.06827173977841257
167	0xbf82b6051a813148	-0.009136237975461939
168	0x3fa1ca7f99039656	0.03474806540343127
169	0xbfa462c57f9dafa2	-0.03981606657802607
170	0xbf9da2973236c26c	-0.028940546455205426
171	0x3fb1619994f1b715	0.06789550672848706
172	0xbfa7fbc24813b940	-0.046842643068759404
173	0xbfaa9251648648a8	-0.051897567292273294
174	0x3f8a7336d4c1f2f0	0.012915066116187174
175	0xbf86efc5501229f0	-0.011199513917991205
176	0x3fb074aeda636653	0.06428044158692474
177	0x3f9814e79a0476e4	0.02351724507854315
178	0x3f88824a678baca0	0.011967259678803466
179	0x3fb19ffd00811eaf	0.0688474775534995
180	0x3fb4958c70d7e611	0.08040693049397186
181	0xbfae96cf21c0e5c4	-0.05974433218984701
182	0x3fa2aed782c1a028	0.036490187369793425
183	0xbfb4dba092847b53	-0.08147624566161697
184	0x3fb34d369084e79f	0.07539692905711924
185	0x3fa91a47be2994c6	0.04902862736052209
186	0x3f9c256941b8bfdc	0.0274864622462586
187	0x3fac3c3cd640f76e	0.05514707675364049
188	0x3f5ba86ac5eaa400	0.0016881029802482406
189	0x3fb12384302fc7a3	0.06694818664962425
190	0xbf920ee8068b8a30	-0.017634988212089364
191	0x3f7f046411b14ea0	0.0075725468587567735
192	0x3f9071a60e131a68	0.01605853520302461
193	0xbfaa35c95f84f5ca	-0.05119160929687501
194	0xbf96839536dd827c	-0.021986323808393923
195	0xbfa30bf783798e4a	-0.037200674819157856
196	0x3fb1f871b476dbb5	0.07019720702997641
197	0xbf4c5b9178a06080	-0.0008654079731540559
198	0x3f968a247263d7a0	0.02201134632283408
199	0x3fb154b8b6b66dbd	0.06769899807698372
200	0xbf8e26cde843f010	-0.014722450876881538
201	0x3fabf01c3329260e	0.05456627010842051
202	0x3fb235fdcf3e828f	0.07113634404823642
203	0x3fa6cf9960fab726	0.04455260571317714
204	0x3f9e00ef7d71baf4	0.029300443679342217
205	0xbfabeef91bd765ef	-0.054557594917877476
206	0xbfb2f8d4a7ea74fe	-0.07410935496814727
207	0x3f8b7207da0a42f8	0.013401089994006452
208	0x3f996e85a5308c0c	0.024835670668959905
209	0x3f84e5150b3111e0	0.010202564624827326
210	0x3fb18cb7cba09d89	0.06855343552944339
211	0x3f9332d80622b1d4	0.018748641371233735
212	0x3faa372e459d7156	0.05120224571030245
213	0xbfa4ee5a4ce278d3	-0.04088098705800438
214	0x3fb2ddfa5c7c50a9	0.07369961507748947
215	0xbfb166b8be371da2	-0.06797365802696345
216	0x3f93339b17554fa4	0.01875154809870562
217	0x3f86e1aef6a7f7e8	0.011172644522044764
218	0xbf9e2ee39b5ec39a	-0.02947574268154405
219	0xbf9e8a2eb6238a38	-0.029823999277946295
220	0x3fab87fd8282c17e	0.05377189844273554
221	0x3f3e6c5bc2e32700	0.00046422233834829407
222	0xbf9d398540a5faaa	-0.028539735861608996
223	0xbfa94bf98afac052	-0.049407766547461165
224	0xbfb3ea07f1a02fdb	-0.07778978013101272
225	0xbf70e502f7c83960	-0.004124652474742113
226	0x3fb1d874a8e60607	0.06970910190104727
227	0xbf97ab7c3ed63336	-0.02311510213398834
228	0x3f7405882587dde0	0.004888088057206613
229	0x3fb31583362abdf7	0.0745470053905065
230	0x3f936f80ca3e0604	0.018980038017167203
231	0x3f91050d5f446d68	0.016620835246710014
232	0x3f9d32c084bf431c	0.028513916113129686
233	0x3f9248c39227c25c	0.017855697436916493
234	0x3f9de21424319f18	0.029182734212013534
235	0xbfac108c4f68395a	-0.0548137518818403
236	0x3fa7d9649946cab6	0.04658045168925666
237	0x3f81db0b93484b28	0.00871857684345441
238	0x3f9ab03e90c2be70	0.026062944016926826
239	0xbf88f4e9116697d8	-0.01218587955811394
240	0xbfa67874feebcd8a	-0.043887764089869455
241	0xbf672867eeae84c0	-0.0028268842629165236
242	0xbfb39290e1d90dda	-0.07645516885627704
243	0x3fa472c4732aeddc	0.03993810563903441
244	0xbfa8cf8955cfad44	-0.0484583775758787
245	0xbfa72284a424601d	-0.04518522742927209
246	0x3fb2ab198efbbb0b	0.07292327633670596
247	0x3f97bfb9ca7edc50	0.0231923131793475
248	0xbfb287a065ae4f8f	-0.0723819969410313
249	0xbfb446a4a6965192	-0.07920292918271901
250	0x3fadc04404c4c5fa	0.05810749586306581
251	0xbfa88f73824c1ac0	-0.04796944585364349
252	0xbfaea5cde74d68ce	-0.059858736500886786
253	0x3fb09aab5737372f	0.06486006621636585
254	0xbfa972683a2ed777	-0.04970098219148061
255	0xbfaba49bf40c460a	-0.053990243474015

layer4_weight f8 [120, 400]
0	0x3fa8f53b321c5b71	0.048745965830838574
1	0xbf949663e8219699	-0.02010494331661636
2	0x3f85f5eb4789a600	0.010722959633500118
3	0xbf926a49a755292c	-0.017983580434966104
4	0x3f9b06dac8febda6	0.026393335836187547
5	0xbfa5ef250f9ec454	-0.04284015479732575
6	0xbf4c335ef3f76ac0	-0.0008606160772005253
7	0xbf70f33b7d2747e8	-0.004138214472236591
8	0xbfa26cdc73bbe8a1	-0.03598679459351329
9	0xbf9b0eb800f90c86	-0.026423335132005586
10	0x3fa6e3617c893127	0.04470352788175296
11	0x3f9e234da7e6181e	0.02943154656670554
12	0x3f9a955989fd54de	0.02596034912797484
13	0x3f9b5dc3bc27736e	0.026724871024146273
14	0x3fa096ba178a83c7	0.03239995515219323
15	0xbf97226033152c2f	-0.022592070691910656
16	0xbf9bd647b537bfcf	-0.02718460124555105
17	0xbfa0aeeefa614083	-0.03258463674922132
18	0x3f86a6140240e76c	0.011058956450245204
19	0xbf7831a14ce63f68	-0.005906705932275581
20	0xbf8b35c8656ec7c4	-0.01328617629573959
21	0xbf93c822d11b0373	-0.019318145764148874
22	0xbfa4206c568d7f5e	-0.039309869351881174
23	0xbf9b3daf2db2be49	-0.02660249439639831
24	0xbfa738788445c1d9	-0.045352712770980914
25	0x3f813f6f5cdf7978	0.008421773931271956
26	0x3f96fb192fed1bee	0.022442239332374152
27	0xbf8bca6242c8a914	-0.013569610274391887
28	0xbfa06cf4cd4e1bb4	-0.032081270276698076
29	0xbf93e96f5d1cd8d0	-0.019445171411654638
30	0x3f837362d0be1824	0.00949742507487989
31	0xbfa41e1011b92709	-0.039291860736353774
32	0xbfa5f023ba91cff8	-0.04284774448834122
33	0x3f8405b71f3d96d8	0.009776526108633929
34	0xbf9c264f23d263bc	-0.02748988777293325
35	0xbf920ff77b2f8ce2	-0.01763903321615324
36	0xbfa93dc294b243ae	-0.049299317027482345
37	0x3f98b69b58313dae	0.02413408971579905
38	0xbf5ab7b05278b840	-0.001630708875278511
39	0x3fa50075dd377fcf	0.04101913762474362
40	0x3fa3bb1a84399a15	0.038536862030742615
41	0x3f788eb10febd440	0.005995456360996576
42	0x3fa746e20c58fb33	0.04546266937949497
43	0x3fa1784c50fb619d	0.03412092674779219
44	0x3fa355a474ca3c3b	0.03776277471217112
45	0xbfa8a447f088947b	-0.04812836466980116
46	0xbfa2d68ba0b5b630	-0.03679310166158378
47	0xbf9ac7f2f18ea516	-0.026153369897348254
48	0xbf936b68e483ba99	-0.018964423129484407
49	0xbf4e384c7a6f7e80	-0.0009222386769315999
50	0x3f8cc046fa0f92c4	0.014038614755869878
51	0xbfa388ccc404338c	-0.03815307514933072
52	0xbf7f754e12d35728	-0.007680230116610599
53	0x3f96f0e8296fadae	0.022403361825053807
54	0x3fa008a7cd4b6acf	0.0313160360435255
55	0x3fa53acf5a8c4197	0.04146430950470686
56	0x3fa805e331d923b9	0.04691991790293266
57	0x3fa1a18fa264ab63	0.034435738156694005
58	0xbf958440c8d0e8a9	-0.021012317902411457
59	0xbfa94c9316828a6b	-0.04941234254626611
60	0x3fa35f4c7512326f	0.03783644608583791
61	0x3f98cfe508a41406	0.02423055520286612
62	0x3f9a378fefcd2ac2	0.025602578173940634
63	0xbf8ded22a54954f4	-0.01461245600618575
64	0x3f727b3585926110	0.004512032575029204
65	0x3f8e1302612edd7c	0.014684694853584139
66	0x3f845b169c3897a0	0.009939362184990419
67	0xbfa10112758c2890	-0.033211304520663565
68	0xbfa48a5ec3c3c1b8	-0.04011818065362455
69	0xbf9f5c5bf9cc1e66	-0.030625760194224937
70	0x3fa98b8bf77c1cc1	0.04989278217367988
71	0x3f8224c0adec5178	0.008859162624084801
72	0x3fa7c93e322abf51	0.04645723688497461
73	0xbfa98cbcce9484ec	-0.04990186712007891
74	0xbfa04e8ae5e60d64	-0.03184923225765138
75	0xbf78d55b59c91f10	-0.006062847937364571
76	0x3fa829d93c69e4a1	0.04719427931281329
77	0x3f9ab7a8a2ba2e9a	0.026091227466663904
78	0xbf9eac06a16ca449	-0.02995310173279034
79	0x3f9e3962fc160a46	0.029515787731279518
80	0xbf831b00f4616054	-0.00932884927549097
81	0x3f9e4b4f9b54f4e6	0.029584163528160533
82	0xbfa46b572f33f3d4	-0.039881443512036846
83	0xbf85b2dc03dbcacc	-0.010595053546670917
84	0xbf9b4f1850f5ec6c	-0.026668910924382436
85	0x3f69d968d7060f50	0.0031554267554287155
86	0x3f8eeb14af9386fc	0.015096818550265116
87	0xbfa1656b864e5129	-0.03397689833141932
88	0xbf9d531f28cede6f	-0.02863739668438686
89	0xbfa7e179b1a87b97	-0.04664211553266922
90	0xbf92819d37086c6a	-0.01807256363290969
91	0x3f837b14cdf3388c	0.009512102637384133
92	0xbf912f3eb63d7962	-0.016781787751250284
93	0x3fa91faa03decc8f	0.049069703075837905
94	0x3f906c697143a75a	0.01603855851946121
95	0xbfa68c012ab35de1	-0.04403690000770744
96	0xbfa182668197cdc6	-0.03419800121255494
97	0xbfa14fca70e7d591	-0.03381188038103312
98	0x3f9ffe1f204e8b06	0.031242834421969533
99	0x3f896524e311bc24	0.012399948291401293
100	0xbf9084e5835079da	-0.01613196004847759
101	0xbf81654a91bc9800	-0.008493979046374278
102	0x3f309fe07f667a80	0.0002536700334533695
103	0x3f9d953d8d9b2b9e	0.028889619605972798
104	0xbf9be25ad3dfeb69	-0.027230662519268565
105	0x3fa8a32d44328d15	0.04811994035233106
106	0x3f9dfd66b462d6b6	0.029286961326497184
107	0xbf969917975f7f8c	-0.022068375219418665
108	0x3f5d6406532e0800	0.0017938672797019883
109	0x3fa1d5483b6ab36f	0.03483033871939411
110	0x3fa71a2551c875d3	0.04512135146454068
111	0x3fa2da9481ddcccf	0.03682388386996537
112	0x3fa11da9a854248d	0.03342943362992754
113	0x3fa2567750b1b425	0.035815933800087664
114	0x3f94487a0ab2da8a	0.019807726767533874
115	0x3fa4c3f67f3302f5	0.04055757811284436
116	0x3fa6eb3f11e2eac5	0.04476353734340458
117	0xbf8bc912600e66d4	-0.013567107731251062
118	0x3f9f9837006f934a	0.03085409107360996
119	0x3f8ee8f4330c8f2c	0.015092761810201326
120	0xbf9f3f997c1b80b2	-0.03051605052940038
121	0xbfa007598a080953	-0.03130607423738021
122	0xbf8875f44cbb3e78	-0.011943729964883007
123	0xbfa1ad6c6f7cc791	-0.03452624188356802
124	0x3f6699721cd7a7d0	0.002758715511608202
125	0xbfa3d62c36912c51	-0.038743383084317025
126	0xbf7f0ba0402eca18	-0.007579446772910468
127	0x3f7776f30234e280	0.005728673221988445
128	0x3fa5aa3d6eb8e66d	0.04231445290174638
129	0xbf7dc7d7e95fbf98	-0.007270663647417928
130	0xbf91283de55daf52	-0.01675507271231364
131	0xbfa717f0f412d489	-0.04510453204549331
132	0xbf90d29c5b268b3a	-0.01642841631258849
133	0x3f9ade8ca59f5f26	0.026239583596036863
134	0x3f99ca28fbf2f79a	0.025185242059471237
135	0xbf9fe6e05abb16f6	-0.031154161012429925
136	0xbf9f17e7d5f1d312	-0.030364630158561452
137	0x3f84012ed1e39e44	0.009767881183918033
138	0xbf9131f60ce56d3c	-0.016792149102326834
139	0xbf7e1db260760ce8	-0.007352539810543159
140	0x3fa0d6193992f445	0.03288344219024756
141	0x3f90a9e29e5d53ba	0.016273060718350975
142	0x3f94a0e535e0200a	0.02014501706437958
143	0xbfa85d06d72dfde1	-0.04758473755554938
144	0xbf8d91b47f135cf8	-0.014438066604653063
145	0xbf9ae0a921749d13	-0.026247637431109427
146	0xbfa9445ca9e4b1bf	-0.04934968541997219
147	0xbfa56c94323db341	-0.04184401620191248
148	0x3f957e77c02f9696	0.020990248780342023
149	0xbf840f2151504620	-0.009794483465188242
150	0xbebdb56e60f40000	-1.770777433851567e-06
151	0xbfa4596c2ede2111	-0.039744740220216575
152	0xbfa8b67bb8f0cd01	-0.04826723702026393
153	0x3fa26f99a9927dad	0.036007692289099814
154	0x3f786d43e52ef810	0.005963578429996744
155	0x3fa08141ce4496f9	0.03223615305823375
156	0xbf9c76d8c2d00e3c	-0.027797114267754205
157	0x3f8e66831f24924c	0.014843963992981511
158	0xbf76665e269c6600	-0.0054687192694244935
159	0x3f97ae5ae327fc8e	0.02312604915095711
160	0xbf813360c9baff0c	-0.00839877715713968
161	0x3f9fd94969d310ae	0.031102320751202832
162	0xbfa8e15eec48f886	-0.04859444269503492
163	0x3f951ac367254f2e	0.020609906359211276
164	0x3f9d21fb7dbe3f36	0.028449945020440036
165	0xbf9a2bbd261f3326	-0.02555747552087264
166	0xbfa23ce8c680ef40	-0.03562095091953532
167	0xbf5431983ae657c0	-0.0012325274106834566
168	0x3fa098edb4378707	0.032416752099164774
169	0x3fa65a29ee2b90b1	0.04365664512968815
170	0x3f955733b712a8de	0.02084046177757492
171	0x3f994808e8ec6fd6	0.0246888534703514
172	0xbf9eeb3548478af9	-0.030194122826183698
173	0xbf5e310bf9d7e4c0	-0.0018427483513490522
174	0x3f8a2e0b1fab520c	0.01278313341519157
175	0x3f7410a523022e90	0.004898686471402805
176	0x3f65fb8491a8d960	0.0026834096181815176
177	0x3fa64dfbe48cfbdf	0.04356372036863098
178	0x3fa01fc348bf09c5	0.03149233115211162
179	0x3fa5310630fe8b3f	0.0413896498496542
180	0xbf476e5ddca02d80	-0.0007150610265411056
181	0xbf7885c21a81fe90	-0.005986936776139054
182	0xbfa6899310a52c1c	-0.04401835992992906
183	0xbf63a1e88e0d9320	-0.0023965398872171223
184	0x3fa34a8520d668f5	0.037677917726982736
185	0xbf8411d8832b692c	-0.009799663069703778
186	0xbf990d66f2e1f2f6	-0.024465187620523708
187	0xbfa1fb580b5dbfd0	-0.03512072695491464
188	0xbfa7831627395dcb	-0.04592198590097104
189	0x3f8b1c1f8435ff1c	0.013237234327561569
190	0x3f833377aa433074	0.009375510104654185
191	0x3f92ac2a4877d0ca	0.018234882996652137
192	0xbf94db2d597e46f3	-0.020367344462619518
193	0xbf89fba3e8912e04	-0.012686996970066929
194	0xbfa502dd89d77578	-0.04103748614918862
195	0xbfa85c27b1e24364	-0.047578087295852695
196	0x3f9898d07abeb7e6	0.024020440570602285
197	0xbf9cdfa3eb4597c6	-0.028196870074132872
198	0x3f972c48e5cbbec2	0.02262987043917409
199	0xbf5b53030a6b85a0	-0.0016677407926909207
200	0xbf8998b4dbfb8174	-0.012498295749026701
201	0x3fa991b7415c2dd7	0.0499398486409423
202	0x3f93c4305c4530c2	0.019303088790636698
203	0xbfa30f36d7bd1ed8	-0.03722545035867392
204	0xbfa595a1319701be	-0.04215720873208138
205	0xbf888ebde4041aa4	-0.011991008301732116
206	0xbfa6c8e6e7a2eb29	-0.04450151040642531
207	0xbf9ad43dae8f56dc	-0.026200259951869906
208	0x3f8e3454656a43fc	0.014748248429244264
209	0xbf6570dc43220250	-0.002617292594607336
210	0xbfa0eead86a85253	-0.03307096737640749
211	0xbf9a4e7117675336	-0.02568985658020325
212	0x3f8b3382bab63f5c	0.013281842539782644
213	0x3f9463b8b91492e2	0.019911657616051744
214	0xbfa8086f950e5f51	-0.046939360566453765
215	0xbf96584f94dcbaa6	-0.021821254216031115
216	0x3fa3a6a473fb01bb	0.03838075557496575
217	0x3fa896c842939011	0.048025377394680054
218	0xbf9aef23b1d0ac96	-0.026302869537329153
219	0xbfa7735ea08d9058	-0.04580207548022547
220	0xbf8ade5060dcf4d4	-0.013119342762019683
221	0xbfa31229c40d8904	-0.03724794882033858
222	0x3f9e5977ebbca5b2	0.029638170016516426
223	0x3f80d5c498e24b38	0.008220230022094918
224	0xbf9b967a4a5866fc	-0.02694121435897666
225	0xbf9588207b984e49	-0.021027095359455825
226	0x3fa769a0ea4253f5	0.04572775706871105
227	0x3f9811f8c839121e	0.023506056996000273
228	0xbf9b8d7c23652b66	-0.02690690961871258
229	0xbf8df528ea688c20	-0.014627761510444925
230	0x3fa16d6ee33c41ef	0.034038033713048914
231	0x3f9daa37097eced2	0.028969631151723636
232	0xbf84fcc9f6e0b344	-0.010247781607256486
233	0xbfa2f80a32d2fcd4	-0.037048643783686025
234	0xbf9d4b82232d4ee9	-0.02860835399344711
235	0xbfa2c362d02d3321	-0.03664692679612914
236	0x3f997e1341980b36	0.02489500129560015
237	0x3f9312c682ce63e2	0.01862631009462124
238	0xbf9208b0bef14c2c	-0.0176112762968154
239	0xbfa97a23db4f1217	-0.049759979745008724
240	0xbfa5e3337e8f0039	-0.04274903221039534
241	0x3fa670e9e34ed101	0.04383021259073595
242	0x3f8ab3d602d8505c	0.013038322412320884
243	0x3f9c1fc06513c24e	0.027464872521650023
244	0xbfa104cbbc7e68de	-0.03323971439313465
245	0x3f937f8b2e48d03e	0.019041228008248583
246	0x3f9d9e9e7b03cb26	0.028925396211842223
247	0xbf988dd48086ba7f	-0.023978538841840532
248	0x3fa2026c4b205c69	0.03517473618574558
249	0x3f82838b098a3aa0	0.009039961079250702
250	0xbf9e4ab0d07a9e59	-0.029581797337100067
251	0x3fa13bbcf5341b57	0.03365889065940191
252	0xbfa6766c8390d46e	-0.0438722525217735
253	0x3f95a76ea848fdfe	0.021146515866574227
254	0x3fa6e1d7aa62766f	0.044691791104224936
255	0xbfa6feaab7985d29	-0.044911703979034386

layer4_bias f8 [120]
0	0xbf6ca669c04455b0	-0.0034973206949284394
1	0x3f9fe0a072c3fb9c	0.0311303205535257
2	0xbf6a32b4819efde0	-0.003198006202154366
3	0xbf985f11db2be647	-0.023800162317434006
4	0xbf9f03fb21a03c70	-0.030288623740542808
5	0x3f724168558a1640	0.004456908755519573
6	0x3fa125b769443ae6	0.033490878677289435
7	0x3f959bfc4a842730	0.021102850006207763
8	0xbfa864d436bd79c2	-0.047644263918062105
9	0xbf9e813698e3891a	-0.029789784509270147
10	0xbf9dd9cdf6541517	-0.02915117088288807
11	0x3f891f524b4c2e48	0.012266772196674172
12	0x3f8b3e3e88c10610	0.013302315281296578
13	0xbf9b00d8ebdc5830	-0.02637041987971872
14	0x3fa05b00cb5656e8	0.03194429857391673
15	0x3f957e4232c208d8	0.020989450786608937
16	0x3f9f36452ff8daa4	0.030480462124809052
17	0xbf88fe96d39305c8	-0.012204340297446672
18	0xbf9792db2be5ef7d	-0.023021149210293402
19	0xbfa337810d19bc18	-0.03753283772390875
20	0xbf82d7d966bf5140	-0.009200762222385195
21	0xbf8c123be74716dc	-0.013706653590712596
22	0xbf78015009bc0830	-0.005860626839195901
23	0x3fa5362130d39824	0.04142860146548369
24	0x3fa2630610cfdff2	0.035911740829703734
25	0xbf57312e0e401960	-0.0014155339968070155
26	0x3fa26e7e96a2551a	0.035999256027176865
27	0xbfa88524a04e7510	-0.04789080101839194
28	0xbf74890cb5947330	-0.005013513227166297
29	0xbf832dd7fa547f88	-0.009364783598868845
30	0xbf85c4478b920978	-0.010628279635288548
31	0xbf87688ba76045f8	-0.011429873509800167
32	0xbf91bd0df4e1f2aa	-0.017322748252342514
33	0xbfa3f4e6865dca1d	-0.038977817442077824
34	0x3fa89e704924070e	0.04808379071074685
35	0x3f855a1c34784500	0.010425777770282085
36	0xbfa44a845f48a4b5	-0.03963102019435764
37	0x3f955c53b0bd9a58	0.02086001173247562
38	0x3fa0cf139f766b8e	0.03282986947598153
39	0xbf9dd24def533e8a	-0.029122560245751695
40	0x3f83adf4a163ad54	0.009609137702190886
41	0x3f4d4ca43bb97b80	0.0008941461487202845
42	0x3f95ca552c174f18	0.02127965051279465
43	0xbfa7a8a0a358f7f7	-0.04620840066898773
44	0xbf88c56e65460c18	-0.01209532019198005
45	0x3f9f4d475372e390	0.03056823202925646
46	0x3fa1e1d26a28a502	0.034926009615739786
47	0xbfa797420b306b1c	-0.046075881830083015
48	0xbf2c23f03a5e6500	-0.00021469409437883252
49	0x3f963d2ad7faab90	0.02171770995361616
50	0xbf75d0a4d1d57010	-0.005325931383904262
51	0x3fa5f20618e5b316	0.042862120188919814
52	0xbfa052398978c14e	-0.03187732508775075
53	0x3fa1151f8eb63a04	0.03336428277099304
54	0xbfa6bc742a49ec58	-0.04440653816433188
55	0x3fa8c67ca3d11f60	0.04838933467595896
56	0xbfa6139af8ccdd5f	-0.04311832701790296
57	0x3fa3d58c3a132f58	0.03873861512110349
58	0xbf93f652d25ceac7	-0.01949433716729734
59	0xbf661ee60783f080	-0.002700280452812065
60	0xbf9a12e5472578c0	-0.02546270605795864
61	0xbf9e314fa61c5830	-0.02948498202666644
62	0xbfa12cdf0f8d11c4	-0.03354546608764822
63	0xbfa5797fd1eea18c	-0.041942591072543584
64	0x3f72f57706b76498	0.0046286248648012215
65	0xbfa4f614a6124c78	-0.040939946434399965
66	0x3f9c601908c7f004	0.02771033397765167
67	0xbf81dbe342c5da88	-0.008720183825727604
68	0xbf80a111189655a8	-0.008119710505335956
69	0xbf8b2bd744f0d4bc	-0.013267213622479061
70	0x3fa37cb0f0218c6e	0.03806069308554859
71	0x3fa7cdc079398e2e	0.04649163703723179
72	0x3f364512914bcd00	0.00033981040296211795
73	0xbf7f63c6547719d8	-0.007663511968934299
74	0xbf991226e693064d	-0.024483306716098153
75	0x3f934632381847f8	0.018822464631803343
76	0x3fa3209cf9d3fd20	0.03735819387110895
77	0x3fa51d829e93ff3a	0.04124077020423873
78	0x3fa71e7629381506	0.04515427830851064
79	0xbf78f131852c5568	-0.006089394987403331
80	0xbf8947d2e5c4a158	-0.012344024311986487
81	0x3f95f8cc4a7aef34	0.021456901594077496
82	0x3f8a533528629d18	0.012854018492659366
83	0xbf9ee8654d94c6ed	-0.030183394298723455
84	0x3f93cd5a1c12ae70	0.019338043178022735
85	0xbfa0129c6be83e9a	-0.031391990825907004
86	0x3fa1683cadbf8954	0.033998390397544626
87	0xbfa83498ab6aa29a	-0.04727627842414002
88	0x3fa4be030507002e	0.04051217495316482
89	0x3fa83d519a6698b6	0.047342825029134714
90	0xbfa04bbfb3c1ec6e	-0.03182791775994863
91	0x3f9804e394697068	0.02345614999136139
92	0xbf950e58bd5cfa0a	-0.02056254058629218
93	0xbf812bcc9a9d7d68	-0.008384321659547125
94	0x3fa7cf00b6742e6e	0.04650118090839049
95	0x3fa033719d09568a	0.03164248506497554
96	0xbfa31e92c5269fe7	-0.037342630926388946
97	0xbfa47d6ebb5a1b14	-0.04001947438250944
98	0xbf8d85f5bbfa1ac0	-0.014415664481260193
99	0x3fa28acdabaf6df0	0.036215235908198085
100	0xbfa3301d74153707	-0.03747646371867402
101	0x3fa835cc74ba58de	0.04728545117284154
102	0xbfa2ed47c2f6a44f	-0.03696655516552793
103	0xbf99ff06fdecdafa	-0.025386914490094427
104	0xbf93749ed68f0164	-0.018999559255236234
105	0x3f78019c8f5f1270	0.005860911905931063
106	0xbf9c21977ae41f97	-0.027471892238309783
107	0x3f9cda9a3d7039f8	0.028177652358914757
108	0xbf8ed29acde87014	-0.015050134095012914
109	0x3f80a2bb0519f0cc	0.008122883885555508
110	0x3f91b79a207cbd30	0.017301948769440745
111	0x3f99f4a958b25148	0.025347372091873127
112	0xbf9b32ef8b64e130	-0.02656149185460882
113	0xbf92ee9e41c98c50	-0.01848838116201207
114	0x3f811d76f0b870c8	0.008356980534749772
115	0xbfa5169f37f01bec	-0.04118821676097881
116	0x3f90a77411e5ba68	0.01626378401982223
117	0x3f951740625bf108	0.020596509936681634
118	0x3fa0af462637c2a8	0.032587234654675
119	0xbfa4c58bcc007fac	-0.04056965699442058

layer5_weight f8 [84, 120]
0	0xbf8f2eab4b926b70	-0.015225733035824723
1	0x3f8d6e761131dc90	0.014370844268553534
2	0xbfae44e6dc1dd71f	-0.05911942898721478
3	0x3fb54616c774666a	0.08310072297572338
4	0x3f8b0243e104be18	0.013187914185066638
5	0x3f9b4276baedafe8	0.02662072673722085
6	0x3fb5c561ab68d45a	0.08504305300523765
7	0x3fa326ab889796b4	0.03740440409073412
8	0x3faf71d455bb6e60	0.06141532465491362
9	0x3fa1d43b65f1ec18	0.03482232684560688
10	0xbfa5e1894d4e2cc4	-0.04273633068722796
11	0x3fb623eda753bd0e	0.08648572287687648
12	0x3fae603e2dfa66a4	0.05932802497154668
13	0xbf6bb7edaad58960	-0.00338360232733341
14	0xbf558ba6fb0fdec0	-0.0013150339766507119
15	0x3f955709e736a5b8	0.020839838730955157
16	0xbf931ea06c7b54e0	-0.01867151891822949
17	0x3f97d96277f63f68	0.02329019410313951
18	0xbfac35a6bf9c760a	-0.05509682740214934
19	0xbfb516df8a00bf11	-0.08238026732646754
20	0xbfb49d45fba302e9	-0.08052480119205153
21	0x3f93bf89b55bc3fc	0.01928534669326963
22	0x3fafa5e22a44302c	0.061812465342967776
23	0xbfb16057836fc1de	-0.06787630995655244
24	0x3f9f08b8951744dc	0.030306705570016898
25	0xbfa85033b11ebb7b	-0.04748689210042919
26	0x3fa716e7dd0d01d8	0.04509663174986017
27	0x3fa246a55290d550	0.0356952346123004
28	0xbfad12e1fea265e1	-0.05678468926744152
29	0x3fb0efcbae7df3d6	0.06615899095591202
30	0x3f55d36d1c353680	0.00133214621822067
31	0x3fb48bb6ea63ea84	0.08025687429828038
32	0xbfa4fe39dff86524	-0.04100209101688737
33	0xbfa590a830d92689	-0.04211927028934521
34	0x3fb28e06b873bda4	0.07247964862084771
35	0xbfb459c897fd6e25	-0.07949498854343824
36	0x3f91d7eef1ddce8c	0.017425282966952824
37	0x3f82394c735427f8	0.008898350972703625
38	0x3fa7cc12a523d120	0.04647882715099372
39	0xbfaeee63c2a26622	-0.06041251898677681
40	0x3fa5cc9e272a3dec	0.04257673481071919
41	0x3f6f59de4108d220	0.0038270321749911546
42	0x3fb6989f5cc164d0	0.08826633467232914
43	0xbfb633017b16275f	-0.0867157865051502
44	0x3fb4151cd96a60d6	0.07844715412136635
45	0xbfabf368524cbb01	-0.054591426893571444
46	0x3f8e2c9785852b00	0.014733489763462781
47	0xbfa6913d6ea20875	-0.044076843028066394
48	0x3f88764f9f5d1010	0.011944410372628084
49	0x3fa9572c817db20c	0.04949320870114002
50	0xbfacc3263db45af5	-0.05617637160519521
51	0x3fad51fe51a32d6c	0.057266185250763296
52	0x3fb216e5f7cc734c	0.07066190051814408
53	0x3fa61ee13aba47d8	0.043204344195274025
54	0xbfa20ff604be2fe9	-0.03527802284142451
55	0xbf43bc10f39b6f00	-0.000602253224509991
56	0x3fb53326ecea7830	0.08281176837996962
57	0x3fa2e5b66357739c	0.036908816935216054
58	0x3fb55e0c48aa5da2	0.0834663083463654
59	0x3f5052f0923614c0	0.0009963368728176797
60	0xbf922bde922e8d18	-0.017745473549109908
61	0xbfac5565527d5042	-0.05533901817275978
62	0x3f9b44413bff9254	0.026627558981902347
63	0xbfa5c4b3ffdd8531	-0.04251635073047522
64	0xbf90257ae402d194	-0.015767975012481353
65	0xbf4ad49d6772ea80	-0.0008188026976293089
66	0x3f94ff59bdd708b4	0.02050533505622161
67	0x3fa1e2c09cabecc0	0.03493310844893349
68	0xbfabcc576646d60d	-0.0542933761929981
69	0x3f9fbc88b9ea3ed8	0.03099263796553839
70	0x3fb553fe6833f796	0.08331289333361122
71	0x3f81bb2efb6446e8	0.008657805487505013
72	0x3f8be6a8b90e6300	0.013623541018931373
73	0x3fa86447b5b2a750	0.04764007657043001
74	0x3fabac6e0dd4b65c	0.054049910724967204
75	0xbfa0ae43cb1ef557	-0.03257953505042604
76	0xbf9f92bf03807afe	-0.030833229626405327
77	0x3f76637cd8821c00	0.005465972593930779
78	0xbfa73bc1386d9bfd	-0.04537776769466715
79	0x3f9c7988856807f4	0.027807362692335816
80	0xbfaf35274b9c0da9	-0.06095240400284336
81	0xbfa41314491367aa	-0.03920806304968434
82	0xbfa57d6dbdb0a774	-0.041972569852375324
83	0xbf45e9ea44efd000	-0.0006687539952268118
84	0x3f98779a2eb959bc	0.02389374647312946
85	0xbf741aecbc47f3b0	-0.004908489940587055
86	0x3fa92aa3a1f64f44	0.04915343620373716
87	0x3f95c7cbaa0fec4c	0.02126997209050456
88	0x3f9aa2e579253f88	0.026012025374540865
89	0xbf857b73b7125b38	-0.01048937227669243
90	0xbfafcfd0aa721027	-0.06213237839349999
91	0x3f9221c3e2c70d90	0.0177069289363892
92	0xbf7f43262978b2f0	-0.007632397718720027
93	0x3f80cc143bb2ac90	0.008201749870144576
94	0x3fa8702155c42214	0.047730485648632165
95	0xbf81204346e35240	-0.008362317658261564
96	0xbf900a46cef61990	-0.015664202100674596
97	0xbfa2ae9d553ce8fb	-0.03648845353605342
98	0x3fb2e65e76080e76	0.07382765180232717
99	0x3fb3a2828a717480	0.07669845466576142
100	0xbf9a6abc1e631fec	-0.025797786097228867
101	0x3fa890e03c227934	0.04798031553331086
102	0x3f9caddbdd00b7b8	0.028006968845310815
103	0x3fb1da5f4a2b0bc8	0.06973834572549642
104	0x3f84c66bdc5ac168	0.010144083654581151
105	0xbf801edf2fd03920	-0.007871383330009751
106	0xbfac355909dac6b1	-0.05509451146407452
107	0x3f93ccdb805a779c	0.019336156567639415
108	0x3fb5f63cb50cb63c	0.08578853054196939
109	0xbfb1ca1e7017f0e9	-0.06949033962877461
110	0xbfa425e5086d7a9b	-0.03935161331059086
111	0x3fb1365fcbe37b3e	0.06723593452214247
112	0x3fae2716fbb0d088	0.05889198133846302
113	0x3faf9084d97af224	0.06164946703708932
114	0x3fa5508af6fd3ff4	0.041630118036323355
115	0xbfad323da86b4c26	-0.05702393227479545
116	0x3f9d53fd97ed0410	0.028640711210076886
117	0xbf6cea57be5389e0	-0.00352971207995377
118	0xbfb123840eca15f2	-0.06694817887372276
119	0x3f9d15a13e3842b4	0.02840282385119748
120	0x3f97998cd62d9b0c	0.023046684811016724
121	0xbfb6a97522c198e6	-0.08852321718731879
122	0xbfab8d4aba4868e1	-0.05381234668694091
123	0xbfa5c25f799a79fc	-0.04249857291619105
124	0x3fb5bc3a9617a81e	0.08490339435925917
125	0x3fb034527181a5a2	0.06329837103989758
126	0xbfb57902672d387b	-0.08387770670853627
127	0x3f4792b410eaf980	0.0007193927029545549
128	0x3fa4508afe9424d8	0.0396769939198493
129	0x3fb4ac6386cc6cd4	0.08075544396381257
130	0xbfaf0bade8239037	-0.06063598116614382
131	0xbf87305aa765eef0	-0.01132269690855689
132	0xbfaf57df3885ff08	-0.06121728482230365
133	0xbf98ad4db1d4ffbc	-0.02409860036755139
134	0xbf8068eb5ee0ef50	-0.008012617905584968
135	0x3fb2dbcb39488ebc	0.0736662878849143
136	0x3fae633060fcad90	0.059350501860843896
137	0x3f9ed2825ad17790	0.030099903863053223
138	0xbfafe6ad65bd94e9	-0.06230680338811984
139	0x3fb178eff35e1e2a	0.06825160686104739
140	0x3fb13022ed56f6fa	0.06714075369287889
141	0xbfa51ef29d810b2b	-0.041251737333843096
142	0xbfad61cc8e1b7211	-0.05738677248675484
143	0xbfb0b278b24921cf	-0.06522325852086584
144	0xbfb46b06d5681e32	-0.07975809774517797
145	0x3fb38bec3ba434b4	0.07635380226220684
146	0xbfb412edbd694d27	-0.07841382860469946
147	0xbfa962779b145e16	-0.049579370194063596
148	0xbfb3da69f0f3502e	-0.07755148060397296
149	0xbfae3b49e9a13e80	-0.05904608704497338
150	0x3fadb2afb03a13f4	0.05800389314848778
151	0xbfa0b29355bbfd4a	-0.03261242314874353
152	0xbf944afec2aff740	-0.0198173338248957
153	0x3fa553aaf1801a00	0.041653959255246065
154	0xbf984f5305420d74	-0.02374009818642038
155	0x3fb6157bedc41400	0.08626532130081443
156	0xbfb35dbc98596440	-0.0756490585275893
157	0xbfad61d0df83482d	-0.05738690117290477
158	0x3fa057e7163ce5ea	0.03192064424952064
159	0x3fb42de595aeb270	0.07882532982211798
160	0x3fb293228f85d978	0.0725576019666273
161	0xbfaeaa0e81a5bee8	-0.059891179395774874
162	0xbf85a9e1907fa820	-0.010577928755044097
163	0x3fa56f014453ed4c	0.041862525549698576
164	0xbf7263dbc7f45460	-0.004489763755619242
165	0x3f9de877b4aa112c	0.02920710601985481
166	0x3fa2f355b34ae468	0.037012746940896346
167	0xbfb67a090584852a	-0.08779960999210759
168	0x3fa89576568ed06c	0.04801530653586003
169	0x3fb01954ed603b10	0.0628865317851075
170	0x3fa109ad4923ebcc	0.03327695386720783
171	0xbfabb1de9bfb9475	-0.0540914121063815
172	0xbfa45bfab2276259	-0.039764246222777806
173	0xbfae3e1449178288	-0.059067377016394806
174	0x3f7c9e3c1caeb890	0.006986841976795458
175	0xbfad5871cee1f09a	-0.057315403465481654
176	0x3f77aef38fd6aa10	0.0057820810447233445
177	0x3fb438e14e3be45c	0.07899292144783615
178	0x3fb756c8ccb54280	0.09116797445063618
179	0xbfa2bd82e6289200	-0.03660210666228991
180	0x3fa5977218149484	0.042171063842297435
181	0xbf78379eccfd3080	-0.0059124186662523615
182	0xbfb0f724274d4703	-0.06627107581632789
183	0xbf95c5a92ce70790	-0.021261828771237
184	0xbf7f52ce3afb5850	-0.007647328937045186
185	0x3fa11ae110eac934	0.03340819674976317
186	0xbfa537aa76489b8c	-0.04144032186405075
187	0x3f70d57b79e18880	0.004109842613703063
188	0xbfa1798238e37fe0	-0.03413016266290447
189	0x3faadf4e7c95b318	0.052484944065190386
190	0x3faeca9309377bc0	0.060139269709672316
191	0xbfa29888f9db0054	-0.036320000171600114
192	0xbf94c87386f7ca48	-0.020295910942829815
193	0xbfab40bd475eb584	-0.05322829719748781
194	0x3fac2bf1894fbf0c	0.05502276230970268
195	0xbf92edca4ef8e540	-0.01848522288330412
196	0xbf9c7b6209fd38d4	-0.027814418658913834
197	0xbf903105dadbdf28	-0.01581200741108471
198	0x3f9b8f136252cff0	0.026912978054227155
199	0x3f6417597228aae0	0.0024525401106719608
200	0xbfae77b65827975f	-0.05950708223444567
201	0xbfb4acdf60998693	-0.0807628260459075
202	0x3faa5f0486556a08	0.0515061773282533
203	0xbf9e544790048eb8	-0.02961837593569669
204	0xbfb7414437d2a5b5	-0.09083963740217522
205	0xbf8370b268f72468	-0.009492296055116436
206	0x3fb5c6aab8141190	0.08506266588307754
207	0x3fa62c986b0a3a94	0.043308985773468894
208	0xbf8a54bf541c2c60	-0.012856955293974959
209	0xbfa1042f05442ed3	-0.03323504390035983
210	0xbfab268c91a81675	-0.05302848127398089
211	0xbf80908c2e7d0f18	-0.008088202637402328
212	0x3f91e02666155554	0.017456626873657413
213	0xbfb2238ed3bbb858	-0.07085507077474185
214	0xbfb3b1f77528602b	-0.07693430528922877
215	0xbfb0582d68c04706	-0.06384548003577714
216	0x3f72bb016f78a4f0	0.004572873694578691
217	0xbfb6bbba01379e45	-0.08880198030203086
218	0x3fa69f942b00485c	0.044186239480169504
219	0x3f6a352d71d96c40	0.0031991851417792205
220	0xbf85e16af135b468	-0.010683856474054745
221	0xbfa74c9d8efc3905	-0.04550640459466319
222	0xbfb16d35d19c2182	-0.06807266585759034
223	0xbf9daadb9a8fe4b8	-0.028972083386155062
224	0xbf9ad5f70371fd04	-0.026206836304933936
225	0x3fa176ca037c1768	0.03410941402948603
226	0x3f9ee57dc8ed2fa4	0.030172315014439413
227	0xbf9ba50a06cbe0d4	-0.026996761956042573
228	0x3f98596d5031fa00	0.023778636951186982
229	0x3faa46ec8b5c6998	0.05132235718902506
230	0xbfb4ce59f84a6bb7	-0.08127367316994492
231	0x3fa1ed9bfabd598c	0.035015940053813116
232	0xbf8bebe7053e1dd0	-0.013633541915409803
233	0x3fb5bb5b3a4b6270	0.08489008115010122
234	0xbfb18c0d70aedc0b	-0.068543281565198
235	0xbfb3ff79e6d8b2d4	-0.07811700712108954
236	0xbf82df6936858618	-0.009215185142866608
237	0xbfb228f4e402863a	-0.0709374481835078
238	0xbf9d8260bf1e05e4	-0.028817664780495536
239	0xbf9e48a68275a506	-0.029574014389628388
240	0xbfb4702e98b7c9c1	-0.07983676174607181
241	0xbf95ac484a48f5cc	-0.02116501763724958
242	0xbfaf5ba772fe2681	-0.06124614027710341
243	0xbfb2b2e09870c7dc	-0.07304195138638597
244	0x3faddff706075ad4	0.058349341855935016
245	0x3faab0bdec569ee4	0.052129683589837744
246	0x3f9067f3b2b36a48	0.016021545202287407
247	0xbfb09c7b447b45af	-0.06488771840965656
248	0xbfaac6fd643b0d05	-0.05229942177313699
249	0x3fb5ecb8eb70d59e	0.08564334629121226
250	0xbfb3be356f30a1f2	-0.07712110485648063
251	0x3fa50569af65965c	0.04105692163538485
252	0xbfb318ecd90f4d6a	-0.07459907817183412
253	0x3fb1b63291799528	0.06918636371263587
254	0x3fab9e0ed78e2290	0.05394026166238064
255	0x3f96c922c0221bb8	0.022251646973497435
