trained_models/init_mnist_mnist_lenet_53_epochs.model (torch_old, 175959 bytes, 8 tensors)

conv1_weight f8 [10, 1, 5, 5]
0	0x3fc71edf35711337	0.18062963590105038
1	0x3fb576e45500dff6	0.08384539675978417
2	0x3fa139f43fd5d0cc	0.033645279686341206
3	0x3f9d41b77e80c628	0.028571002098209203
4	0xbfc299b9c650d179	-0.14531633551963433
5	0x3fa4883aeec14cd4	0.040101853985697794
6	0xbf94278c1e8a4c90	-0.01968211113360191
7	0x3fc2c7715f581dbd	0.1467115130946989
8	0x3fc839e2ece4338d	0.18926655356372316
9	0x3fbe5bee9fb3d04a	0.11859027289375593
10	0x3fc11115dac7499d	0.13333390409986814
11	0xbfc3e22c93399ca0	-0.15533978642199475
12	0xbfc1cab5c94fc5a8	-0.13899872140568204
13	0xbf57dae9c965d280	-0.0014560015748347477
14	0xbfc5157518d543f0	-0.1647173281913008
15	0xbfa1a937e7a128ac	-0.034494158768738487
16	0x3f612ec3912b8600	0.0020974940938323083
17	0x3fb061d4e2a0e42a	0.0639927914898101
18	0x3fc37ed35f40a4fd	0.15230791235925514
19	0x3f8207799f4b7fe0	0.008803320096774259
20	0x3fb808bf2a0e672e	0.09388346459163863
21	0x3faeabfbfb78aef4	0.0599058861228893
22	0xbfb949d19d334206	-0.0987826355733504
23	0x3fbd7d6268fe514e	0.11519446433368793
24	0xbfb4b87dc1116766	-0.0809401127202399
25	0xbf99a8c5b994b498	-0.02505787797160916
26	0x3fa5d967eb6d7ef8	0.042674300659880815
27	0x3fc064bbd5d54c83	0.12807414952348858
28	0xbfbd996532c7b4e6	-0.11562187661884912
29	0xbfc131b18456f249	-0.13432902299782004
30	0xbf9a113bef4dd8d0	-0.02545636795135736
31	0xbfb78f4269039916	-0.09202971519298261
32	0xbf6bfbbd600c2780	-0.003415937302979566
33	0xbfc3393345aeb869	-0.15018311407533538
34	0x3fba1faf2b9eed36	0.10204596343003378
35	0xbfc5585ec91a0fbe	-0.1667593461935421
36	0x3fb5d1374dace19a	0.0852236332547193
37	0xbfc1fea9b022de80	-0.14058419323349725
38	0xbfb064f43b1fee30	-0.06404043620562372
39	0xbfc57ca9281bada0	-0.16786684473423197
40	0xbfabf90eadfacee0	-0.054634531724699675
41	0xbfc11ea91a91a939	-0.13374818608583341
42	0x3f9f32dd7a6d7b00	0.0304674726461327
43	0xbfb9417b982e189c	-0.0986554380925519
44	0x3fb785a81528a53e	0.09188318745204513
45	0xbfc3e8698333c6b9	-0.15553015619621194
46	0x3fb579501701fae2	0.08388233720505014
47	0x3fc44fde5a8b1a29	0.15868739529669654
48	0xbf9e15d3b93a3030	-0.029380138569237768
49	0xbfc01b55ca54c2c0	-0.12583420161674574
50	0xbfc83ac355110306	-0.18929330495486613
51	0x3f84a208e57974e0	0.010074681761745585
52	0xbfbd3894086a7f16	-0.11414456563442985
53	0xbfbd5f2154a21186	-0.11473282161938955
54	0xbfa594b58ce9f6f4	-0.04215018601551704
55	0x3fc5ab8174da6185	0.169296438271669
56	0xbfc2edb96fa855e8	-0.1478797717287954
57	0xbfc11124f81cfa13	-0.13333570589925667
58	0x3f4e18d81108fe00	0.0009184889805239904
59	0xbfc2af5e6a6c0a69	-0.14597683140171405
60	0x3fbae10d6decd416	0.10499652799337897
61	0xbfa94232e199a300	-0.04933318141849519
62	0xbfb449f80e2eeff3	-0.07925367685578504
63	0x3f8c2c008c7f3800	0.013755802428843111
64	0xbf8d7d3e88804d50	-0.014399040737805763
65	0x3fc3bb0e77164dc3	0.1541460114936922
66	0xbfbb44ee85c4d3e9	-0.10652056470719597
67	0x3fa170916b16ad98	0.03406195099099846
68	0xbfbac362d2a3ed46	-0.10454385416590126
69	0x3fab5c5ed1661154	0.053439105092396716
70	0x3fb2fbfaf49999c2	0.07415741416625735
71	0xbfc1a360769f780c	-0.13779836456427608
72	0x3fbf64586d3ab2b6	0.122624899546916
73	0xbfc8d41a10a419e3	-0.19397283375310712
74	0xbfb569d79f02e903	-0.08364627487290836
75	0x3fb42b9dc0f93592	0.07879053078905532
76	0x3fb80be05ad94a0a	0.0939312192724985
77	0x3fa2dbedb9d9aba4	0.03683417218856924
78	0x3fb7aa921ca55462	0.09244645308838664
79	0x3fba87bd636b65ee	0.10363372494921183
80	0xbfbb0ab6f6f22196	-0.1056322434325295
81	0xbf89b80910020aa0	-0.012558050919556252
82	0x3f9ea4d0573e6c10	0.029925589871350466
83	0x3fc5fa3409bea26d	0.17169809795202032
84	0xbfb20262b5ca030c	-0.07034890115938824
85	0xbf317a90e6c1ea00	-0.00026670491821048636
86	0xbfb65af04b41db5f	-0.08732511365256589
87	0x3fb18e83c1c7e4ee	0.06858085137345757
88	0xbf99fce258eaf958	-0.025378739049068372
89	0x3fc8fa6e31cd0c1f	0.19514253074348262
90	0xbfa985c1616c934c	-0.04984859766253766
91	0x3fa5f6ec531fe620	0.04289949907974866
92	0x3fc1f7d5a02d4ec9	0.1403758079637696
93	0xbfa371c64de5b9d4	-0.037977406510311035
94	0xbfc46b4a49c924b6	-0.15952423670595345
95	0xbfbc214d58beccac	-0.10988315025933798
96	0x3fc0382b0a95e5d9	0.12671411530372614
97	0x3fa729a064f6f46c	0.04523946030119749
98	0xbfc99935f0f5676c	-0.1999881197505674
99	0xbfc8272c1989aa31	-0.18869544264755825
100	0x3fba7a14c460a4e6	0.10342531008122399
101	0xbfabac0577074000	-0.054046793727707154
102	0x3fb7499dd3f787da	0.09096704888318588
103	0x3faec786a0a65854	0.060116011725015156
104	0x3fbcd3389846631e	0.11259797780656952
105	0xbfc4528ba3fecc09	-0.15876908786376046
106	0x3fc8e7a0db9e1897	0.1945687363006001
107	0xbfc42106ff361a30	-0.15725791417590207
108	0xbfa5b207a61cc5b4	-0.042373885180846754
109	0xbfa67831af5080b4	-0.04388575806683673
110	0x3fc01ffb9ea0e72b	0.1259760403207165
111	0xbfb7bb629bae1cb6	-0.09270302105697933
112	0x3f9403b0d521c9f0	0.019545329102081455
113	0x3f5cb9c55d719a80	0.0017532756226274204
114	0xbf9bd17cd55afa68	-0.027166319391421473
115	0x3fb7da031418206e	0.09317034950811529
116	0xbfa735571009d44c	-0.04532882757931897
117	0x3fb1900c30cebace	0.06860424224462777
118	0xbfab6c8ed595a3ec	-0.05356260640366614
119	0xbfb870b72465c17c	-0.09546990049944343
120	0x3fc7096944f68291	0.1799747072918945
121	0x3fa79f795207c3ec	0.04613856436106531
122	0x3fc730cb8c5434b9	0.18117660858152876
123	0xbf9419edf930d428	-0.019630163511653503
124	0x3fc617ad58269a93	0.17259756855238048
125	0x3fb5402fc2550bde	0.08301065916479852
126	0xbfa408972aa6910c	-0.039128040272119774
127	0xbf824eba006646d0	-0.008939221512977907
128	0x3fbed57da342e5ee	0.12044511066314786
129	0x3fa5767f77d64c78	0.041919692400505804
130	0xbfc3ed8a579237be	-0.15568665767608353
131	0xbfb21f88a43e0c26	-0.07079366693328434
132	0x3fb9c52859f4f78e	0.100664636575827
133	0x3fc06cd59dc98699	0.12832136349156967
134	0x3fb6d09b012b82a2	0.0891205671173432
135	0x3f9832d0faa61128	0.023631348894484067
136	0xbfc624f5322687db	-0.17300286244159122
137	0xbfa491ebb491ba00	-0.040175786773819055
138	0x3f9eab68b2595080	0.029950748334457433
139	0xbfbb07c8e6bd1909	-0.10558753617542406
140	0xbf944a9ee05f96e8	-0.019815905041375453
141	0x3fbe209cf1eebf36	0.11768513590390914
142	0x3fbb82a846fdf16a	0.10746242268755216
143	0xbf86c3ee9eccc700	-0.011115898343266206
144	0x3fa28583fa7cbba0	0.036174892737441455
145	0x3fb2ce4843c63d1e	0.07346011786124904
146	0xbfb256016e5d6e60	-0.07162484116036572
147	0xbf76a0a75eb32040	-0.0055243051421670075
148	0x3fb6df9716d3dfe6	0.08934921557727157
149	0xbfbded53c3f1b35c	-0.1169025758151298
150	0xbfa83b3394d30ec4	-0.04732667152123107
151	0x3f9b52f3a0e13430	0.02668362302238253
152	0x3f83a3cb1b391e50	0.009589754837306647
153	0xbfa8aabd188548b4	-0.04817763256382204
154	0x3fc31c901e3ce751	0.1493091724058169
155	0xbfc1cb843ba95004	-0.1390233317675894
156	0x3fb6313864e20f92	0.0866885420128354
157	0xbfc190af0e1013f3	-0.137227899424175
158	0x3fc30d577b059801	0.14884465701032926
159	0x3f9684363633b8b0	0.02198872285674075
160	0xbfc4fe6e0fe140f0	-0.16401458526025392
161	0x3f8328b1be4c9220	0.009354961986511034
162	0x3fa2407f811696cc	0.035648331172792064
163	0xbfb6770086a3af03	-0.08775332724661315
164	0xbfc4b316ce676366	-0.16171536520303248
165	0x3fc935ee084ddaa3	0.19695830731844408
166	0x3f73fdc8472cf760	0.0048806975708524936
167	0xbfaa262ba9bc9634	-0.051072468251998876
168	0xbfc2552cb75dd5d3	-0.14322432473606614
169	0xbfc0d789e93f1b0c	-0.1315777195834119
170	0x3fc70fc9ad520a77	0.1801693054477089
171	0xbfaa95c81f07c984	-0.05192399386204996
172	0x3fad28fd3a069cfc	0.0569533475239101
173	0x3fc1f3ea2a3ce285	0.14025618612665283
174	0x3fa256940d8b5420	0.03581679025015938
175	0xbfbf0a6f3ee0a4df	-0.12125296864600753
176	0x3fc11ced3a4ce407	0.13369527193734163
177	0x3fbf041e6b2b9a9a	0.12115659824812966
178	0x3fb797b63b4bc176	0.09215868899969401
179	0xbf8792b327babcd0	-0.011510276460596464
180	0xbfa5e06730dc0aa4	-0.0427276847022047
181	0xbfc2e752e3027814	-0.14768444141822157
182	0x3f9d10aae00160a8	0.02838389389248222
183	0xbfc593260da49036	-0.1685531202903136
184	0xbfa3bad1070da0ac	-0.03853467188929591
185	0xbf7ccafb0e2431a0	-0.007029514965563172
186	0xbfb2aef52a4d28ca	-0.07298214228390801
187	0xbfc7e348e8a88719	-0.18662368164319146
188	0x3f931849418fda68	0.01864733183534853
189	0xbf9750942ad451f0	-0.022768321146104442
190	0xbfc7520c087b76ee	-0.18219137586759565
191	0xbfa521af2c2e9bec	-0.04127261556941861
192	0xbfc6d9088476d0b3	-0.17849832981085498
193	0x3fc0fcfb1d3eaf19	0.13272036483737606
194	0xbfc75dfaebd0a40c	-0.18255554689793063
195	0xbfbff22480abfd1c	-0.12478855267908212
196	0xbfc0c836fa1f74c6	-0.13111006939917597
197	0x3fb6fd2ebdff02ae	0.08980075968339449
198	0x3fc2e698a4ea4bc9	0.14766223957539484
199	0x3fc0e3555180a909	0.1319376609765828
200	0xbfac5cc798132b54	-0.055395352662876235
201	0xbfa27ca2704a3438	-0.036107135970361914
202	0x3fb196a267acca42	0.06870474845053656
203	0x3fc28f987da83bd5	0.14500719199756298
204	0xbf9273a49d466280	-0.018019268130589072
205	0xbf9ea25a9b2b1ed8	-0.0299162060935306
206	0x3fc86e48c0348c1d	0.19086560616514783
207	0xbfa34119bd8bf72c	-0.037606052768735715
208	0xbfc1daef63dd5353	-0.1394938695545088
209	0x3fc0be3b8ef774af	0.13080543976585576
210	0x3fba86a7cd5985fe	0.1036171795217555
211	0x3f8b9024802f1a30	0.013458523904671699
212	0xbf8a9f77dc08f280	-0.012999473955568108
213	0xbfb3d8824e8b93cc	-0.07752241532905585
214	0x3fb70623e55bc81e	0.08993744229863451
215	0xbfc5be6b0f2c5926	-0.16987360230332021
216	0x3fa5d4e3186d6338	0.04263982461151844
217	0x3fc5c37aff4db625	0.17002809015268486
218	0xbfa3974df6cb2398	-0.03826373708358871
219	0xbfb58623b338791f	-0.08407805562498936
220	0xbfc20969a85ecf5b	-0.14091225358208245
221	0x3fb0c2218a6f121e	0.06546220426304969
222	0x3fc64a0efaea78e1	0.17413508655312795
223	0x3faa1c51a6df6744	0.05099730646152392
224	0x3fb5729a5410c0be	0.08377995064143115
225	0x3fb5f90ce772dede	0.08583145762065267
226	0xbf8272608add54a0	-0.009007219541368905
227	0xbf80897ddf5ea300	-0.008074744586183069
228	0x3f843b7904d67ab0	0.009879060230386955
229	0xbf81ac588994ea30	-0.008629504870090704
230	0xbfc17d2e69e527a0	-0.13663273020420963
231	0xbf996b27f19a4680	-0.024822830315832878
232	0xbfc4c646ed83bf90	-0.1623009357203924
233	0xbfa65bf648ac82ec	-0.0436703647340034
234	0xbf8afa30132cf6b0	-0.013172507844156328
235	0xbfb7a9cb6f6429d6	-0.09243461102975145
236	0x3fb5ea5142d11bf6	0.08560665017385802
237	0xbfc8415b91b52033	-0.18949455847382665
238	0x3fc98cb8940fb06d	0.1996069643931863
239	0x3fc391d851a08c39	0.1528883360452669
240	0xbfb74eb058c1f6d6	-0.09104444662986153
241	0x3fae0059775810ac	0.058596416300163184
242	0xbfc7e9d424a99fb1	-0.18682338514486
243	0xbfc8cc57c41a3546	-0.19373604846297549
244	0x3fc5c250ae4119f5	0.1699925280428968
245	0x3fc95c679fa147f7	0.19813247007783705
246	0xbfb7fb4e569da2cc	-0.09367837538378437
247	0x3fb99093c7eabb6e	0.09986232405456771
248	0xbfb0ac539937814a	-0.06512949457783637
249	0x3fc30aa2e2886bb5	0.14876209317375602

conv1_bias f8 [10]
0	0x3f8ca272e1dbbb60	0.013981721418046156
1	0x3fba9f8a2e8eb788	0.1039968837419264
2	0xbfc9603413051600	-0.19824839523987237
3	0xbfb8bba022205b30	-0.09661293824352124
4	0xbfc7b8fc499bf65f	-0.1853328093929347
5	0xbfc215babd7e7368	-0.14128813030847742
6	0xbf990d465af683e8	-0.024464701940477257
7	0xbfb4a242a319f33a	-0.08060089570967657
8	0x3fbe9c82b9ba133c	0.11957566294047423
9	0xbfa7410b7a7e458c	-0.045418127730168484

conv2_weight f8 [20, 10, 5, 5]
0	0xbf68323c05cee190	-0.002953641158878813
1	0xbf8e9b71e38f3124	-0.014944925076541944
2	0x3f86503aa2475a98	0.010895212247232153
3	0xbf899b46de2c5940	-0.01250319829481994
4	0xbfafffb0e9b5f309	-0.06249764302171996
5	0xbf52d605dcdcb680	-0.0011496598485324638
6	0x3f9cd18642bdc044	0.02814302236896561
7	0x3f7725304cd8ae30	0.005650700256903771
8	0x3fafd7d5845feb6c	0.062193558129329
9	0x3faf14c163bd8d90	0.0607052263501614
10	0x3f29d18e44405000	0.00019698011067303955
11	0xbfa453ed626d74a4	-0.03970281435497583
12	0x3f84e8bcf113c010	0.010209537608233205
13	0x3fb02c9a53a4a1a0	0.06318058530872017
14	0x3fa05b5fc20d6394	0.03194712871363162
15	0x3f88f2a85a1b5a80	0.012181582689135384
16	0xbf7799f29a3a1cc0	-0.005762050309960631
17	0x3fa436b7d20f4dc6	0.039479965583861396
18	0x3fa0315e00ca4536	0.0316266418423176
19	0x3f927c923960d6a0	0.018053326370326972
20	0x3fb0146149c54b78	0.06281097460786877
21	0x3fa7c659fe21d726	0.04643517710876059
22	0xbf802dbc6f20ecb8	-0.007899734631897068
23	0xbfae3b30ee2dc7ca	-0.05904534251648348
24	0x3f94f54d84ae96c0	0.020467005942598204
25	0xbf958f876e2112de	-0.021055332276108334
26	0x3fa5b888a195c94a	0.04242350552057646
27	0x3fa41a6b46b9b62c	0.03926406133983237
28	0x3f9f82398d0d6704	0.030770205721046842
29	0xbfaf72e11ac0a62c	-0.06142333461350477
30	0xbf90cd8e232a5586	-0.016409130951236438
31	0xbf9837369c5aa88a	-0.02364812211332227
32	0x3fa9d495e2f2f370	0.05045002360700479
33	0x3faed705cb7dbd8e	0.060234242525321155
34	0x3f98af2aa2ff52e0	0.02410570735794948
35	0x3fa5974bfafc1efa	0.04216992796687964
36	0x3fa2f38183add84e	0.03701405270014445
37	0xbfa37ed050ef4106	-0.03807688701602001
38	0x3f896ad0057cf0e0	0.012410760085565575
39	0x3fa4189bfa675ada	0.03925025397955091
40	0xbfaedcd0f56b8cac	-0.06027844425059334
41	0xbfa46f6f6536791e	-0.03991268263347279
42	0xbf9cd93a9473c94c	-0.028172412215050444
43	0xbf99f8952113dd3c	-0.02536232962026229
44	0x3faf1f8e387e5c18	0.06078762473696758
45	0xbf5a40d0271696e0	-0.0016023667088602075
46	0x3f9e3004236e7424	0.029480042135777165
47	0x3f71a17d70517090	0.00430439948567253
48	0x3fa17aafff79f3dc	0.03413915628059502
49	0xbf78e517ba2255a0	-0.006077854808741817
50	0xbfaa8d68cd49f6ab	-0.05186011796921027
51	0xbfafce33aa0eefde	-0.062120069989276536
52	0xbf6906fd43f43450	-0.0030550905791018393
53	0xbf9082fc72348dfa	-0.016124672384774975
54	0xbf8aaaf6748ceaac	-0.013021398002469674
55	0xbf9e1c1ca5e0a5c4	-0.02940411341129391
56	0x3f79fa8d49523cc0	0.006342460536998107
57	0xbfafd15741818aae	-0.06214401888498365
58	0x3f564ae1e01d0340	0.001360626775252352
59	0xbfae9d53cab76c54	-0.05979406213347063
60	0xbfa8a5f4a3a62e35	-0.048141140915586446
61	0xbf647028b8ec9fb0	-0.0024948878630261725
62	0xbf949ea5424cb8f0	-0.020136434718716012
63	0xbf64e4b5a5823b20	-0.002550463465076716
64	0xbf9128f0d2e126ac	-0.01675773894411374
65	0xbfa82a898e2ca1c2	-0.04719953403975154
66	0xbfa1331d2d2adaee	-0.03359309364662076
67	0x3f790cca140c9100	0.006115712517189786
68	0x3f88955cdde98a78	0.012003636858201036
69	0xbf75ae6eb4062ef8	-0.005293304857683749
70	0xbf51ab0629eb4480	-0.0010783729737122993
71	0x3f6f2c0c4ca8d5e0	0.003805183431974099
72	0x3f862bba26e6c7e0	0.010825590431384258
73	0xbf37c5c98896fc00	-0.0003627411866453101
74	0xbfa73d9d11639939	-0.045391949055373755
75	0x3fa9c64e1a1ea62e	0.05034107273906972
76	0xbf92343738164202	-0.01777731208636802
77	0xbfa80207d1e72d82	-0.04689049184124895
78	0x3f9da138923481b4	0.028935321735049604
79	0x3f95fea6883f3a24	0.021479227128844994
80	0x3f8118f4a6201f18	0.008348380393740792
81	0xbf6ee4fc7afbb280	-0.003771298528468414
82	0xbf939d5c102f9194	-0.019154966819671396
83	0x3faa8f1e7b507b12	0.05187316184332337
84	0x3fb014e993278416	0.06281909792552684
85	0xbf74033420d3ab20	-0.004885867715737985
86	0x3f86aa05fef422a8	0.011066481440609025
87	0x3f9bca88a3105738	0.027139792397142787
88	0x3f68c5c8da421980	0.0030239985372332856
89	0xbf9f10a2e999603a	-0.030336900241622035
90	0x3fa932bfee2ee25e	0.04921531469830563
91	0xbf6735b02930c1e0	-0.002833217682131059
92	0xbf96fd7f36d77226	-0.022451389047875157
93	0x3fa19ac21ac6b5d4	0.03438383652551705
94	0x3f94f99fca2c3030	0.020483490671765192
95	0xbfadfebce6db98a1	-0.0585841209229312
96	0x3f916ee32d094eec	0.017024564384270954
97	0xbf920c41f59e25da	-0.017624884239500684
98	0xbf863954a93aaa24	-0.010851537146057195
99	0xbf9d5ee4a8362bbc	-0.028682301298925003
100	0xbfab75a2107f12c4	-0.053631844056814454
101	0xbfade361512568f8	-0.05837539783051854
102	0x3f90239362972d6c	0.015760710613716908
103	0xbf950b38f21297d4	-0.020550622725430248
104	0xbf66f0da1d3f9a40	-0.002800394062421746
105	0xbf7752cb79ab2818	-0.00569419367338677
106	0x3faca28ec6eedafa	0.055927717002694124
107	0xbf812a0de69ddf68	-0.008380993461954936
108	0xbfa06e7172496474	-0.032092614365588995
109	0x3f94cd0c553765dc	0.02031344671363465
110	0xbfaa0919d4a21e6c	-0.05085068436261228
111	0x3fa3e89792decc98	0.03888391177988487
112	0xbfae39215afa1485	-0.059029619556022296
113	0xbf69eea72475f4a0	-0.0031655563831792383
114	0x3fa8deb734134004	0.0485741854732851
115	0x3f91e85bdb2acc28	0.0174879410285024
116	0xbf6d72fad9e5ab00	-0.0035948657452328225
117	0x3f9a98f6a31f2c00	0.02597413416496508
118	0xbfac57d4cbbeca98	-0.05535759913563715
119	0x3f89e38003a5fce0	0.012640953170146962
120	0x3f9798d229faf2fc	0.023043903171799038
121	0x3faf5f1468ea06da	0.061272275740533025
122	0x3f94b83a6e5fc41c	0.020234024988841623
123	0x3f9dc6963cc00090	0.029077861268888727
124	0x3f8a1262a09aeb08	0.012730379606514144
125	0xbfaa549c7d1e7b1e	-0.05142678286869383
126	0x3fa87802bbdc4418	0.04779060881822533
127	0x3fa21f137ae92cee	0.03539334178329932
128	0xbfa9451fbcb73ae9	-0.04935549906405418
129	0x3fa7b50b9097750a	0.04630314006838361
130	0x3f84bd3a8ccebf08	0.010126550123316772
131	0x3f63718606356a80	0.0023734681760008702
132	0xbf944ed07f716030	-0.019831903246398663
133	0x3f9a294cdd92c8a0	0.025548172973409167
134	0xbfa4cc3a5b685427	-0.04062063566031098
135	0xbf7082d2c28b4100	-0.004031012803082712
136	0x3f8bfa2d3b251800	0.013660767905673055
137	0xbfa0b46cd29b04ee	-0.03262653418415505
138	0x3f914a4e7a2f563c	0.016885019500327156
139	0x3facfee195668548	0.05663208912597867
140	0x3f65ffefc378cf40	0.0026855166322778123
141	0x3f92ba9a4c6667b4	0.018289957917296554
142	0xbfa99d237a9247a9	-0.05002699729187949
143	0xbf8565c190b3504c	-0.010447990635306457
144	0xbf9f5954cb03c08c	-0.03061420907118921
145	0xbf821c65c4f0af98	-0.00884322650207263
146	0xbf7aa203fff58a80	-0.006502166389824482
147	0x3f97eb9e55847ec0	0.023359750718667582
148	0xbfae78e91f77c15b	-0.05951622494819971
149	0xbf955a8dc5b76c3e	-0.020853247826249303
150	0xbf850b8b06b84414	-0.010275922911235504
151	0xbf8530bd31d3f93c	-0.010346868594294116
152	0x3fa2084a97160766	0.03521950811683787
153	0xbfa28dd90eb6eeb2	-0.03623846344586691
154	0xbfac38cf6a6ca494	-0.05512092756391343
155	0x3f90ebe037c3b23c	0.016524794963446818
156	0x3fa6a6720def8712	0.04423862857926343
157	0x3f77f3bc67651610	0.005847679093056182
158	0xbf999cb9e44c400e	-0.02501192527694234
159	0x3faf3dc09a9c27d0	0.06101800811127556
160	0x3f869edafce10668	0.011045180170302163
161	0xbfad0606db1f08d2	-0.05668660569019014
162	0xbf96c00e6a39e7f0	-0.022217011674435072
163	0x3fa441439d256b7a	0.03956042569435332
164	0x3fab3d263d69ce00	0.053200907704106015
165	0xbfaaabc24c271c6a	-0.05209166698073704
166	0xbf9d6cc163ed0f4a	-0.028735181545257484
167	0xbfa70b962c13a25c	-0.04501027381940467
168	0x3fabc3fd0b25a138	0.05422964821883841
169	0xbfae9b96a2c58662	-0.05978079544980798
170	0x3fa1b05cee5ef75e	0.034548668001191926
171	0xbf827c10c405f310	-0.009025698644785446
172	0xbf1990d4811f0c00	-9.752556823543201e-05
173	0xbfaf7e018231211a	-0.061508223669593146
174	0xbf6373105844d600	-0.002374202655256452
175	0xbfa5aff009ea504e	-0.04235792275463322
176	0x3fa30fe4911fc10a	0.037230627742134884
177	0x3f916eedca785894	0.01702472255973271
178	0x3fa2bc628e951930	0.03659351339824679
179	0x3f94d94adb740644	0.02036015476642762
180	0x3f9663ccf57a7274	0.021865084154898587
181	0x3f9c45f6b2e0f164	0.027610640209091555
182	0xbf5553f6678b2100	-0.001301756505357743
183	0xbfafc1f3f9dcf1b5	-0.06202661919676037
184	0xbf9a85cfc2829418	-0.02590107559867158
185	0xbfa752b1361cfcf4	-0.04555276666223476
186	0xbfaa6b2fd6305664	-0.051599020858856176
187	0x3f9f808af9f17870	0.030763789658856344
188	0xbf893eff8ce2d914	-0.012327190863612482
189	0x3fabeaeba15deb02	0.054526675651649384
190	0xbfa3e11dd719cac8	-0.03882687807790358
191	0xbfa18847495e6447	-0.0342428471623824
192	0x3fa7a165a9f8909e	0.04615323734131603
193	0xbfacd2c8507c10e0	-0.05629564268568443
194	0xbf97105457d69850	-0.02252322946665003
195	0xbf94b89ae9defdc2	-0.020235462688786184
196	0xbfa21c40cfbfbeab	-0.03537180458067487
197	0x3fa81efde20ba7a6	0.047111448138664344
198	0x3fafc8e01d5bd89c	0.06207943304427596
199	0xbf73ba25613cbf10	-0.004816194548581412
200	0xbf97c44a808dac44	-0.023209728332784132
201	0x3f8a690eda2ce6f8	0.0128956947643135
202	0x3f8821c629cac970	0.01178316893615225
203	0x3fa28a4796fb24ec	0.03621123998670747
204	0xbfa9840e12802613	-0.049835624464389515
205	0xbf8ff61d05e37af0	-0.015606142751889845
206	0xbfa60bf3b0f2bbc9	-0.043059935903663034
207	0xbf79d13e42a1b580	-0.0063030654947459075
208	0xbfa2c58672f606d4	-0.03666324761708287
209	0x3faa41b2d1d981a2	0.05128248988762897
210	0x3fb01b289e121ae8	0.06291440829418671
211	0x3f97630bca68d1d8	0.022838768223850753
212	0x3f97ffe8dff41690	0.023437155407938948
213	0x3fa4670a72abb276	0.03984863900936812
214	0xbfad7ddaabf4b53e	-0.057600816240987104
215	0xbf9dedbd6f0db402	-0.02922721853558486
216	0xbf9bc9a0f61b7e48	-0.027136340161517475
217	0xbfa12be783ab9df4	-0.033538088629764845
218	0x3f88aa15ace0bdb8	0.012043160761179603
219	0xbfa43b014d3a3528	-0.03951267307011569
220	0xbfa102a08cdd11e8	-0.03322316855932056
221	0xbf8b40ef70d5bdcc	-0.013307448035191259
222	0x3f95e66b8dbd7cec	0.021386795545706258
223	0xbf93c6d1e948637c	-0.01931312548012752
224	0x3fac9d9daa277c82	0.055890013714582146
225	0xbf901c30215833c0	-0.01573252872008246
226	0xbfa55576f3d97336	-0.04166766859700603
227	0x3fa807be57e3c42e	0.046934078434681545
228	0xbf99e3f84ee45424	-0.02528369885938643
229	0xbf59114aedaa5e80	-0.0015300018045873165
230	0x3faae3421c869ac2	0.0525150928327114
231	0x3fa2883e3f151854	0.03619570274399622
232	0xbf842ef00b62ed74	-0.009855151507841532
233	0xbfaa2fec94afb2af	-0.05114688220041807
234	0xbfa8b6ad4917249b	-0.04826871411530328
235	0x3f990f007a671194	0.024471290083754108
236	0xbfa2e3a90e6c6ad8	-0.03689316083019428
237	0xbfa818c5530ef060	-0.04706398619552554
238	0xbf95c4bf12656172	-0.02125834035663971
239	0xbfa67095ab617722	-0.043827702684877914
240	0xbf926d9251152952	-0.017996107291119508
241	0xbfa81f2be992d1d5	-0.047112819921867256
242	0x3fa43cd9069a0376	0.0395267315443623
243	0xbf9f1dc8c271c33e	-0.030387055271094747
244	0x3fa15ef9a5fd415c	0.03392772818790732
245	0xbf934760cb82a37a	-0.018826973363192924
246	0x3fa2b112455760ba	0.036507197346226275
247	0xbfa792c03a827c5b	-0.04604149545888766
248	0xbf9dbc4b1fd80402	-0.0290385950265808
249	0x3f84a7dba31e81f0	0.010085788646223087
250	0x3f2be55ff10b9400	0.00021282955324078423
251	0x3f96411947f94afc	0.02173270704072204
252	0xbfa578924460c322	-0.04193551144306286
253	0xbf9be7d1140244ea	-0.027251498075718063
254	0x3f7f77551fce5660	0.0076821637311660085
255	0xbf7abce44a0e0828	-0.00652779746531177

conv2_bias f8 [20]
0	0xbfa0169dc4e192e4	-0.03142254856428453
1	0xbfa74fd0210f3190	-0.04553079989964026
2	0x3f9a480d44bee41c	0.025665480919745062
3	0x3fa02f469b15bc28	0.0316106857597947
4	0x3f9f62384b1ea4d8	0.030648116669600295
5	0x3f91350104a74d90	0.016803756627110256
6	0xbf475dcb47596b80	-0.0007130854198281605
7	0x3fa110a181633f42	0.03333000854911329
8	0xbf8ce05a827729d8	-0.014099795443048999
9	0x3f873f5d780f5fa0	0.011351328112070125
10	0x3fab322e859c9ff0	0.05311723118785483
11	0xbf9241bd59cfb1ac	-0.01782890186943724
12	0xbfaaf227713c31c1	-0.05262873894944021
13	0xbfa77e88163e0dce	-0.045887234416138165
14	0xbfab747d0a88f856	-0.05362311128236345
15	0x3f95d33a3fcbde28	0.021313581603832926
16	0x3fae348e48647c1e	0.058994718873002436
17	0xbfa98ee4f3725978	-0.049918322293865225
18	0x3f9bede2cf407a0c	0.02727465047802906
19	0xbf8a30166c8cea58	-0.012787032306382048

fc1_weight f8 [50, 320]
0	0xbf6db4ab6ad1e9f0	-0.0036261890405146976
1	0x3fa28d9b1c5f2f16	0.036236617291789994
2	0xbf7df6f2dfed9788	-0.007315586785670798
3	0x3f9e9e140feca38c	0.029899896118112987
4	0xbf84430748797c6c	-0.00989347162174977
5	0x3f96e293776f84e0	0.02234869400479489
6	0x3f90031d573735a0	0.015636881302091177
7	0xbfa943371e888fa8	-0.04934093711588555
8	0xbfabba8dc243de23	-0.054157667125704266
9	0x3faa499de84d93a6	0.051342901809028604
10	0xbfa2d6bd460cce6d	-0.036794581223514956
11	0x3f857cfda7e05c80	0.010492307363206388
12	0x3f87b7064d126de8	0.011579560496378385
13	0xbfa42856042f99a6	-0.03937023926828269
14	0xbf719e9196d0a978	-0.0043016135287338095
15	0xbfa650652e63b50a	-0.04358211699750754
16	0xbf9f4c9bbfc164d4	-0.030565675333808454
17	0xbfa93f6d571ac88c	-0.04931203544892168
18	0x3f9d208f96490594	0.02844452242630309
19	0xbf83b326ed0e5acc	-0.009619049176575876
20	0x3f9d47cbfa5fef30	0.028594195515309895
21	0xbfa146bb570e09be	-0.033742765785990766
22	0xbf9df917aab25a97	-0.029270524781703413
23	0x3fac0790876e2996	0.054745213062307105
24	0xbfac724abd3c689a	-0.055559478378385665
25	0xbf66a393ea54e560	-0.0027635468456110174
26	0xbf98f39b13d6f4d2	-0.02436678227035289
27	0x3f84f54637eb28e0	0.010233448583126081
28	0x3fa306416fc3365e	0.03715710152901573
29	0xbf95a37668f2c41c	-0.021131372600113094
30	0xbf9b435cf73102be	-0.0266241575120627
31	0x3fa87154e4997578	0.047739651589590204
32	0x3f80c84b38a39740	0.008194530168519898
33	0xbf827c64c47fe148	-0.009026324507417485
34	0x3f96e1f02372e9f0	0.022346260226848658
35	0x3f93cd462d4898b8	0.01933774615658798
36	0xbf647cce8f35c820	-0.002500918804508437
37	0xbfac400923c7b936	-0.05517605363626148
38	0xbf96d23af76fd708	-0.022286340095852203
39	0xbfa1aad0416147a2	-0.0345063285646028
40	0x3f9a841ffe9e3834	0.02589464179578034
41	0xbf8f0978d285a138	-0.015154785084363284
42	0x3f89b5684dd5ff78	0.012553038478244835
43	0xbfa83f00bc28e3e1	-0.04735567376014394
44	0x3faa56168468ad22	0.05143804899520378
45	0x3f9d719b2828aa10	0.0287536853085531
46	0x3f828bdba0dc1ec0	0.009055820318749297
47	0x3fa0718a1df48b6c	0.0321162377897711
48	0x3f2b41cff9e85e00	0.00020795501491542578
49	0x3f9652c749940f54	0.02180014978968299
50	0x3fa207acf4b01bac	0.03521481024659265
51	0x3f9ba4184373f514	0.02699315940571008
52	0xbfa32ad0b4c1dfc6	-0.03743602949629081
53	0x3fa27a6ebfb5bba4	0.0360903367062442
54	0xbfa093a45ef18c5a	-0.03237641962984901
55	0x3f9001a01a9231cc	0.01563120042969661
56	0x3f92430cb1229ccc	0.01783389884135715
57	0x3fa3485b851ad2ae	0.03766141891302276
58	0x3fa224be77e7fe50	0.03543658460330035
59	0xbf99a05a8d4778c4	-0.025025763390538427
60	0x3faad7ad6bdc7910	0.052426738182690724
61	0x3fab4725231c5e88	0.053277168785084206
62	0x3f9d245b9f4253ac	0.028459006877330204
63	0xbf9d11b005f742ad	-0.028387785305144565
64	0xbfa76128052a3395	-0.045663118963694384
65	0xbfa3557c4916fdba	-0.03776157753190597
66	0xbf852e1f44f24918	-0.010341877261713026
67	0xbf943283a4bc0d9a	-0.019723946504212365
68	0x3f93061638cef9ec	0.018577906815829978
69	0x3fa702a5d435ce76	0.044942075876773055
70	0xbf7c5c49265256c0	-0.006923948040954364
71	0xbf8a59f7b6b0868c	-0.01286691213869353
72	0xbfa43cd082ac370d	-0.03952647776723781
73	0x3fa115c1ab1dbca2	0.03336911405391986
74	0xbfa91df6d8986561	-0.04905673402772482
75	0xbfa1c2f452a199d8	-0.03469050892526909
76	0x3fa9f312677b6bb6	0.050682616359800134
77	0x3f75cd0f4d4f13e0	0.005322513364210274
78	0x3f69ffe509f27c70	0.0031737779059564583
79	0x3f9943560e49ea74	0.024670929548373313
80	0x3fa0598ad9078c8a	0.03193315409932847
81	0xbfa257f7ec06a806	-0.035827395974891416
82	0xbf7bba664feddaf8	-0.00676956144058382
83	0xbf8793203423cf90	-0.011511088935072938
84	0xbfa787fa709494b8	-0.045959306948398504
85	0xbfab56689232e3af	-0.05339361939099462
86	0x3fa2493ff2f6aee8	0.0357151016317781
87	0x3f9335cb7b96ad18	0.018759898584602558
88	0x3f97107852af786c	0.022523765608518806
89	0x3f7f55a96f1730e0	0.007650052882535813
90	0x3f7a9ced97747878	0.006497314541119896
91	0x3f93c77c03a824a4	0.019315660212701716
92	0xbf97ae48123e7e4e	-0.023125768769771952
93	0x3fa9bce4101c49ee	0.050269247976888795
94	0xbf995d9d041da4ba	-0.024771169067581346
95	0x3f95ae58fa7684c4	0.02117289570526705
96	0x3fa58df0185c78d0	0.04209852502229838
97	0x3f7e0a95d78cad50	0.007334313698076869
98	0xbf9c8ceb1c4e32f5	-0.027881311037662965
99	0xbf7b53c5396743e0	-0.006671686560779627
100	0xbfa7e906bc883d42	-0.046699724687750535
101	0xbf56c89ae52a7e20	-0.0013906014106978073
102	0x3f9fec28c3eb7aac	0.0311743135051709
103	0x3fac68cd183ffec8	0.05548706933040887
104	0xbf9a602fdc936699	-0.025757549131276567
105	0x3fa2fb161eee682a	0.037071887279310836
106	0xbfabee23021d15a2	-0.054551214225777814
107	0x3f9a93b7c15c4470	0.02595412366560307
108	0x3f678d47d3951880	0.0028749850140768474
109	0x3fa2116723235f6c	0.03528902343685911
110	0xbfaaf451b4ffbb5e	-0.05264525732478974
111	0x3fa0ad81a1e3fbf8	0.03257374860003631
112	0x3f94bf4948de31a8	0.02026094920397417
113	0x3f961310f0ced608	0.02155710668349367
114	0xbf95506e54974044	-0.020814632332815344
115	0x3f779d654cfecc18	0.0057653386174250296
116	0xbfa64e0a330db70a	-0.04356414674007965
117	0x3f8d9e414b275a28	0.014462003808984283
118	0x3fa0c3a0115e63e6	0.03274250232715996
119	0x3f91d6bc10b21f90	0.017420710104971315
120	0xbf874370c4d92790	-0.011359101302463676
121	0xbf7acc11788218c8	-0.006542270894106923
122	0x3faa5d0a8a643968	0.05149109782552125
123	0x3f50ff23277dd6c0	0.0010373919776304613
124	0xbfa68ddd7da10d82	-0.04405109556730748
125	0xbf7bf87c20dd8a30	-0.006828770519720126
126	0xbf9e1e50f3d764dc	-0.02941252220430078
127	0xbfaaa2e780000c42	-0.052024111151717026
128	0xbf9c3cc6411b7dda	-0.02757558605560271
129	0xbf9575b1c69386c8	-0.020956781144269937
130	0x3f788097df5464c0	0.005982011081209382
131	0x3f93b0fd81722d38	0.019229851747281063
132	0xbf89a0ecc5e7b714	-0.012513971128068437
133	0x3fa9809dacba8176	0.0498093865728632
134	0xbf77915c8781a090	-0.005753861849463374
135	0x3fa9b3d2e928a486	0.0502000722520473
136	0xbf91249611f9c624	-0.016741127822063842
137	0x3fa30925c9d42e2a	0.037179165732677724
138	0x3fa879e61dc5207e	0.0478050147381177
139	0xbf99c60367136e9b	-0.025169423261884743
140	0xbfa310bff9bf6f64	-0.0372371666305458
141	0xbf86b426090f88bc	-0.011085793639669432
142	0xbfa90c04a9912488	-0.0489198166838572
143	0x3fa598c92234c9a8	0.042181287217675945
144	0x3f905bbf37a0cb2c	0.01597498681094149
145	0xbfa02db7b5f7e6d8	-0.031598797762809105
146	0xbf95febb687a4326	-0.021479538204007963
147	0x3fac83708e32f1fa	0.055690305097844076
148	0x3f976a92f5cc46cc	0.022867485287014586
149	0xbf9592a0a75a008e	-0.02106715222771576
150	0xbf96f465e58f0b6a	-0.022416679512172
151	0xbfaad61b7acd5c16	-0.052414759388448015
152	0x3faab510763e6aae	0.052162661012706266
153	0xbf75538c7128ada8	-0.00520663128058222
154	0x3f969e1d1c3b9e70	0.022087530945013645
155	0xbf540acd7e8e3680	-0.0012232786923251082
156	0x3fa5bf69c819273e	0.042475991893822215
157	0x3f9f75575117037c	0.030721058201155213
158	0xbfa77f50bef5c169	-0.04589321452192758
159	0xbfac731432d34c0a	-0.05556548233439436
160	0xbf70ea6b648dd228	-0.004129809859354107
161	0x3f7017f44de00d08	0.00392909461334346
162	0xbfac459442d095e6	-0.05521834674463459
163	0xbf82261d46bffa90	-0.008861759873977776
164	0xbf9ce03844292e26	-0.028199080620011106
165	0xbfa22170577d92c8	-0.035411368064875826
166	0xbf9dd672a2fc4286	-0.029138365934218168
167	0x3f840df49613c648	0.009792242841714885
168	0xbf92d81344199672	-0.01840238669537659
169	0xbfa8c0255a840a3b	-0.04834095697335213
170	0x3f9924e5dbded5cc	0.024554816765620477
171	0xbf8fee4956887f04	-0.015591214135440186
172	0xbf9501163a634c8e	-0.02051195842143421
173	0x3f66502a3ae1c140	0.002723772507174399
174	0x3fa839167dd01644	0.04731054578591601
175	0xbf848b9dafd224e4	-0.010031921318175603
176	0x3fa394dfd7a3f044	0.038245196412362265
177	0xbfa1e52e02151e5e	-0.034951627496920365
178	0x3fa6d5b12e6f2d8a	0.044599091451881526
179	0x3fa73903471a4864	0.045356848172688286
180	0x3fa45a48675a1750	0.039751303306771235
181	0xbf3bd301ddc9b200	-0.00042456431928064586
182	0x3fa172ab18c02258	0.03407797505503102
183	0xbfaba28083ec52f2	-0.053974166969203
184	0x3f6d644ed2a36d80	0.003587869597237947
185	0x3f953b6d9c0d6598	0.020734512948683198
186	0x3fa2f89e2b35ce52	0.0370530536410142
187	0xbfa74eb038079c67	-0.045522219504896815
188	0x3f9398a3f5c9474c	0.019136964680291954
189	0x3fa2f9a0e8e9469a	0.03706076472429949
190	0xbfa483b13a1923ba	-0.040067232458177185
191	0x3fa1ca19707ed560	0.03474502084956543
192	0xbf71cc269c1b9660	-0.0043450840182451544
193	0x3fa91291c6bda0ce	0.04896979857477533
194	0x3fa9048ebf63ac84	0.04886289678855696
195	0x3f8a69eeb6c8cf08	0.012897362664353831
196	0x3f9dc26c451f5c04	0.0290619771183991
197	0x3f70ac74c07c98a8	0.004070716917146701
198	0xbf9349951034eb24	-0.01883538161676336
199	0x3fa99b73077ee130	0.05001410929202377
200	0x3f94cc69e821a0c8	0.02031102637593632
201	0x3f9b80ba028843ec	0.026858240513380524
202	0xbf9744d325c40ed8	-0.02272348325733628
203	0x3f9108f0809c9d6c	0.016635663843002232
204	0xbf9e115e6cc7d569	-0.029363131894532133
205	0x3fabe5f4080b040e	0.054488779050650846
206	0xbf9e5887467af85f	-0.02963458411863262
207	0x3fa257cfe6c9b718	0.03582620327220648
208	0x3fac8f46cc2ff48c	0.05578061335106907
209	0xbf78b367cd062f18	-0.0060304693910316
210	0xbfa4c93ab81b1993	-0.04059775826822256
211	0x3f9fec0757473970	0.031173815443076902
212	0x3fa18e42353f07fa	0.0342884721753904
213	0xbf8fb4f57188cdcc	-0.01548187020043814
214	0xbfa3a4be98ba4686	-0.03836627592421586
215	0xbf9f9127631cfcf3	-0.030827155517951742
216	0x3fa654953efe6d6a	0.043614067020110905
217	0xbf7c83a375911c70	-0.00696147776859056
218	0x3f911c0c189e1b10	0.016708554270304765
219	0x3f7957c6b6525980	0.006187225551136044
220	0xbfac7476343cb0ae	-0.05557603252086217
221	0x3f9eecc130d84890	0.0302000223219428
222	0xbfa8c694c59ff03b	-0.04839005386745084
223	0xbfa6af35a638fa07	-0.04430549291690871
224	0x3f9012711eef71e0	0.015695350182669432
225	0x3f959ec6a8fa1438	0.021113494933633542
226	0x3fa1d13ca07f7c6a	0.03479947528079992
227	0x3fa8bf3d0ccfeb30	0.04833403378866874
228	0x3fa21a17c71aee9a	0.03535532289012373
229	0xbf996b90b95a7c95	-0.02482439166362534
230	0xbfac97910dbe2cbe	-0.055843861510845624
231	0x3fa49067c867dabc	0.040164225781997825
232	0x3fa3230ff8137472	0.03737687972327643
233	0x3fa8d6be8a57d6a0	0.048513368976199844
234	0x3f61b1441fff2120	0.0021597223821780004
235	0x3fa62a327b5a4188	0.04329068904656014
236	0xbf9ffd7c85a7a3cc	-0.031240411431926948
237	0x3f688f100c118600	0.002997905103754972
238	0xbf7ccbb428d6af80	-0.0070302045327642615
239	0xbf94e366bb206b18	-0.020398717089942314
240	0x3f83e923ac086de8	0.009722021758583346
241	0x3fa62e08dfe705e2	0.04331996663269046
242	0xbfaa49499a189aec	-0.051340389309464246
243	0x3f9b3dd388b3668c	0.02660303613524788
244	0xbfab766e5ede325a	-0.05363793285423375
245	0x3f964e724b8767e8	0.02178362451545715
246	0xbfab98e74fffa3a1	-0.05390093661828322
247	0xbfa8b334d172499f	-0.04824223572463215
248	0xbf45443766d2f140	-0.00064900117072101
249	0xbf92bc0a35171356	-0.018295440187802235
250	0xbf914fe63d15798a	-0.01690635440660907
251	0xbf8685e188e3bc60	-0.01099754523280988
252	0x3f77a218ce1b13b8	0.005769822020458663
253	0x3fa89a0c2429e486	0.04805028859568332
254	0xbfa4f3e6f08bada7	-0.04092332540843851
255	0x3f9372ac940d30c8	0.01899213460573959

fc1_bias f8 [50]
0	0x3f9a887718eb0752	0.025911198516730245
1	0xbfa365682ee6acb5	-0.037883048749188054
2	0x3fa0f5a64601c26b	0.03312415699554524
3	0xbf9b18a945ab7dd9	-0.026461262585938037
4	0xbf91e09940e067e4	-0.017458338341476934
5	0x3f8869f44004cd9c	0.011920841411302167
6	0xbfa97478d40f39ea	-0.04971673573128384
7	0x3fa0cab38090627b	0.032796487277839646
8	0xbfa98415dce0683e	-0.04983585664031452
9	0xbfa0bc3d6ab4c6a7	-0.032686156535772164
10	0x3f9fc594d714fe4e	0.031027150752605252
11	0x3fa95b7327d4c6ad	0.049525831806375244
12	0x3fa059684444cd3d	0.03193212350233885
13	0x3faa0af1961c548b	0.05086474378018931
14	0x3f9bb374338af5d2	0.027051749845431967
15	0x3f9a9e3004640672	0.02599406267927979
16	0xbf8ac4801f3eaf68	-0.01307010741569288
17	0xbf5afc2b7dd743e0	-0.0016470360491107547
18	0xbf85156490d6de7c	-0.010294709844728127
19	0x3f64e33d12c9f110	0.0025497620429729764
20	0x3f94805c2195c502	0.0200209041117363
21	0xbf8574e217fde3f0	-0.01047684322087325
22	0x3f89a11a5f3292b4	0.012514310865591717
23	0xbfa1fb7cf81d96f8	-0.035121827399775485
24	0xbfab4153ca5ef05b	-0.053232782796357646
25	0x3f8f716d77fb2cb4	0.01535306475070395
26	0x3f9da85856077572	0.028962497950364825
27	0xbfa145ac260c30f6	-0.0337346836514331
28	0xbf67fced4b8b7410	-0.0029282221479278794
29	0xbfa55eedefdc2e0a	-0.0417398791597315
30	0xbf93a337ec19c7e4	-0.019177316461032393
31	0xbfa4ba5ea505079d	-0.040484388011932305
32	0x3fa62213e1588dd9	0.043228741891905016
33	0xbf887d66b1eef18c	-0.011957933716865175
34	0xbf7483ad77e088b0	-0.005008390055112041
35	0x3fa5e93ed415b297	0.04279514635968445
36	0xbfa1fbd5b76a1cd0	-0.035124472274270624
37	0xbfa98c3492fdb0f7	-0.04989780706714158
38	0xbf94a70d0d3879a0	-0.020168498927995437
39	0xbf8cf8024330c598	-0.014144914317600052
40	0x3f9c095a76c53876	0.02737943029324482
41	0x3f36db3bf9ed7380	0.0003487607408965629
42	0xbf880ea7a3dda554	-0.011746701896941637
43	0x3fa457f534e9daf7	0.03973356505314556
44	0xbf995a29fe2afcc6	-0.024758010996035272
45	0xbf9bae2793aaa91b	-0.027031534564835185
46	0xbfa040da10c2c7de	-0.03174478010750169
47	0xbf9a7e591108134b	-0.025872604050181363
48	0x3f9425ad1d980cc2	0.019674973422308957
49	0xbf9104dc9a31e30a	-0.01662010851984789

fc2_weight f8 [10, 50]
0	0x3fc12cab64f3b1a5	0.13417570523541858
1	0x3f9f780ca1f20178	0.030731389412268467
2	0xbfba366f7f1a8174	-0.10239312031854358
3	0xbf48b87e37384600	-0.0007544151580438085
4	0x3fb6eba816029e78	0.08953333413466591
5	0xbf9628c81295bb48	-0.021639944204646683
6	0x3fc0661f6591ced5	0.12811653575373919
7	0xbfbae43610b8e7b5	-0.10504472645052838
8	0x3fa338d8f7ce8538	0.03754308724388483
9	0x3fbf41a9d972ba22	0.12209569510262289
10	0xbfbc48af05587337	-0.11048406486993377
11	0xbfa4673201663070	-0.03984981791572373
12	0x3fb1035d2a1a695a	0.06645757940205979
13	0x3faf74dfc79d22dc	0.061438553921623756
14	0xbfc05d249e544721	-0.12784250002783273
15	0xbfba3d44cfd7e5f2	-0.10249738764095875
16	0x3fa0d866e4622a04	0.0329010156429668
17	0x3fb27947d5d60dae	0.07216309519394912
18	0xbfc1c1250fb801ec	-0.1387068106414654
19	0x3f9e663c8eb9b5b0	0.02968687649847873
20	0xbfb0f732a0d1709e	-0.06627193857406374
21	0xbfb96806ed8849bc	-0.09924357699518443
22	0xbfacb36c4bb3f712	-0.05605638908489942
23	0xbfa9f986cccd89fc	-0.05073186159167517
24	0xbfacc813f4e713a2	-0.056213973660795405
25	0xbfb3d6fdf737a840	-0.07749926839429211
26	0xbf629f824b856ec0	-0.002273325426512901
27	0xbfbababf51a4587c	-0.10441203826153073
28	0x3fbe8a1299d80a86	0.11929432159380768
29	0xbfb9a1a6c7f44470	-0.10012285596555315
30	0xbfa78b654586a2e0	-0.04598537896828758
31	0x3f9b0e3f083db178	0.026421532514562668
32	0x3fc17fcd71e3f5a3	0.13671272336061432
33	0x3f7f9c71c666ce40	0.007717556413286142
34	0x3facd5410ae6fe84	0.05631449945530867
35	0xbfc1a4a184907835	-0.1378366372381962
36	0xbfbb7155e8d4014e	-0.10719811376839525
37	0xbfc16e133eb5c216	-0.13617172777186742
38	0xbfa12d842e8eb4fc	-0.033550387080461846
39	0xbfc001a14608fc7c	-0.1250497428863787
40	0xbfb1129d87aa6435	-0.06669029771946174
41	0xbfaf4463f2ed1702	-0.061068652538365256
42	0xbfb84b5256948c78	-0.0948993169190987
43	0x3fa8f62330fd46bc	0.048752879839083246
44	0x3fb92079c2cbd7b6	0.09815178876655647
45	0x3fbd6a79bf648b16	0.11490593836473936
46	0x3fa807fb4088f094	0.04693589365749165
47	0x3fa7bff4499b3cf4	0.046386369691043955
48	0xbfb92499044df348	-0.09821468691911861
49	0x3fbc8dfec22c3d76	0.11154167404696644
50	0xbfc14e97b638818a	-0.1352109565496103
51	0xbfa61fb482be3604	-0.04321064086898832
52	0x3fc114b270ba15eb	0.13344412330859198
53	0x3fc05fc5ed71b8b9	0.12792276472049993
54	0x3fb0beb413561f76	0.06540990326004512
55	0xbfbbb7d81a0e15ae	-0.10827398906811567
56	0x3fc05ab389876b05	0.12776798453599994
57	0x3fb0a16af3256642	0.0649630397432697
58	0x3fb6d7ac6cf2135c	0.08922841701321488
59	0xbfc0587caab87553	-0.12770040832485083
60	0xbfc0bde5372882b4	-0.1307951468779912
61	0xbfa6829cb526312e	-0.04396524153989599
62	0xbfa6dcc929e85216	-0.04465321194235032
63	0xbfb8d9f8f61a366e	-0.09707599647864537
64	0xbf8347baa052a140	-0.009414155976927518
65	0x3f87e9e3331b71c0	0.011676573750656227
66	0x3fc1f3dd1fc703c1	0.1402546315348712
67	0xbfaec2bca123c002	-0.06007947413479543
68	0xbfb5205515b3594f	-0.08252460269736626
69	0x3f9b51b91bef1720	0.02667893631930618
70	0xbf5274d5631ae500	-0.0011264880999262705
71	0x3fb863d57ed2d082	0.09527334543492041
72	0xbfc1600188c79873	-0.13574237040228673
73	0xbfbaca42d40d4654	-0.10464875866934992
74	0xbfc0e57a47f3e721	-0.1320031024295583
75	0xbf687314803e6e40	-0.002984561959193305
76	0xbfb3d0537edd6b97	-0.07739755484855802
77	0xbf831ca678b371f0	-0.009331989820958037
78	0x3fb13bb074d610ee	0.06731703617521465
79	0x3fa84173a5cf3330	0.047374357214357565
80	0x3f99a57348a68400	0.025045205411178273
81	0x3fa3787b8af62da4	0.03802858420666702
82	0xbfaed0289b66888e	-0.06018187424639719
83	0xbfb249697b889f2a	-0.07143267885168983
84	0xbfbf9b589eb6839d	-0.12346414446666505
85	0xbfc17bf052fd8662	-0.1365948109842519
86	0x3fbb470419517dfa	0.10655236833689932
87	0x3f984d0872dada48	0.023731357584177354
88	0x3f91438cf2d58470	0.016859247514166176
89	0xbfbcb8632cfc8964	-0.11218852852156186
90	0xbfb10a171828bf4d	-0.0665602144224497
91	0x3facc33e48f07374	0.05617708816882941
92	0x3fc0fd5516482835	0.13273109043103806
93	0x3f9972a07be456f8	0.024851329385533
94	0xbfbe9335ce7cd757	-0.11943374911501557
95	0x3fc056d5cb43a68b	0.1276499979497213
96	0x3fa450dca2c333ec	0.039679427021475394
97	0x3faa524ba23da9b4	0.051409114413064755
98	0x3fbb154b01e6a0f8	0.10579365536125696
99	0x3fabffaf8c669fdc	0.05468510235669985
100	0xbfb055267b007635	-0.06379929068540309
101	0xbfc1138535ecc191	-0.13340821393059035
102	0xbfb9a89921d6ef8a	-0.10022885395204476
103	0xbfbd9f37e638a1f7	-0.1157107293189553
104	0x3fb7c569f0086f6a	0.09285604582004017
105	0x3fa038ef6988d4a8	0.031684381134632844
106	0x3fafe33b96373940	0.0622805233830257
107	0xbfa9a470620b06e6	-0.050082694976948436
108	0x3fb6a9bbe927da60	0.08852743570592159
109	0xbfbd50aecf2ae072	-0.11451237256813032
110	0x3fbacef7b8956094	0.10472057587083078
111	0x3fb1cc5242c93384	0.06952394609943552
112	0x3fb903a25d419eea	0.0977117040325727
113	0xbfbebac759ca916a	-0.12003751699609713
114	0xbf8c99fb80dbdad0	-0.013965573186835029
115	0xbf990379b2f8d3f8	-0.02442732004984191
116	0x3fc1a7d88662076f	0.13793474733034425
117	0x3fb71c2641096e12	0.0902732762128198
118	0x3fa14382e6c21d94	0.0337181955993017
119	0xbfb76aa9b449433a	-0.09147129680173985
120	0x3f9ea60bc4675db0	0.02993029009107112
121	0xbfc0e89f78a76b45	-0.13209908858592648
122	0x3fc0eaa3ac301f39	0.13216062457672154
123	0x3f75d84d696514a0	0.0053332351583935955
124	0xbfc0cf8adaf0ceca	-0.13133369150602042
125	0x3faf9141a571a458	0.061655093618192935
126	0xbf839ad008eaa300	-0.009572625419723035
127	0x3fbfb88137858306	0.12390906911378971
128	0x3fb4376758656b54	0.07897039325818628
129	0xbf9b55f91d360458	-0.026695148857019596
130	0xbfb4a39ed05ad1b5	-0.08062164866243544
131	0xbfc0771f19c2a356	-0.12863529928042777
132	0x3f9de272bb98eed8	0.029184143734012874
133	0xbfac0199dd51c540	-0.05469971491482761
134	0x3fb8c354cfe1b156	0.0967305190585582
135	0xbfbb205341ba61ac	-0.10596199373902121
136	0xbfb8b4bbf7dbd7be	-0.09650778580893779
137	0xbfb18dd8ed9f0eb5	-0.06857066918660844
138	0xbf74bcbf666b4e00	-0.0050628162923263
139	0xbfb353b06a34680d	-0.07549574463737958
140	0xbfab2a9c2949e286	-0.05305946353923212
141	0xbfaaa4753435eb68	-0.05203596365296087
142	0xbfb1ad059ac96584	-0.06904635457012459
143	0x3fb0d2c50e3d27f6	0.06571609113339591
144	0x3fb4ac8946313e28	0.08075769389801535
145	0x3f91ebde27bcb8e8	0.017501326728216166
146	0x3fb21a789d166ba2	0.07071641764780037
147	0xbf951a29816a8208	-0.020607613109520556
148	0x3fab130a7ae7c228	0.05287964582737842
149	0x3f7a1a90c208f380	0.0063729910476099105
150	0x3f7eb3df862380e0	0.007495759144348052
151	0x3f96ccf701ef6408	0.022266253941641195
152	0xbf93508045aab384	-0.018861774685024382
153	0xbf9345257d226ff0	-0.018818460238080037
154	0xbfb207b70fa36ce8	-0.0704302228145256
155	0x3fa3591075ba8df4	0.037788881655867274
156	0x3fa8b99fd2388094	0.04829120103045273
157	0xbfb81e7e031f713a	-0.09421527458420523
158	0xbfb65e2f9b17fdd0	-0.08737466370074931
159	0xbfb0c1f0d56f2fb9	-0.06545930109785915
160	0xbfa2257efda96bfc	-0.03544232222039764
161	0xbfa1ebacb7fa0a64	-0.03500118013200362
162	0x3fa76e58535dac2c	0.04576374070787667
163	0x3f804c4d4ebb6fa0	0.007958034482207499
164	0x3fb064cf890d8582	0.06403824897781443
165	0x3fc2025e4d36f3e9	0.1406972767853454
166	0xbf8b12b40352b8f0	-0.013219267226614012
167	0xbfb053976994338f	-0.06377550437555456
168	0x3fb1bfa9aea693f8	0.06933079255993835
169	0xbfa6e9ad3785aeb2	-0.04475156119118874
170	0x3fbe9dda68dfb8c6	0.11959614811323424
171	0xbfbb441ba627d246	-0.10650799566776312
172	0xbfb15a24768d27b6	-0.0677817143852327
173	0x3fc13838a4abc485	0.1345282367761095
174	0xbfbdfc847afca628	-0.11713436129198185
175	0xbfb1e3b2fc757c8e	-0.06988066352413311
176	0x3fb8efb00e5f699c	0.09740734434982418
177	0x3fb331f70e734414	0.07498115637578479
178	0x3f90f4a7c99756e0	0.0165582863608823
179	0xbfc08f4b4d943ca1	-0.12937299049415166
180	0xbfa24a4644d0fc58	-0.035722919369157224
181	0x3fbfbd1d86a822ce	0.123979421019736
182	0x3fa43317bb1682f0	0.03945230635441088
183	0x3fbf3b22fbb44aa2	0.12199610371707562
184	0xbfa64fb5f58c6724	-0.043576894973922614
185	0x3f855d855d561a90	0.01043228331651605
186	0xbfc1888af663e541	-0.13697945624134358
187	0x3fbb0c1767720d28	0.10565325046086527
188	0x3fb1eeed3dcb702e	0.070051982485382
189	0x3f9db57ece635610	0.02901266226475313
190	0xbfa1c016a8b92d76	-0.03466864404307561
191	0x3fb006406559a38e	0.06259539102906173
192	0x3faf6fd1b285dfcc	0.061399987261154004
193	0x3f8cd70a4f153df0	0.014082031763478192
194	0xbf8effc6a978c6c0	-0.015136291548603409
195	0x3f9b41727b97ded0	0.026616848748715338
196	0x3fbd5762918dbbc2	0.11461463979297462
197	0xbfba95a42d9aa9e5	-0.1038458453501004
198	0xbf9d778fc5bc57cc	-0.028776403850393525
199	0xbfbce8f2cbaba2c1	-0.11292951080725812
200	0x3f9b80a31f7996c0	0.026857899471358193
201	0x3f937eda2a2e9bc8	0.019038590263928318
202	0x3fa1fcb92ea43f70	0.03513125128131278
203	0xbfa3e8b94c035f92	-0.03888491680999019
204	0xbfb748b7fa8245c2	-0.09095334878863695
205	0x3fb8d9a5e036c570	0.09707104419682877
206	0x3fb2e8abe2d5415e	0.07386278427043666
207	0x3f90ac9ca3d6e8e8	0.016283462047547298
208	0x3f93b04127dc1b58	0.01922704511437287
209	0x3fbe77817a20c3be	0.1190110133327513
210	0x3fb5601c15b471ea	0.08349776773361098
211	0x3faba4e73ba34fd8	0.053992486982366195
212	0xbf9e9cfc2737b104	-0.0298957251488199
213	0x3fa23873b1191014	0.03558694397773379
214	0xbf7b92b898ae28c0	-0.006731721000401147
215	0x3fb4d2f0938d6382	0.08134368517256799
216	0xbfabc2dfe1db1d80	-0.05422114975004444
217	0x3f93a0b4e5ad4d40	0.0191677346404735
218	0xbf8a51447a1c46f0	-0.012850317932620453
219	0xbfbb5908e134442d	-0.10682731149815146
220	0xbfa09173fdb25446	-0.032359719008276985
221	0xbfb1954ffd773ee0	-0.06868457735185585
222	0xbfba2c88a308fd44	-0.1022420309100101
223	0xbfbe85e5676054ce	-0.11923059247813514
224	0x3fb76038b5c42ac8	0.09131197393086687
225	0x3fbf55b5c4ed8076	0.12240158136182963
226	0x3fbefec360440b82	0.12107487774123452
227	0x3fbbf07d19489fae	0.10913831584241393
228	0xbf9c680d209ffa7c	-0.02774067412974056
229	0xbfa0415efa91c556	-0.031748741232955055
230	0xbfb6405d9502a88f	-0.08691964042614785
231	0xbfa0cd6f183b9062	-0.03281733675774558
232	0xbfc155b62adad8d3	-0.13542821018717763
233	0xbfad8de8d3935db4	-0.05772330839834741
234	0xbfbaa2f65f78c230	-0.10404910879948015
235	0xbfac6ef421ab8088	-0.05553400908479583
236	0x3fc19ae59805dbdd	0.13753957674972997
237	0xbfb9b6e769bc0aff	-0.10044714290055977
238	0xbf93d0334a123354	-0.01934890880197611
239	0xbfac923712cad7a4	-0.055803032917011636
240	0xbf98c738f862d1f8	-0.024197473678855247
241	0xbf933b82ed8eda54	-0.018781705617323688
242	0xbfa690855056002e	-0.0440713558737119
243	0xbf710a9a5a950740	-0.004160502381013675
244	0xbfb97cb5dfc4d90c	-0.09955918038471995
245	0x3fa27fdcab22baec	0.036131759539207525
246	0xbf9f66ae3de5fb60	-0.030665133026100633
247	0x3f8dc655fe3fd940	0.014538451978279299
248	0x3fb44843a42d89ce	0.07922766454934235
249	0xbf76c66ca6d97760	-0.005560326023980128
250	0x3f99def86e693d70	0.025264627207716328
251	0x3fa00fcbc6e40fbc	0.03137051394335752
252	0xbf79089c89d453e0	-0.006111728170499625
253	0x3fb0135a0c7c93ac	0.06279528431748699
254	0xbfb336a57f9decc8	-0.07505258908888657
255	0xbfbe326ad39179bc	-0.11795680680504622

fc2_bias f8 [10]
0	0xbfb0a357bd760fa3	-0.06499241233365054
1	0x3fa6219f57b68ac8	0.043225268799934435
2	0xbfa3558219b170e4	-0.03776175082814051
3	0xbf925224a723ac34	-0.017891476346374627
4	0xbfb25e9bd8df26f3	-0.07175611538618991
5	0xbfb08ad3ea1e92a6	-0.06461834398084906
6	0x3fb6b4bb20938378	0.08869523568456639
7	0xbfa38226a188ea16	-0.038102347582441506
8	0x3f7642422775b400	0.005434282698257853
9	0x3fb05e455edc0a82	0.06393846097857117
