trained_models/mnist_lenet_50_initial.model (torch_old, 175847 bytes, 8 tensors)

conv1_weight f8 [10, 1, 5, 5]
0	0xbfa251f5f3af2a14	-0.03578156089459497
1	0x3fa46d5f6cd47ea0	0.03989694789401921
2	0xbfc4beeea1863690	-0.1620767868702626
3	0x3fbd86f34ef416be	0.11534043004584313
4	0x3fb82b7cbc160b7e	0.09441356269785037
5	0x3fc3d38565304a55	0.15489261093951492
6	0x3fb2fb1a9fd6052e	0.07414404299017427
7	0xbf895deaa40ac430	-0.01238616288296343
8	0x3fb1a556f6c21ad2	0.06892913364763878
9	0x3fbcea5b34e84a8a	0.11295099298176062
10	0xbfc2ba212fcf93e0	-0.1463052257014672
11	0xbfb22c4bcde07186	-0.07098840500152023
12	0xbfc959b7c0ae16b7	-0.1980504694767455
13	0xbfb4d078c8bf7783	-0.08130602742263986
14	0xbfa1204a06f8f48c	-0.033449471808560366
15	0x3fc17b3cafc348e7	0.13657339651269426
16	0xbfb1b4e2dc3eca5c	-0.06916635396081844
17	0xbfaa27c61d2e6b6c	-0.051084700643705044
18	0xbf93131851875998	-0.018627529121511083
19	0xbfb90bf48b96c029	-0.09783867271357906
20	0x3fb72fd592b1be6e	0.09057364303020574
21	0xbfc3e3854f02bf2b	-0.15538088186212326
22	0x3f8a45af51fd0ce0	0.012828225793447279
23	0x3fb672d887dabe56	0.08768990818747943
24	0xbfc3abeb7f0ad1f3	-0.1536840792010846
25	0x3fc465d447b89193	0.15935758115768958
26	0x3fa4872c219fd46c	0.040093783478291595
27	0xbfa99f747359502c	-0.05004466922824266
28	0x3fb02ac295eb1436	0.06315246734728039
29	0xbf90433afe1c5390	-0.01588146377533267
30	0x3fa9db6a313f381c	0.05050212718161637
31	0x3fc183212a5ecb13	0.13681425637113218
32	0xbfaac1035df027f4	-0.05225382348733368
33	0xbfb5f1894c14b0f6	-0.08571680171434423
34	0xbfab4303fa970b04	-0.05324566301307779
35	0xbfa6f0b722900124	-0.044805262536103535
36	0xbfc060bca68f4a1e	-0.12795217640685136
37	0xbf71b206a539ec60	-0.004320169409420677
38	0xbfa0499026e04078	-0.031811241860965234
39	0xbfaf830a93e18d38	-0.061546640922438944
40	0x3fb9e4dbc009486e	0.10114835203538217
41	0xbfa9252018258424	-0.04911136908300076
42	0x3fbcb42a462eaeba	0.11212410176693313
43	0xbfb1190be357ca0a	-0.06678842831005496
44	0xbf9078d91088def0	-0.016085998186297468
45	0x3fc40673f7468c45	0.15644692968371224
46	0x3fb11381536a1fce	0.06670387541282638
47	0xbfb56626d11785cf	-0.08358996014387475
48	0xbfc4681cf619b63b	-0.15942728058455366
49	0xbfa8a534105f8578	-0.048135401724503646
50	0xbfc8af624f7dff57	-0.19285229569868065
51	0x3fc7db79525fb3ed	0.18638531229171865
52	0xbfc85372071d5129	-0.19004655215634017
53	0x3fb00193066fa3c6	0.0625240221703641
54	0x3fbb3a2b0cd65d4e	0.10635632575428142
55	0xbfb5b0b88b4ad543	-0.0847277965611584
56	0x3fbb3032c69c4b92	0.10620419834985587
57	0xbfc88b2da5c88c03	-0.19174738497630991
58	0xbf77293bbdddbba0	-0.0056545575770163
59	0x3fc96b173b624423	0.19858065032579572
60	0xbfc3d846790979d1	-0.15503769788752078
61	0xbfb48faffa7d0db0	-0.08031749597016957
62	0x3fc209ca8d7d4bad	0.14092380436576715
63	0xbfb6a51d1c71fe4f	-0.0884569353529454
64	0xbfa7ba377be68594	-0.04634259593445758
65	0x3fb5d8f1b17e635e	0.08534155448286415
66	0x3fb7b96d115d8526	0.09267312692602
67	0xbfbe34d796ffcdff	-0.11799380718712625
68	0x3fc91c2f1666b2e9	0.19617260545546536
69	0xbf8325458dd0cdd0	-0.009348433866853606
70	0xbfb76f6f325a88a9	-0.09154410342537979
71	0xbfa179f5ef46f744	-0.0341336111627997
72	0x3fa57fce5cc9ca2c	0.04199070818585357
73	0x3fa9b76ab7c4f664	0.0502274846389639
74	0x3fc03fea29038e07	0.1269505214942088
75	0x3f8b6b5e84ef9080	0.013388384277227994
76	0xbfc3a821686915c4	-0.1535684356514776
77	0xbfc5201f0f973fdb	-0.1650427652480165
78	0x3fc4ba56c4c8a94f	0.16193661316476457
79	0xbfbd86b36cc4dd26	-0.11533662229054595
80	0xbfba24bf69c38019	-0.10212322551842624
81	0xbfa8acd7789944ac	-0.048193677398225304
82	0xbfb283c621c1aae6	-0.0723232109464039
83	0xbfbdd7185c755f79	-0.11656334168708139
84	0xbfc690aa4134e98c	-0.1762898271934542
85	0x3f97e12569c29ee8	0.023319801883785823
86	0xbfb37218412c644c	-0.07595969763896554
87	0xbfbf992896e5cfaf	-0.12343076404596219
88	0xbfb6a6bbd5882d6c	-0.08848165476972775
89	0xbfc8aa7407247e7f	-0.19270181988484933
90	0x3fa49dc1e24a438c	0.0402660931332611
91	0xbfc005e5c7b201a1	-0.12517997980832
92	0xbfb3e52b421eb703	-0.07771559108979535
93	0x3fa45882b512b504	0.03973778210034065
94	0x3f8486c364cccf80	0.010022665513680584
95	0xbf97c690bf4d3268	-0.02321840446102144
96	0x3f9ec85df3579b98	0.030061214425497335
97	0x3fa7715abd096564	0.0457867007978148
98	0xbfc85866f7eaf666	-0.19019782166826643
99	0x3fbb96bc42d3528e	0.10776878959161193
100	0xbfbf1a352c5137ff	-0.12149364788021443
101	0x3fb355efaa4d161e	0.07553003223173291
102	0x3fb712c68b41138a	0.09013024234543657
103	0xbf98343e27db41b0	-0.02363679044975847
104	0xbfb61fb66246350c	-0.08642139338754279
105	0xbfbafc276a86cc26	-0.10541006422754204
106	0x3fc2b349f7966d75	0.14609646405447632
107	0x3faf1bfbe39be18c	0.06076037553242761
108	0xbfc7a33aeea6a67e	-0.18466889050369056
109	0xbfc0b36d0c1e660c	-0.13047564594016625
110	0x3f901a7dc315db70	0.015726056129519106
111	0xbfa5c57e0ba96304	-0.04252237217287383
112	0xbf9edc47c1b8fd40	-0.030137177657022507
113	0x3fc4e3068cb6d8f1	0.16317827101529006
114	0xbfc2b700755feb91	-0.1462097714537234
115	0x3fc7b4ca055ced3b	0.18520474683632834
116	0x3f86e38eba485550	0.011176219043629004
117	0x3fc8cb3aedae6405	0.19370209317710887
118	0xbfbdeae6f8ae9316	-0.1168655736096976
119	0xbfc4968f88b2867b	-0.1608447473018265
120	0xbfc7575638cff546	-0.18235280775108204
121	0x3fbe633e1e10f586	0.11870182260550707
122	0xbf92c4f098b5a628	-0.018329390831615694
123	0x3fa4bab2533e3884	0.04048688188696395
124	0xbfc2b2aadadc7af6	-0.14607749640068562
125	0x3fc651fa9d609d9f	0.17437679943507775
126	0xbfc3e97f8a15f8d0	-0.1555632995841223
127	0x3fa7e9ab298ad440	0.04670462495906991
128	0xbfc048a8021c56f1	-0.12721729376851657
129	0xbfc283dd870e580c	-0.14464921087773097
130	0xbfbd4c447456a30c	-0.1144449981717452
131	0x3fc09eaf7320781f	0.1298426925795306
132	0x3fc94de0a978fb59	0.1976891353133066
133	0xbfb8f92d5e1b0f09	-0.09755214259626767
134	0xbfc7429141dab724	-0.18171897616905952
135	0xbfa9ce4d22320c40	-0.05040207903314142
136	0x3f840b97221fc050	0.009787731865771004
137	0xbfb3106651fdce2a	-0.07446898938888383
138	0x3fc5e5bfb1838e41	0.17107387702627544
139	0xbfc350266f050701	-0.15088348790055053
140	0x3fc6edbf6c4b83f9	0.17913048541871016
141	0x3fbf92d5100b4efe	0.12333423272803754
142	0x3fc2b9e1d5a6863f	0.14629767353203424
143	0xbf4fa649b858e200	-0.0009658679925400038
144	0x3fc4b1ac76f72c73	0.16167217072356585
145	0x3f8c2537656cad20	0.01374285963318883
146	0xbfaabc5fa935acb8	-0.05221842709109964
147	0xbfb640d940711126	-0.08692701171191128
148	0xbfc42a357bdf68b3	-0.1575381140563131
149	0xbfc27490816c3279	-0.14418226546731086
150	0xbfa8e5af48d56098	-0.04862735523301004
151	0xbfb656fe708bbacf	-0.08726492164326348
152	0x3fc730884c1fb26d	0.1811685916612932
153	0x3fb3e942b9d12fc2	0.07777802502204081
154	0xbfb5cabc9a57b889	-0.08512476699954354
155	0xbfc0f5c6e06d3298	-0.13250051458671375
156	0xbfbd499f3289d35f	-0.11440463050696568
157	0x3fc0d0695c10ca71	0.13136021609678353
158	0x3fbf1fd90b271e9e	0.12157970926556991
159	0x3fc61ef3a1d36c3b	0.17281957055715388
160	0x3fbd2ac13bd6752e	0.1139336367691228
161	0x3f9b03446898e828	0.026379650959121786
162	0x3fbc9242f855e6f2	0.11160677492980733
163	0xbfb50b28c334d08c	-0.08220152631548866
164	0x3fc6a7ba90b201c5	0.1769936758537495
165	0xbfbde9745e56ea3f	-0.1168434839554857
166	0x3fb03d56cfb4a8ba	0.0634359604925149
167	0xbfabb7a051eeffe4	-0.05413533210912627
168	0xbfc676b023f79be8	-0.17549707180225416
169	0xbf9b0693a9b04c40	-0.02639227603146943
170	0xbfc49e35b2087390	-0.16107817833917837
171	0xbf8d3c61365276a0	-0.014275321455268497
172	0x3f91b500af435740	0.017292032906730315
173	0x3fbcb775121e9f6e	0.11217433636067906
174	0xbfc2d4d481a79861	-0.14712005930704478
175	0x3fb0c3294c0297e2	0.0654779253551108
176	0xbfc0e93f0c60de88	-0.1321181116525063
177	0xbfa88b6befe40400	-0.04793870261529065
178	0x3fb2dd39d90dedde	0.07368814038448288
179	0x3fb225be41364afe	0.0708884152611908
180	0xbfaa852256868464	-0.05179698282450643
181	0xbfc11e5b2d83eff0	-0.13373889658384952
182	0xbfc6f04099e05419	-0.17920691979875938
183	0x3f99ec3f4206d810	0.025315273671104477
184	0xbfc60f9232985b2c	-0.17235019178834798
185	0xbfb17ada990aafda	-0.06828085171099421
186	0xbfc0af3c86a3792b	-0.13034779142521677
187	0x3f8c0e54b440dda0	0.013699208975693378
188	0xbfc2593e3c97972b	-0.1433484836444959
189	0xbfc11bbffe94d18b	-0.1336593621323455
190	0x3fa462e9eddf2b2c	0.039817152297095454
191	0xbfc44b019c806a81	-0.15853901044541277
192	0x3fc724135230c393	0.18078843606192815
193	0x3f96edb39477b098	0.022391134201754953
194	0x3fc85a129454273d	0.19024879686940635
195	0x3fc6d1cb2a8d5ba3	0.1782773931288065
196	0x3fc412a9638f27d5	0.15681950913705003
197	0x3fbdc1ae8430e03e	0.1162365982753508
198	0x3fc2de32563f2475	0.14740590296995362
199	0x3fa52069b99854c0	0.04126291647495739
200	0xbfc88a25bc78ce6c	-0.19171592428903084
201	0x3fa407079ea10aa0	0.03911613284482951
202	0xbfa527f92d91b344	-0.041320597469939574
203	0xbfc3df7b6ac822fc	-0.15525763238863266
204	0x3fbdcda72abde55e	0.1164192656850864
205	0xbfa3ae03212d6c24	-0.03843698291776601
206	0x3fa4effbaa68d3f8	0.04089342551416303
207	0x3fc402b271b6f20f	0.1563323073622915
208	0x3fc33970034133ed	0.15019035490914182
209	0x3fa0d49457ab39b4	0.032871852590335676
210	0xbfab6d5dd66ef12c	-0.05356877558321779
211	0xbfaa794e95348c64	-0.05170674868920669
212	0xbfc2e2da5bf1fa44	-0.1475480030967039
213	0xbfa3c7ac6b10a5ec	-0.03863276297517956
214	0x3fc85f0e945fb871	0.19040090794391376
215	0xbfc71a82e67415f4	-0.18049656155214644
216	0x3fbdd48e6d1b530a	0.11652460254419963
217	0x3fb91bde86605a7e	0.09808150082276687
218	0x3f9f2008fe95ec98	0.030395641840624238
219	0xbfc0bd26c9d3dd6b	-0.1307724462019267
220	0xbfab4ddd302c9cb4	-0.05332843030037662
221	0xbfbe5da33ebb55f6	-0.1186162975457917
222	0xbfc1ebd1ba45a5b0	-0.1400091323405781
223	0xbfc6a8c0a924e0d3	-0.1770249200724324
224	0xbf92cfe2adb7c4f0	-0.01837114510812382
225	0x3fc70fae66ca5dc5	0.18016605395381027
226	0xbfc7c25e51b38971	-0.18561915387460773
227	0xbf797a9788a9e360	-0.0062204283991541265
228	0x3fb3f6a4c7e9c46e	0.07798223381702638
229	0xbfc78c49169c6f86	-0.1839686737447403
230	0xbfc8818b0c7f69e7	-0.19145334348907214
231	0xbfc33ab53ddbce79	-0.15022912521782297
232	0xbfa3ba5d150fadb8	-0.03853121645064611
233	0xbfb88f15c07d266c	-0.0959333033507847
234	0xbfb6189ddc254da3	-0.08631312012339847
235	0x3fc352851a2a889f	0.15095580842632203
236	0x3fc0c99c77c0e5ed	0.1311526856168678
237	0xbfb6f8fac1db4246	-0.08973662598442286
238	0xbfc7bd3d575c1e91	-0.1854626347123838
239	0xbfc5469248d890a1	-0.16621616894656646
240	0x3faea00fb30b4754	0.05981492100330735
241	0x3fc8e2c5b290ff57	0.19442054003774942
242	0x3fc688d717685d7d	0.1760510315223022
243	0x3f89dd794450ba30	0.012629458806341892
244	0x3fc86bee1d6b8b5d	0.19079376637008752
245	0x3fbf11712e9fea52	0.12135989559457386
246	0xbfc7e847b9d398eb	-0.18677612851678957
247	0x3fad2d1349187a24	0.05698452250748101
248	0xbf9c8c6043b7d250	-0.027879242070371568
249	0x3fc55bf0a7c0c6e5	0.16686828795496136

conv1_bias f8 [10]
0	0xbfac253c6b6c628c	-0.054971588242726716
1	0x3fc4d1c2fa1554b6	0.16265141688442036
2	0xbf942903c4876ed8	-0.01968770873086964
3	0x3fb6f51da7fab720	0.08967767096575274
4	0xbfab11c9030f162c	-0.05287006532993774
5	0x3fc3032a49c22ade	0.14853409387099864
6	0xbfc1514e1ee1b8fe	-0.13529373653313564
7	0xbf817970e24eb650	-0.008532411486011388
8	0x3fc68f868d722058	0.17625505358251092
9	0xbfc6e4727a0b839a	-0.1788466545031298

conv2_weight f8 [20, 10, 5, 5]
0	0xbf82145f354766a4	-0.008827918828433319
1	0xbfaec8817b656570	-0.06012348777103227
2	0xbf85c0b40eb1469c	-0.010621458719615
3	0x3fae1a290a11e23c	0.05879333732531619
4	0x3fac242f3d22b0fa	0.05496356602938764
5	0x3f98875e6f2f15b0	0.023953891311767783
6	0x3f47efcf8268d380	0.0007304919461775666
7	0xbfaac18fa2b4844a	-0.05225800381800434
8	0x3f4058c838b07a00	0.0004988649028552783
9	0x3f97f20eda46b838	0.02338431555988782
10	0xbf57917fb44e1f60	-0.0014384982216330763
11	0xbf9c1448720a53a4	-0.027421123466939826
12	0x3fa8bab06826b1de	0.04829932471634256
13	0x3f8d5433d8632fd8	0.014320759812470316
14	0xbfa602eabdd12fc3	-0.042991004630124084
15	0xbfa8ac020f265095	-0.048187317227673145
16	0xbf9cbe9eec3b2dcc	-0.028070910614401076
17	0xbf8c9cd161e7082c	-0.01397098140740035
18	0x3fa08c104d8bd2aa	0.03231860109909708
19	0xbfa0e7087739866e	-0.03301264243488054
20	0xbf73654d154b9ce8	-0.004735280138198329
21	0xbfadd16ec7a34db5	-0.058238469953404794
22	0x3f88e8cb336a1408	0.01216276884702873
23	0xbfa90bb225be951e	-0.04891735754726255
24	0xbfa05fccd0102d42	-0.03198089637597913
25	0x3fa4c0e800154728	0.04053425789847004
26	0x3facf79ac405cde8	0.05657657282690903
27	0xbf7dd810fbb5da38	-0.007286135044856361
28	0x3f9823cbf6d90c34	0.023574053708454737
29	0xbfa2d08cd97c644e	-0.03674736170632596
30	0xbf7073b6bcb3bb70	-0.004016603295197693
31	0x3f9a7bc38065763c	0.025862745963755027
32	0x3fa90dc13e8ba064	0.04893306625837182
33	0x3f873535c1d8c368	0.011331958749993112
34	0x3f84e46b67717298	0.01020130071099716
35	0xbfa7d4164db94924	-0.046539971339955494
36	0xbf958c6e5859cac4	-0.021043514387609333
37	0xbf510a0fa611d340	-0.001039996416037428
38	0x3faede1bea92fce2	0.0602883075566696
39	0x3fadeba816c71e96	0.05843854215669102
40	0xbfa52a52b574785c	-0.041338524484886036
41	0x3fa770ffef98d368	0.04578399467246791
42	0x3faad504cf1af664	0.05240645435467853
43	0xbfa0ac57c3d98344	-0.032564871461323835
44	0x3fa091f448a5c50a	0.032363542430980344
45	0xbf88719a12a07a48	-0.011935428327032885
46	0x3f801533c3a1b3c0	0.00785293999452985
47	0x3faf397285eb0a3a	0.060985163543155044
48	0x3f9d4517cdcc0104	0.028583881316991203
49	0x3f8f2c718f1097a8	0.015221488169185296
50	0xbfadb4943e2606c0	-0.05801833399438072
51	0xbf9ca1cdc88db37a	-0.027960982671561642
52	0xbf91e4de9cc08d12	-0.017474630658523678
53	0xbf94b4833f8f67c4	-0.02021985125961813
54	0xbf9c4c3dc92f0eee	-0.02763458767345999
55	0xbfa956b1463c9a16	-0.0494895361173812
56	0x3fa01470984c2752	0.031405943480491985
57	0xbfa90dcce037f938	-0.048933412905159235
58	0xbf96fa16b9705fd4	-0.022438387935920748
59	0x3fa1571563e167e8	0.03386751980060848
60	0xbfaf42bdafaaf02f	-0.061056068128408796
61	0x3f7ab9a2e126cee0	0.006524692771950419
62	0x3f91c3235a7ce53c	0.01734595527452608
63	0xbfab0a4b6782ba4a	-0.0528129161697178
64	0xbf877843f3361e18	-0.011459856853220748
65	0xbfa5ce6d8505cccc	-0.04259054421245309
66	0xbfa0f4ecbb8392ce	-0.03311862744320636
67	0x3fada005b2fb172a	0.057861497972721956
68	0x3f97de88732856e4	0.02330983355394424
69	0xbf8454f668f03ab0	-0.009927678182092364
70	0xbf83b2924a447150	-0.009617941752872256
71	0xbf99ac54eaab3de2	-0.0250714557867563
72	0x3fab2e98b8865466	0.05308987858294571
73	0xbf8898edc6e2df28	-0.012010438568139728
74	0x3fa3c46d41b9c798	0.03860799243274399
75	0x3f993d3c5d3ed67c	0.02464765853047489
76	0xbfa856617836d62e	-0.04753403274973454
77	0xbf9c08fa643a5792	-0.027377998702455004
78	0xbf80939d641982ec	-0.008094052903460512
79	0xbf57a7f25ee90460	-0.0014438502218043978
80	0xbfa44322481f214c	-0.03957469110861442
81	0x3fa4c098872230ec	0.04053188943461969
82	0x3fa3af039c245616	0.03844462662724994
83	0x3f514e2072e46740	0.0010562245257177
84	0x3fa8c0e29299eea8	0.04834659614149689
85	0x3fa5b27b0b774834	0.04237732424702792
86	0xbf9f39e579319a22	-0.030494294664459194
87	0xbf9ba11f7ec71ace	-0.026981823075199078
88	0xbfa51bef89274664	-0.041228757374153685
89	0xbf7f2e15198daed0	-0.007612306996502574
90	0x3fad0208c6f906ec	0.05665614537111971
91	0x3fa90c710f71d392	0.04892304719479691
92	0xbfa56300f90f78bd	-0.04177096405304457
93	0x3f95e7079e57d884	0.02138912109327197
94	0xbf88eefba6e0e52c	-0.012174573927142683
95	0x3f6fe7fd48754fe0	0.0038948008474708334
96	0x3f83b7f7bf661318	0.009628234413648282
97	0x3f995ea8ebae3f8c	0.02477516115646909
98	0xbf71cf9b6fdab328	-0.004348380256186592
99	0xbf891841163a9c5c	-0.012253292551873844
100	0x3f9e5d5f364f0984	0.029653060617201202
101	0xbfa1b05f47f44f8e	-0.03454873803471435
102	0x3fafb02f7716ab74	0.06189106301038452
103	0xbfa52ad628796a6b	-0.041342441979129806
104	0x3fa13a745286d382	0.03364909655957772
105	0xbfa1aba374569510	-0.03451262278694334
106	0x3fa80995a1ff7d20	0.04694812395586667
107	0xbfa24127e4cda314	-0.03565334957131064
108	0x3f7f2fb521144690	0.007613856826780854
109	0x3fae0df646450ef4	0.05870027168069028
110	0x3f92aadfe8086298	0.018229960000186368
111	0xbfa057384ad375b2	-0.031915434965167036
112	0xbf9eeac5ca3e610e	-0.030192461461042312
113	0xbfa7eb650a3a982c	-0.04671779394020378
114	0x3f6e3fe653f4c3a0	0.003692579135212218
115	0xbfae7d90634cc625	-0.05955172741085971
116	0xbfa41e16a664781e	-0.03929205685766156
117	0xbfa74d0b618a3598	-0.04550967755958907
118	0x3f9e56e3703e5c70	0.029628328061872045
119	0x3f93ad8ac7eca30c	0.0192166981243274
120	0xbfa52004b0600f18	-0.04125990536706875
121	0x3f95c7a736d7e0b8	0.021269428942077367
122	0x3f92ff0438dc68ac	0.018550935717123337
123	0x3f493b330a8b6280	0.0007699965691144312
124	0xbfa80e2f0b0e5527	-0.046983213519675986
125	0xbf81c8aad772bc50	-0.008683523845631452
126	0xbfa76c1f48163506	-0.04574678187337082
127	0xbfa928ba37634f98	-0.049138850461218186
128	0xbfa23ea60451976d	-0.035634220149218666
129	0x3f9fe48b7b826408	0.03114526692715816
130	0x3f96a15f8c197f94	0.022099965024949222
131	0xbfa41f609fbf8eb8	-0.0393018908505644
132	0x3f8e688ef34632f0	0.014847866820468764
133	0x3f92838306806568	0.018079802772353132
134	0x3fac0899cfdb3250	0.05475311910922598
135	0x3f9af1dbbfb396a4	0.026313241553813996
136	0xbf851d8c1379c1ac	-0.010310263008450025
137	0x3fa500a332edd86e	0.041020488707474864
138	0xbfa811bc1b748b50	-0.04701030573985199
139	0x3faa1c06cd2e75b0	0.050995075747077734
140	0xbf56c2f3ea1cefc0	-0.0013892538049295883
141	0x3f8cd459a38ff2c0	0.014076900772118761
142	0xbf905f14a831fc7e	-0.015987704053710854
143	0x3f8343b6c2207710	0.00940649776390104
144	0xbfa1ba902a7dc370	-0.03462648886387043
145	0xbfa0b4df44fbad88	-0.03262994496420918
146	0xbf61fd41850bf830	-0.0021959571535026465
147	0x3fa04784fbbdf760	0.03179565022490638
148	0xbf9f8297c8bfd4e2	-0.030771609905021154
149	0xbfa7be525a99a9da	-0.04637391429863032
150	0xbfa87c0c60cb810e	-0.04782141381815751
151	0xbfafb1fbb7f0285b	-0.061904779628165506
152	0xbf9a2f1981fe3ca2	-0.025570295867109245
153	0xbf9c49b41618bb82	-0.027624906395597566
154	0x3f9eb141a0a9606c	0.029973054343230762
155	0x3fae7629408832c2	0.059495247962421796
156	0x3fa43b4db0a8a114	0.03951494962194793
157	0xbf842ca41ec511fc	-0.009850771130580853
158	0x3f9e065a5a79f414	0.029321109554519678
159	0x3fa1cdcdd85470e4	0.034773285539104554
160	0xbf95119d06417868	-0.020575002199955256
161	0xbfa5e3d3a28037fc	-0.0427538047662068
162	0xbfa54a8969f02806	-0.041584295446298866
163	0xbf95d247c7491b68	-0.021309968508173155
164	0xbf7a1d47adf9d788	-0.006375579832470175
165	0x3f905adb68ef8c34	0.01597159221627127
166	0x3f7d0c1bf77f2920	0.007091626401186241
167	0x3fac3da7227a477c	0.055157874067972096
168	0x3f9082af381d3250	0.016123521614007708
169	0xbfa9eed29c78cf66	-0.05065019760186722
170	0x3f8ef71472b009d0	0.015119704961766539
171	0xbf8ca4a2e18de414	-0.013985893734330936
172	0x3f93a4c2e40a2f00	0.019183201950496276
173	0x3fabf00db41657b4	0.0545658380826092
174	0x3f942e79bc95e490	0.01970854009184514
175	0x3f9f260d5a2a2e08	0.03041859495946933
176	0x3f85442ac5520e38	0.010383924624199556
177	0x3fae9e32ade377cc	0.05980070469534801
178	0xbfacfa601983d76e	-0.05659771262609935
179	0xbf8e3af3d15ef6e4	-0.014760880305284947
180	0x3fa5c252a62df23c	0.04249819067533564
181	0xbf872949a5c9157c	-0.011309218761321509
182	0xbf7279ccf6e8f538	-0.004510689394519311
183	0x3f94918547858a4c	0.020086367121061863
184	0xbfa8c1236fe15b3c	-0.04834852925039576
185	0xbf86c4af7e1a57f0	-0.011117335353713259
186	0xbfacd5af02552247	-0.056317776713119154
187	0xbfab155f134986cb	-0.05289742575111019
188	0xbfad07c12827457e	-0.05669978728441104
189	0xbfa0417895147ea1	-0.03174950427842061
190	0x3f90ce8a2cc283f0	0.016412886602328258
191	0xbfa1596122462866	-0.033885035928577875
192	0xbf987d81e3755866	-0.023916272647817392
193	0x3faa5f2950bacbfa	0.051507273773857734
194	0xbfa36b437ca92fce	-0.03792773148288085
195	0xbf9ae3fbb87eb5a0	-0.026260312209776537
196	0x3f9745cda792df10	0.022727216103446912
197	0x3f964506658341d4	0.02174768442711346
198	0x3f8399ad672315d0	0.009570460042946843
199	0x3fac48393adbc04e	0.055238521990646036
200	0xbfae9fb8d4b5fcbc	-0.05981233212059453
201	0x3fa7abdc115b1828	0.04623305999625443
202	0xbf94083538110286	-0.01956256060316488
203	0x3fa6297c0ef9f106	0.043285252407232064
204	0x3fa06ecba5171018	0.03209530248889808
205	0xbfb01448a3941fca	-0.0628095054017869
206	0xbfacdc6b1331182a	-0.05636915787958714
207	0xbfb025c16ebac057	-0.0630761046729743
208	0x3fa319d2f1af56fe	0.03730639648681054
209	0x3fabf2a68a8aef86	0.05458565179057388
210	0x3f9bf4da8e51e6d0	0.02730123037006288
211	0xbf97c7b09227d378	-0.02322269336760338
212	0xbf9356af0acbee2a	-0.01888535979649767
213	0xbf978f2b91d3e88c	-0.02300708844720893
214	0xbf93fdea9b02e39a	-0.019523301802766825
215	0x3fafd6c02b355620	0.062185292505699374
216	0xbf7299d6b8fa5ee8	-0.004541243324318357
217	0xbf9560d33fea5de0	-0.020877171302883357
218	0x3f81471c9c1f2178	0.008436416162923108
219	0x3f9c2617fe7e8ba8	0.027489066036320203
220	0x3fa989975bae6466	0.04987786287456046
221	0xbf7da60b7b6adb38	-0.007238430835676372
222	0x3fa95756ac2ba782	0.049494465367231136
223	0xbf540f97c9ca8ac0	-0.0012244207675073254
224	0xbf963cbee7bd3b66	-0.021716101545560383
225	0xbfa321655a7f1052	-0.037364165589253276
226	0xbfb0214e30aa4a5d	-0.06300820053210417
227	0x3faf298d99d7f9f8	0.06086390021299687
228	0x3fabcc3164f57026	0.054292243551316496
229	0xbf98ea5d345f1242	-0.02433152801656236
230	0x3f886cd6ea4ce240	0.011926344895628493
231	0xbf88942d2f0f8154	-0.012001374243425879
232	0x3fa7d4cde3b396a2	0.046545442624659886
233	0x3fa2926d8efa871c	0.0362734066996053
234	0xbfa047e056be82c4	-0.031798372830285554
235	0xbf94d8cacdb4a88a	-0.0203582466175836
236	0x3fa3b1d60c616068	0.038466156970287824
237	0xbf9687948ce40d9a	-0.02200157270364187
238	0xbf89425e4fe11744	-0.012333618939134212
239	0xbf62ca9fd1afbdd0	-0.002293884417205773
240	0x3f80df23259ca508	0.008238100610088242
241	0x3facd416ecef984c	0.05630561487468863
242	0x3f823ccdc3f21880	0.008905036489761153
243	0x3fa106326c39e764	0.03325040408249327
244	0x3fa20a5578e84aac	0.0352350912181881
245	0xbf91c3f202333f42	-0.01734903467587335
246	0xbfa29cf4c25a0bc6	-0.03635372993905821
247	0xbfa426adfdb5c449	-0.039357602329694936
248	0xbf9ba922e891bb8e	-0.027012391514684313
249	0x3f91567f1eefebb4	0.01693152071309685
250	0xbfab490dfb9dedeb	-0.05329173752303603
251	0x3fa1a6d52e5eab04	0.03447595778501092
252	0x3fa1827ea1514bbe	0.034198720161519244
253	0xbfb025a9b85e574a	-0.06307469130692059
254	0xbf9d24e51cacd5ba	-0.028461055636588496
255	0x3fab05f13acaa21a	0.052779711176587266

conv2_bias f8 [20]
0	0xbf9ae5e1eaf385f8	-0.026267557111060186
1	0x3f972245b1dde9d8	0.022591675740366884
2	0xbf7278e5ab813690	-0.004509827755169518
3	0x3fac5a4b484a7fc6	0.055376389097773024
4	0xbf84f835c35acff8	-0.010239048027280248
5	0xbf79861ce8a5c0a8	-0.00623141567699307
6	0x3fa267c1d1351682	0.03594785383988343
7	0x3f8b583d0f37e838	0.013351895358017271
8	0xbfa6adfef0265682	-0.04429623300090403
9	0xbfaad08fce6bebc7	-0.05237244982523453
10	0xbfaafca3e057683c	-0.05270874131720446
11	0x3f9e33c63a767f34	0.029494378393450663
12	0x3f9d10792fab032c	0.028383153471398234
13	0x3fb02e6a77fc59fc	0.06320825032558014
14	0x3f9e3ce60f60ce14	0.029529184998137906
15	0x3fa7dd90b3ad7542	0.04661228364305227
16	0xbfa4f799b7a007d6	-0.04095154158132146
17	0x3fa6eae70380b32c	0.04476091306455596
18	0x3f831118b9e50a00	0.0093099529009395
19	0xbf8061e9a726f1dc	-0.007999253667429089

fc1_weight f8 [50, 320]
0	0xbf95b604d7529cac	-0.021202159540419416
1	0x3f9e11d081323d14	0.029364831815255135
2	0x3f944ee7a26fc330	0.019832248010007436
3	0xbf914abf01583f68	-0.016886696297717135
4	0xbf8625bace44649c	-0.010814151210569549
5	0x3f700372c7e9a508	0.003909538615155535
6	0x3fa63cfb9c537dba	0.04343401225355188
7	0x3faad349dc101aea	0.05239325343432262
8	0x3f93110b8074bea0	0.01861970874341401
9	0xbf8415a1b2355a68	-0.00980688405131254
10	0x3fa21fe891dec332	0.03539969235078501
11	0x3f9f4df03628e130	0.03057074862064829
12	0x3f7a5e215121ef88	0.00643742575095619
13	0xbfa7712e5757ddac	-0.04578537765695087
14	0xbf66d194b1416640	-0.0027854828022498
15	0xbfa22c8fb2e661a8	-0.03549622591816909
16	0x3fa1ae6029d1eea4	0.03453350553988102
17	0x3fabdea9a22d425c	0.054433156058284665
18	0x3f79f5f8f18bfda8	0.006338093219482678
19	0xbf94bc9bef598b30	-0.020250736697913385
20	0xbfa02a45f75646f2	-0.03157251972437604
21	0x3f997ec071ac4480	0.024897581995052764
22	0x3fa9d6ad6138fc7c	0.05046598254966114
23	0xbfa59eda106a0088	-0.04222756815306733
24	0xbfa4358140db5ddc	-0.03947070996008126
25	0xbfa7746617b51c5a	-0.04580992736242058
26	0x3f9235e6c1483970	0.017783742472653186
27	0x3f99ece12201c2f4	0.025317685795417114
28	0xbf923e360976bc34	-0.017815441444039418
29	0xbf777f330e13d158	-0.005736541207842137
30	0x3f9d7ec3605633a0	0.028803875689436986
31	0xbf8be85c9a59a56c	-0.013626788578408898
32	0x3f87e0fca54b1b88	0.01165959720073119
33	0xbfa685a3f9f8bc14	-0.043988346351732016
34	0x3f8847df99761660	0.011855837698713845
35	0xbf8b2957cb5a2590	-0.013262449162783324
36	0xbf689f13ceecf440	-0.0030055415039940414
37	0x3fa0c987565cdc98	0.032787541668249875
38	0xbf980da4ce2e5f12	-0.023489546856210693
39	0x3f93f5add97c9d08	0.019491878890360886
40	0x3f74a47001893370	0.005039632342754938
41	0x3fab768f12b9e1d8	0.05363890746679417
42	0xbf9a1b1864590bf3	-0.02549398529505349
43	0xbf93c4d32eb40804	-0.019305515027561185
44	0xbfa6a5351e0a6aca	-0.04422918311793962
45	0xbf965e7d2fab4da6	-0.021844821962827908
46	0x3fac958cd19bdd62	0.05582847651197188
47	0xbf82eaf46946f4b8	-0.009237203085712728
48	0x3f75930078d25a40	0.005267145007698704
49	0x3faad0ed7d0427b4	0.05237524176671063
50	0x3f9679c4b179d530	0.021948884327192164
51	0x3f8d927e7da0bcd8	0.014439571579798402
52	0x3f941c77fee4cf88	0.019639849598390963
53	0x3f915fedf0f2fd64	0.01696750434052542
54	0xbf70915d9b0c4948	-0.004044881484121916
55	0xbfa5c1670c7d676f	-0.0424911692377482
56	0x3f9cef602883821c	0.028256895516166933
57	0x3f9ec1de54a5934c	0.030036424557141658
58	0xbfa68f4d2b601759	-0.04406205324634866
59	0xbf8756e776fdb50c	-0.01139622527963493
60	0x3fa186fb3d963a9c	0.03423295141975766
61	0xbf5fa63aeb7c2720	-0.0019317222012795246
62	0x3faacb037a7b5568	0.05233012075556581
63	0x3f880509546f7c78	0.011728356255785707
64	0xbf8e0c4421bc5f88	-0.014671833304916296
65	0x3fac7f1decbbfc16	0.055657324932319494
66	0x3f94e4ca9271a278	0.020404019535279677
67	0x3f878c1e7f8f9d50	0.011497724788525204
68	0x3f90ace051393398	0.01628447051762158
69	0xbfa626d989eea435	-0.04326515015356628
70	0x3f93d2da7c426ab0	0.019359029611772882
71	0xbf6a629ff0573470	-0.003220856075790972
72	0x3faa58a7289b40dc	0.05145761843380267
73	0x3f988e25fc2251f8	0.02397975303081698
74	0xbf7ec53c240780d0	-0.007512316632045393
75	0xbfa46900c33e764a	-0.039863609155173466
76	0x3f93795be65c7584	0.019017635283594028
77	0xbfa9806b6196885e	-0.04980788770923604
78	0xbf9a54f0c4cd4cfa	-0.025714647304380535
79	0xbf9aa884d4de6a0e	-0.026033473484497853
80	0xbf8fb0736d8014f8	-0.015473272113022393
81	0xbf919207261476e6	-0.017158614825453798
82	0x3fa479d5eab5ebfc	0.0399920319568636
83	0x3f9728bf8c88ad60	0.02261637969256236
84	0xbfac3611c5602ce0	-0.05510001692172195
85	0xbfabda4ecb574b43	-0.05439993126096578
86	0xbf99ce8a828472be	-0.025201954094074656
87	0x3f66f321dabd64c0	0.0028014813632749325
88	0x3f880c3598c6f2d8	0.011742037510765455
89	0x3fa88718bc973c36	0.047905705472310364
90	0x3fa4bdb41814cd8c	0.04050982278786383
91	0x3f985f1f127386b8	0.023800359250236908
92	0xbf972dedae084b52	-0.022636140582174953
93	0xbfa17ba1049df146	-0.03414633923873338
94	0xbf82298552f85810	-0.008868257135912244
95	0xbfa7296e38484807	-0.045237964983371674
96	0xbf95bcabf22f9072	-0.021227537781570445
97	0x3f96b1479dd1ff44	0.02216064358481097
98	0xbf9d22e1946cb195	-0.028453373607747762
99	0x3f9f2ca6a205ef2c	0.030443767203436042
100	0xbf6b728bcbe4c1f0	-0.003350518264731976
101	0xbfa314ae18018d4d	-0.03726715128939393
102	0x3fabb7aa48053970	0.054135628978303596
103	0xbf74a0e03f8276f8	-0.005036235779838576
104	0x3fa63f3ae6fbd2c2	0.04345115728020722
105	0x3fa2d44fcfc89a04	0.0367760602132883
106	0xbfa81f4ce209319a	-0.047113802521013784
107	0xbfa21961c2a75831	-0.03534989834922476
108	0xbf980e574d7c1084	-0.02349220667294151
109	0x3f98b81a401f7fe8	0.024139795459518526
110	0xbf7a40a6a0e44b08	-0.006409312145722941
111	0x3faa970b236a9212	0.05193362052276397
112	0xbf7b5a02fd70fef8	-0.0066776387021147895
113	0xbfa4a3b08051109a	-0.040311351455359204
114	0xbfa3afd39faae3fe	-0.03845082592074077
115	0xbfaae441992e2dc7	-0.052522706936624135
116	0x3fa9b6db399c0374	0.05022320821991047
117	0xbfabdafab600ede0	-0.05440505477642055
118	0xbf81a149d2b8197c	-0.00860841440500048
119	0xbfa593c29fd03214	-0.04214294625134954
120	0x3fa27963b23378a0	0.036082377913531305
121	0x3f4e7362c5ba42c0	0.0009292824065188707
122	0x3fa640ad630ecf06	0.04346219858362414
123	0xbf9698933919709c	-0.022066402778691527
124	0x3fa8639e8dab95a6	0.04763503531811901
125	0xbf8da3519d6cb2d8	-0.014471662155835771
126	0x3f95cd79fb208768	0.021291643097476692
127	0x3fa8ca6777e73cee	0.0484192212930966
128	0x3fabcfe6ae21863c	0.05432053447362903
129	0x3f918401fcd243d8	0.017105132156362973
130	0x3f608ccebaea1ce0	0.002020267267031181
131	0x3f5ad592d2c55b00	0.001637833959724666
132	0x3f7b061214a6c1a8	0.006597586276641122
133	0x3fab3e2f073ddfb8	0.05320879901313397
134	0xbf80b1913ab7b32c	-0.008151182751100793
135	0x3fa6d382bc86b14e	0.044582448495335755
136	0x3f339ba73b408300	0.0002991946487345548
137	0xbf8c79dd9ac7d99c	-0.013904315267592442
138	0x3fa0fe9633e7cd1a	0.03319234260188804
139	0x3faaf3e2c8e42224	0.052641951582760776
140	0x3f9b66b2be54c5b8	0.026758950106516827
141	0x3fa065010a2b46a0	0.03202059983381145
142	0xbf90a12d63772e64	-0.01623984260167645
143	0x3f696f1cdff842a0	0.003104740520719254
144	0xbfa176526b889049	-0.03410584986366467
145	0xbf900ba8246c72b4	-0.015669467185136468
146	0x3faad5b26ec40704	0.052411628743369604
147	0x3fa0e2b2aa72188e	0.032979567819937036
148	0x3fa5fd4ff511ddec	0.04294824472975364
149	0xbfa6043679e10dde	-0.043000891092130664
150	0x3f9903caf1e7e278	0.024428530707128776
151	0xbfab7575f53f44c8	-0.05363052958240072
152	0xbf96c77283baf1b2	-0.022245206155945225
153	0xbfa4c36ecec970d4	-0.04055353426221733
154	0x3fa6cc9ae26e9a5e	0.04452976240218186
155	0xbf888e344517fd3c	-0.011989982946941972
156	0xbfa7fa31386f6b8a	-0.0468306905165355
157	0xbf6610532fa16360	-0.002693331215635572
158	0x3fa81f0e858a8068	0.04711194400920321
159	0xbf6461159bcaa2d0	-0.0024876997034265283
160	0xbfa4a81fe817a3f9	-0.040345189172349145
161	0x3f497f64f8760980	0.0007781260509747562
162	0xbf54122eb71ff580	-0.0012250381664665466
163	0xbf9b0f2b15359f5a	-0.026425049943468927
164	0x3fa8b7145cbcf710	0.048271786041807485
165	0x3fa46859f12430ba	0.039858637510492526
166	0x3f90470c8f3d214c	0.01589603065738858
167	0x3fa710100bb76780	0.04504442351362936
168	0x3fa1d64212a76c1c	0.03483778455457573
169	0xbfa5488c880663bf	-0.041569129566773715
170	0x3fa3d7887c709de0	0.03875376242677553
171	0xbfa425dc47bedd34	-0.039351352460864325
172	0xbf9e4fcdcef2ffe8	-0.029601302868058982
173	0xbf9da409b521a6fd	-0.028946067505251517
174	0xbfa63da4ebcb7818	-0.0434390580974055
175	0x3fa076448fe189f2	0.03215231186256408
176	0x3fac3081b82d49da	0.055057576878102046
177	0xbfaa50e7ffb00512	-0.051398515664923164
178	0x3fa480e8f99e8f5c	0.04004600569831382
179	0xbfa979c6d9ead05c	-0.04975720796701985
180	0xbf78afee47327688	-0.006027155660516599
181	0x3f91c8c83ebb396c	0.017367485836808624
182	0xbf80f416740629d8	-0.008278060355924419
183	0xbf4fede9afefd340	-0.000974406342605684
184	0x3f97911403f374cc	0.023014366856718024
185	0xbfa259127e097b8b	-0.03583581722772696
186	0xbf96e653b3594382	-0.02236300260694036
187	0xbfa6c93908d5fb9b	-0.04450395806178805
188	0x3f8dad269ee92760	0.014490415310450977
189	0xbf91946d2bf36c32	-0.01716776448015995
190	0xbf606d04f23414a0	-0.002005109463086699
191	0xbf91b90f6596bc08	-0.01730751092480534
192	0xbfa7264f33c7e405	-0.04521415240373731
193	0xbfac0901ec1cbc01	-0.05475622184018648
194	0x3fa0e43bde72ceb2	0.03299128618655568
195	0x3f9fcb653fdc2c38	0.031049329779346574
196	0xbfa45cfb4c2c138c	-0.039771893547402376
197	0xbfa5d459de1edc8b	-0.042635734905553134
198	0x3fa80eea2277d842	0.04698878927949625
199	0x3fa31247f0aad2f4	0.03724884808381104
200	0x3fab7a9198a057c4	0.05366950023760311
201	0xbf92bd0b1a98c69a	-0.018299268244112633
202	0x3f9f9fe9e41f10f8	0.030883459614202885
203	0xbfa3628f590bd633	-0.0378613277625103
204	0xbf9d90afb017ef94	-0.028872246859449627
205	0x3fa03bfe47a96374	0.03170771240974704
206	0xbfa7af51572b437e	-0.04625944317888918
207	0xbfa2634359649633	-0.03591356722089891
208	0x3fa526488cf2e780	0.041307704168004555
209	0x3f9267c6d6607580	0.017974001726647426
210	0xbf79a919ef09c3c0	-0.006264783195192913
211	0xbfa93246d9f3a029	-0.04921170626204258
212	0x3fa9406c8aa733dc	0.04931964104216721
213	0x3fa9f12a195a4ab0	0.05066806373101451
214	0xbf5434ea7d35bd80	-0.0012333192761067868
215	0x3f982db63ae5e59c	0.023611876816607244
216	0xbfa492a3b55dbf52	-0.0401812704939163
217	0x3f7785950a0dec88	0.005742628273647139
218	0x3fa06f5bfbb15e98	0.03209960410521012
219	0x3f85055c01580510	0.0102641284856895
220	0x3fa12bbe1ccdaede	0.03353685475926026
221	0x3fa369cd5fcdc1d4	0.037916582054893816
222	0x3f9e112894b81cc8	0.029362329556559513
223	0xbf8756693282b640	-0.011395284513436299
224	0xbf82816358b58bc8	-0.009035850662888381
225	0xbfa57cd7c352bcf6	-0.041968100159801056
226	0xbf60ca34a3244240	-0.002049544150516419
227	0x3fa1b301b0d46374	0.03456883700909588
228	0xbfa826e3cbca9dd3	-0.047171705843819155
229	0x3fa992cdc9ddef5c	0.04994814957805602
230	0xbf6d55056a4fb940	-0.003580580307690401
231	0x3fac86cd2901d30c	0.055715953117134814
232	0x3f810e20e7dba210	0.0083277292973927
233	0x3f87e2cc5b4bf7d0	0.011663052116542533
234	0x3fa047cf64f3958e	0.031797867844754454
235	0x3fa15db8dfc198ba	0.03391816836737989
236	0xbf9cf169217714b6	-0.02826465861086965
237	0xbfa3aaeff0051ab4	-0.03841352276736157
238	0x3f51f3fdeb7aa540	0.0010957698522509746
239	0x3f995d75234c47d8	0.024770574836175147
240	0xbfa8fb8f039bfbf2	-0.04879424017962454
241	0xbfa43377557051e5	-0.03945515554383742
242	0xbfa203f54d81ed76	-0.03518644877564274
243	0xbf97fc1ca2126be8	-0.023422667877280562
244	0x3f8205f263b2caa8	0.008800405185273988
245	0x3f7069545617aeb8	0.004006699980418631
246	0x3f940765003ea16c	0.019559457912380493
247	0xbf9c11b3468faa5c	-0.027411271268571333
248	0xbf85f24f02521e60	-0.010716073282551253
249	0xbf7e9f6570a1b430	-0.007476230859635044
250	0xbfa5ca947c9ff1c6	-0.04256118794726009
251	0xbfa2807807765a16	-0.03613638964741399
252	0xbfa72fcaba48765a	-0.04528649829829297
253	0x3fa5c5740f20a538	0.04252207455312845
254	0x3faa884f99e47922	0.05182121995516044
255	0x3f9cb8cff3f98e50	0.028048753038446173

fc1_bias f8 [50]
0	0xbfa2a6bfa740b25e	-0.03642844120654297
1	0x3f921bffab72036a	0.017684931601709954
2	0xbfa45eb64fbdaad4	-0.039785096391673186
3	0x3f94d9c5f77abee2	0.020361989240597185
4	0x3f52b83ddd1543e0	0.0011425594460272512
5	0x3f9910f301834056	0.02447871872647086
6	0xbf7ff229f48624a0	-0.007799304854765016
7	0x3f94077b0e88a6c2	0.0195597865696644
8	0x3f821f55d2a7c074	0.00884882973784349
9	0x3fa6945f220c1b03	0.044100735574877724
10	0xbf9ccf90f1f6ee11	-0.02813555218538794
11	0xbfa02b8deeed39a4	-0.03158229390702452
12	0xbfa5b7e340d7e674	-0.0424185768751614
13	0xbf8dfda3b1df9850	-0.014643935075536657
14	0x3f9638fc2455c206	0.021701755254470732
15	0x3f7adfffbed7f220	0.0065612783487236925
16	0xbf451816ac24f3c0	-0.0006437407212512777
17	0xbfa71b33b6c9dae8	-0.04512940985016717
18	0xbf979bb66a079464	-0.023054933759244625
19	0x3f8209f74da251b4	0.008808071190551249
20	0x3f9a0620000f852a	0.02541399002428083
21	0x3f6f75acdd05a000	0.003840291618121938
22	0x3fa98a8942ce04a3	0.049885072140577046
23	0x3fa030cad9cefe57	0.031622256362876904
24	0xbfa245c864b856e0	-0.035688650412493805
25	0xbfa1247d23b51cfb	-0.033481512650320476
26	0x3f924ad37a9f98be	0.01786356388029086
27	0xbf94435e94df924a	-0.019788244091517172
28	0x3f9b1a32453322ca	0.026467118714921502
29	0xbfa9961fe4b3ec6b	-0.049973484676194634
30	0xbfa4ed3564501ed1	-0.04087225770495951
31	0x3fa73bec23c343c1	0.0453790467887596
32	0x3f91e7eade2afbd6	0.017486257371952828
33	0x3f9c1bc818976be2	0.02744972848982375
34	0xbf6fc6d490e0a3b0	-0.003878989379718388
35	0x3fa1fd1347c30f31	0.035133936414722185
36	0x3f9c81d87ac6d18e	0.027839071744624237
37	0x3fabc989a8aae0c1	0.054271985854428724
38	0xbfa321e91401a10b	-0.03736809128969484
39	0xbf4a55cfe272e080	-0.0008036866246561442
40	0x3f980ff5b4434f72	0.02349838173616043
41	0x3fa3748a6012173b	0.037998508670212115
42	0x3f9470de5dc76b82	0.019961809610190347
43	0x3fa5af033a846241	0.04235086526222576
44	0x3f836fd1857d936c	0.009490620504672719
45	0x3f98a8367c0bbb86	0.024079181023747086
46	0xbfaa286f69c6b59c	-0.051089746153006405
47	0x3f8c416aa0199004	0.013796647082195086
48	0x3f87e02c89294b8c	0.011658046661215747
49	0xbf970707e8709b8c	-0.02248775821876907

fc2_weight f8 [10, 50]
0	0x3f9a696810716ff8	0.025792718890770033
1	0x3fab5d2eef5452e0	0.053445307459843994
2	0x3fb63c21995763a0	0.08685502999959605
3	0x3fb5a0f4d5fa0b48	0.08448724960366605
4	0x3fa102a4c94a72c4	0.03322329480326894
5	0x3fb4f810103e9410	0.0819101371440214
6	0x3fc00f51c2f35685	0.12546751040524753
7	0x3fb35efb12618a18	0.0756680412173768
8	0x3f935df5c7225d30	0.01891311672133361
9	0x3f84112a01060f90	0.009798362880935746
10	0xbfa2e197fb317148	-0.03687739316294142
11	0xbfb703f919eb0742	-0.0899043739582597
12	0xbfaef2c54aabeeca	-0.06044594322699266
13	0x3f7263d3c0ba97c0	0.004489733848151489
14	0xbfbb4ea46029bb7f	-0.10666873309831536
15	0xbf8b15f06ebe6670	-0.013225439433699665
16	0xbfc19d844fe09bde	-0.13761953258764853
17	0xbfc192676705d217	-0.13728039293677405
18	0x3fa69363dd00bb40	0.04409324715412888
19	0x3fbbf86e0d12ec52	0.10925948924243414
20	0x3fbc1fc274e32b76	0.10985961297698829
21	0xbfbbf6b5f5036e89	-0.10923325759670822
22	0x3fc1294712a5b89f	0.13407219324603134
23	0xbf799b042364ba60	-0.006251350560246921
24	0x3fac2617a3ebd3d0	0.05497812152854176
25	0xbf43b9e6758e3300	-0.0006019950188701217
26	0xbfb6b67f99b23ee4	-0.08872220518446344
27	0xbfa926074d873b08	-0.04911825963391975
28	0x3fb4403917223a28	0.07910496535098643
29	0xbfb22fa335551972	-0.07103939106045745
30	0xbfbea0e2c7551dab	-0.11964242331042978
31	0x3fc07f1bcb956823	0.12887904587370355
32	0xbfc00f8005dcc4de	-0.12547302519082043
33	0x3fba89b101f8dad6	0.10366350458285054
34	0x3fa475d80f331a88	0.03996157823126106
35	0xbfb44f95afdf3ed3	-0.07933936637641219
36	0xbf87061f4e7b68e0	-0.01124214609392421
37	0x3fb51828edeeaa4a	0.08239990052121829
38	0x3fb0e38a7043d84a	0.06597199669690315
39	0x3fabd2ad7a690388	0.05434171790375958
40	0x3faa17b7635e038c	0.05096219146708511
41	0xbf938208fb22ad7c	-0.01905073197182848
42	0xbfa16d04dcb88dda	-0.034034873908492094
43	0xbf97d0e6925e5c80	-0.02325783031809836
44	0xbf73c64e2a63a4e0	-0.004827790579136265
45	0xbfb4b9de0635a5ba	-0.0809611096534785
46	0xbfb935f5228897dc	-0.09847957699875515
47	0xbfc0ab9867b48fcb	-0.13023667396293911
48	0x3f905e86708cf720	0.015985584849878554
49	0xbfbbf4f8bdbd9d14	-0.1092067206605985
50	0x3fb32cf4218caf68	0.07490468806343886
51	0x3f8693ebc7b156e0	0.011024324447287126
52	0xbfa826b11c0ea584	-0.04717019526953961
53	0x3f8d587bf57440e0	0.014328926494755867
54	0xbfb03b577aca566c	-0.06340548274814645
55	0xbfa3a7db0b6dc47a	-0.03839001192580667
56	0x3fb746346f11e682	0.0909149905363851
57	0xbf9d47100831c3ac	-0.028591394901414866
58	0xbfba46d4a8b1a122	-0.10264329069616854
59	0xbfb25bd13afeb078	-0.07171352091126149
60	0xbfbcbc3d7dee05a8	-0.11224731754739159
61	0xbfbb7e9e80fec017	-0.107400804989766
62	0x3fa97d5e0f0b4178	0.04978460248605904
63	0xbfbd0c1ea4c2e276	-0.11346618196956534
64	0xbf457fdd49384300	-0.0006561117647284342
65	0x3fb31704645e23b0	0.07456996393570026
66	0xbf995b9da0e95354	-0.024763548799757132
67	0x3fc186dd72088881	0.1369282538226493
68	0x3faa8c54c4bfd580	0.05185189153409464
69	0xbf98a3895628e128	-0.024061342128534197
70	0xbf9021ba90cf0488	-0.015753665054721228
71	0xbf84ef9f34211040	-0.010222667482715164
72	0x3fa5c5bc8e95b4ec	0.04252423515831957
73	0x3f500c555f653c80	0.0009795030324147025
74	0xbfc1034e7e5ccbe4	-0.13291340990107792
75	0xbf98b6bb1de221d4	-0.024134563158925662
76	0x3fa00886506fa1fc	0.031315038031440395
77	0x3fc1a94ff48254bd	0.13797950209542434
78	0x3fa712cf08d61fa8	0.04506537421099149
79	0x3fb35e70a55c2e48	0.07565979039298398
80	0xbfa308eba3cad4ee	-0.03717743276994577
81	0xbfc1bab30b863276	-0.13851011336045688
82	0xbfa731af0e5e2d5a	-0.045300932411090414
83	0x3fa7965df580d974	0.04606908437601734
84	0x3fb01b7e25ba6338	0.06291950627418152
85	0x3fafe5cd7d30cddc	0.06230013039785451
86	0xbfb57d5fc62000d5	-0.08394430720364039
87	0xbfc15a3dd419af1a	-0.1355664525648244
88	0xbfba82a0d89327ad	-0.10355572974654477
89	0xbfa149764750f084	-0.03376359577711788
90	0xbf9314a639e4fe1c	-0.018633458407974243
91	0x3fa882e92411b80c	0.04787376942918806
92	0xbf8f379885187aa0	-0.015242759286647811
93	0xbfb4a8c16931f05a	-0.08070000475157837
94	0x3fc0e3d1f777c933	0.13195252021211842
95	0xbfbcc0eab5cf8b1b	-0.11231867731798355
96	0xbfc1fc659cee219d	-0.14051504290206376
97	0xbfa5dde605174990	-0.04270857631822189
98	0xbf8b938f191773b0	-0.013465040162310732
99	0xbfb540fcedfeb2cc	-0.08302288828299281
100	0x3fbdc52ed778ad52	0.11629002342731568
101	0xbfc005ea81772561	-0.12518054315141128
102	0x3fb1e2b2a2451d40	0.06986538373631834
103	0xbfb9a678f316766c	-0.10019641814002406
104	0xbfbbc7cd351eeb82	-0.1085174803437621
105	0xbfb520e3f4051d20	-0.08253311831969201
106	0xbf84e022b6168530	-0.010193129712947696
107	0x3fbe0a4c9c28304e	0.11734465420175974
108	0xbf99349c4f9d85a8	-0.02461475597318033
109	0xbfa7d5abf4f1e098	-0.04655206074761614
110	0x3fb577ef6a3f3a7c	0.08386131614609299
111	0xbfc095d82040b454	-0.1295728833660258
112	0x3fb7647728424c46	0.09137673123250165
113	0x3fbce2503837b452	0.11282826778888591
114	0xbfb5be9233ebc956	-0.08493913428882158
115	0x3fb0c02d9f64a73e	0.06543240682063087
116	0x3f9ede48cfc9af00	0.030144822771418056
117	0x3fa7259cbd11824c	0.045208833770406714
118	0x3fb2d4860e08ec14	0.07355535357139359
119	0x3f6e049848ab9780	0.003664300374441376
120	0x3fb7ca1e4c099328	0.09292783123380544
121	0x3fb2ab2bc4011d0e	0.07292436156523172
122	0x3f9e537e3ca98c80	0.029615375950367895
123	0x3fa61be54bf6103c	0.043181577227216356
124	0x3fc106b087036a5f	0.1330166491741975
125	0x3f81d8a3fffc1260	0.008713990449458808
126	0x3fbf409a54c96332	0.12207951135623032
127	0xbf86e10fcb41def0	-0.011171458616657998
128	0x3fbe67c0ceccc156	0.11877064751457075
129	0xbfa41bcfbd6af6da	-0.039274684784215544
130	0x3fc19ba479e1be0b	0.13756233168850004
131	0xbf684ab7df8061c0	-0.0029653159399567197
132	0xbfbec59dd3b63aef	-0.12020288866754546
133	0x3fbbb2bd21b0317c	0.10819608757464566
134	0xbfb584146884bf3d	-0.08404662658426516
135	0xbfbe8aadafd9a1c8	-0.1193035654374689
136	0xbfacd4927364fbf4	-0.05630929621337791
137	0x3fa24c258f11ee90	0.03573720332584884
138	0x3fb7a3e21b3bdbfe	0.09234440960777587
139	0x3fa2900d13d9601c	0.036255272553433054
140	0x3fc0fbc3460497b5	0.13268319052548141
141	0xbfa3b5bf33bc52e8	-0.038495993676553486
142	0x3fa0930dabe4f330	0.032371928437419206
143	0x3f36302d39855600	0.0003385649120180856
144	0xbfb2653a7d92bc0b	-0.07185712400199422
145	0x3fa3be8983921db4	0.03856305819595765
146	0x3fb8ae87c0f4cdc2	0.09641312085005097
147	0xbfb2ca21e871d219	-0.07339679646413123
148	0x3fc0c1027bd621c3	0.13089018866254606
149	0xbfbeb53c0fac67c2	-0.11995292074826039
150	0x3fb70cd5156ba2dc	0.0900395562454252
151	0x3fbcef89ea34fe86	0.11303007095284032
152	0xbfb8a8b24a11dcec	-0.09632410343498393
153	0x3fb4c21308642c94	0.08108633952012873
154	0x3fb3b047f90bf9e8	0.07690858679050161
155	0x3fa3df8e2492c390	0.03881496616793989
156	0xbf9d2168670527c0	-0.028447753227091033
157	0xbfbdb3a774f02e76	-0.11602255444466344
158	0xbf97a76e590323f4	-0.023099636252286573
159	0xbfb220140bd8e478	-0.07080197610129513
160	0xbf7acec3ad55fda0	-0.006544842113157229
161	0x3faffbfcaab8a6d0	0.06246938308715999
162	0xbfb2fd97127472b1	-0.07418197823103402
163	0x3f807349459ff650	0.008032391011506906
164	0xbf45361febf83600	-0.0006473213069868033
165	0x3fb1ab02fd8c0068	0.0690156811724606
166	0xbfc104289e9a102f	-0.13293941253880479
167	0x3fc17340e5d87755	0.13632975790909066
168	0xbfc17fd29c0c83c7	-0.1367133390386057
169	0x3fc08a32b5570317	0.12921747068869457
170	0xbfbe6e51aae56b6d	-0.11887083456296717
171	0x3f9aea73766af158	0.026284984686513496
172	0x3fb07775c59b95b0	0.0643228156510165
173	0x3fa9737c423610d8	0.04970920856706734
174	0x3fb92c7ea1eef240	0.09833518460704571
175	0x3fa8a18e44bd3e04	0.0481075724516096
176	0xbf9c79fda8426ef0	-0.027809108156914897
177	0xbfbe7cbd1585201d	-0.11909086013213295
178	0xbf8190f3f3e99a20	-0.008577257042998332
179	0x3fa88949247293fc	0.04792240686337121
180	0xbfaf1eae6be687f4	-0.060780955001305786
181	0xbf54b06d8bf91d00	-0.001262766818301675
182	0xbfb9a5a865b856b0	-0.10018398745918478
183	0xbfb6d686a7f82f67	-0.08921090699021549
184	0x3f75ff24f9705c80	0.005370277815948232
185	0x3f92e718e91bd0d8	0.0184596912649376
186	0xbfbb78f2eeac04d4	-0.10731428458167908
187	0xbfa82fdb8c66c7a2	-0.04724012459645556
188	0xbf94d2ab309add84	-0.020334887353525413
189	0x3fae57cf95b5cd40	0.05926369383350982
190	0x3fada74472c88b34	0.057916773807184546
191	0x3fc1dca3120b6569	0.1395458067043294
192	0x3fbd5a3fe211b236	0.11465834874406586
193	0xbfbf282ef2094298	-0.12170689972959747
194	0x3f3bb6732aa43400	0.00042286216434278545
195	0x3fa4ad2a89e04ed0	0.04038365300234903
196	0x3f7129f7ba2bb240	0.004190414127816455
197	0xbfadbddc8a6cf830	-0.05808915319219954
198	0xbfb41fc9a04c8630	-0.07861004031703867
199	0xbfb0c617cacb47bc	-0.06552265835787713
200	0xbf8b2b49d24430b0	-0.013266159753151235
201	0xbfa46ff066a8f876	-0.03991652730154353
202	0xbfb5f14aec695454	-0.08571308395160432
203	0xbf6444fa9b806a40	-0.0024742979694683254
204	0x3fbc60626f32ebf6	0.11084571089570247
205	0x3fb4b3acafbfd3da	0.08086661616091764
206	0x3fb0102c1e508214	0.06274677028751113
207	0xbf92c5d279d75554	-0.01833275669726693
208	0x3fb632ba3f3440a8	0.0867115406329072
209	0xbfaabdda1750987e	-0.05222970518688984
210	0xbfacada15cfcf1b6	-0.056012194253045974
211	0xbfb6e3eb7b4e7090	-0.08941528091821938
212	0xbf9e1705b05b2fb4	-0.02938469780819704
213	0x3fb315493d5061d0	0.07454354998515744
214	0x3fb98ab573dcf4f8	0.0997727783078125
215	0x3f952c879222e818	0.02067767934270401
216	0xbfb12f7978f230ab	-0.06713065340790318
217	0x3fb735079cedd222	0.09065291959070312
218	0x3fbd5dfbc4c49fca	0.11471532396228593
219	0x3fb182445187b7c0	0.06839396467668646
220	0x3f940ac9e90338f8	0.019572405669173926
221	0xbfa911c06b3bddfe	-0.048963559236593554
222	0x3f99368c0e291dd8	0.02462214313916697
223	0x3fc0112e1dff01ed	0.12552429642347765
224	0x3fc1bb405d9f0b8f	0.1385269600997074
225	0xbfb329bbc94a9e2b	-0.0748555532869594
226	0xbf9a06d7df559314	-0.025416729933016205
227	0xbfa32beedcfa2396	-0.037444557642692874
228	0x3fbc12e494f22a72	0.10966328274131756
229	0x3fbb4ba0e9c06b72	0.10662275034739624
230	0xbfb5b6f5babc3b9a	-0.08482299622504144
231	0xbf972bcd96d26490	-0.02262803299945354
232	0xbf8de378eacf78f0	-0.014594025293203278
233	0x3fc1e5d172b2c43b	0.13982599354270228
234	0x3fbd4e45d17b1bf6	0.11447559704093621
235	0x3fc0b3287c41fe47	0.13046747271799772
236	0x3f91b45b92410c68	0.01728957252658994
237	0x3fbfa2aac1e1412e	0.12357585175891891
238	0xbfbbae104961153c	-0.10812475005612482
239	0x3fbc5748da3e4136	0.11070685699656199
240	0x3faa919c420f1aac	0.05189216905960356
241	0xbfb2e67908525ed6	-0.07382923558395346
242	0xbfbbe1ac2a88eefa	-0.1089122394413912
243	0xbfb87ce23a4be5e1	-0.09565557406667537
244	0xbfad703a5b57cbc6	-0.057496856355917766
245	0x3fae1a9d59ad4ca0	0.058796803662198416
246	0xbfa2945c70ac2ba0	-0.03628815532109475
247	0xbfbef0f40b0c48d4	-0.12086415548063495
248	0x3f9b9ae7be83a200	0.02695810413652744
249	0x3fb9759f5bf403da	0.09945102686835075
250	0x3fb2e1fae3a488e8	0.07376068170245598
251	0x3f8b25c2fc006cc0	0.013255618396263436
252	0xbf9a2d180c142ac0	-0.02556264470789915
253	0xbfb8cb064c9e1533	-0.09684790964646055
254	0xbfbb7c379c419897	-0.10736415448045232
255	0x3f7c29428fb39180	0.006875286107263512

fc2_bias f8 [10]
0	0xbfb2109d30fbef3d	-0.07056600995923375
1	0x3fb645c478921010	0.08700206702820901
2	0xbfb2157cf09da3eb	-0.07064038156899215
3	0x3fbaf08a009dd110	0.10523283495951241
4	0x3fc1d98518485cc6	0.13945068059613258
5	0x3f75fea70f7d1d20	0.0053698087502376535
6	0x3f951f0fd980e660	0.020626304293023145
7	0xbf91c5fb0e2cd830	-0.01735679887789149
8	0x3fa0e496c4f11000	0.032993995228508766
9	0xbf9f1367bc3ddf58	-0.030347462524758256
