trained_models/mnist_mnist_lenet_50_epochs.model (torch_old, 199729 bytes, 8 tensors)

conv1_weight f8 [10, 1, 5, 5]
00000000: 0139 dcf2 5fe0 ba3f 3089 118d 7ae7 d53f
00000010: f269 e6ab 3e76 d73f 3304 6d06 b6d3 e23f
00000020: be14 6a78 50d1 dd3f 3895 3ee0 3320 db3f
00000030: 9b17 753e ee0b e23f ad2a ed19 8c5e df3f
00000040: d399 23d8 ad59 db3f 39be 4442 cec6 db3f
00000050: f277 96b3 ad5d ccbf abdd ff4e f8a8 bebf
00000060: 67e0 7704 58ca d3bf c6fc 5095 7417 d5bf
00000070: b6f6 a874 d4c4 c2bf ce77 a12c 9f6f bfbf
00000080: cb77 36b8 6915 d6bf ea32 f691 4f84 dcbf
00000090: 8ed6 9198 c2f4 ddbf db64 0e08 c8a8 d7bf
000000a0: 358e da3e e0aa aabf 6a63 658e bf75 d6bf
000000b0: 7bd2 3cea a30b cdbf 1a3b dac0 da9e bcbf
000000c0: 9b97 b419 846a c6bf d971 5540 6775 d93f
000000d0: 5898 a5cc 1a2b d83f 252b 0d08 8d17 b93f
000000e0: 22e4 8c01 e64d aa3f 6490 d64f 70b0 bdbf
000000f0: d567 1058 0aad dd3f 0f62 4410 8029 dd3f
00000100: 009b 2cf8 1fcb aebf 62ab 2309 773e d1bf
00000110: e384 0a88 e4b6 cfbf 94a6 41a2 4cab e13f
00000120: 2ba8 0e54 d387 cc3f 3e97 00da 73b8 b8bf
00000130: e3d3 60b7 89cf d4bf 19ee e9c3 087d d7bf
00000140: 630e 1d27 e5b3 e03f f261 2e4d 34fb be3f
00000150: e4dd 48b7 7a1d a2bf 25f9 40a6 abcb d6bf
00000160: 607b 2c4c 4944 cfbf d6e7 ea23 5e38 d83f
00000170: 94c3 6825 e586 c73f 1fe5 27dc 9874 cbbf
00000180: a4a9 d6ab 4cd6 d7bf b3b0 f0e5 757e ccbf
00000190: a551 87ad 0d72 cfbf dcce b79e f186 9abf
000001a0: 1b79 097d 5580 ccbf df66 8bac d945 d83f
000001b0: 11ad 1f31 5abe e33f ff4a 6d52 c8f5 d5bf
000001c0: 4f04 e55a 5e9c cbbf bf36 e518 156d d6bf
000001d0: 633a 7ca5 7baa c73f c9bd 3bcb ad81 e83f
000001e0: 8b40 95cb 7615 e3bf 7b7b cde2 d702 d9bf
000001f0: ed07 aff6 674c bfbf fcba aad5 ad72 d13f
00000200: 33b4 5009 1a07 ea3f 9ac0 8631 e0ba dbbf
00000210: 0713 ab74 29fc cfbf f71f 3694 0089 ccbf
00000220: 1ab1 c1db 0515 e43f 27bf a083 8a2c e73f
00000230: 8dff 0c0a b61c e0bf 8a0b f9a6 16dd c9bf
00000240: b98f 41b3 57b8 c63f b5f7 2a59 6745 e23f
00000250: 03a4 eacc 5d4a e53f 1e55 befe a413 d93f
00000260: 8952 9d04 89be 92bf 3513 44e7 08ce d2bf
00000270: 2e6e 7818 2af9 ccbf 3b61 9906 8f96 cdbf
00000280: efb4 c5d7 bdfb d1bf 6930 a393 d565 d9bf
00000290: 0843 965f 966a dfbf a733 8a69 01fc e4bf
000002a0: ea3b d66d 2d84 e4bf 3f72 0eb7 5f92 d4bf
000002b0: bae9 3ec6 876d e1bf 55c7 9677 743e e3bf
000002c0: 0906 1b1f 55d0 e6bf 0141 7333 69e7 ecbf
000002d0: b782 94b3 7798 cbbf 9110 ccb9 dd32 e0bf
000002e0: d82c cabe c218 e0bf 46c4 6073 b99a ddbf
000002f0: 89c8 1681 95b0 d1bf 24e6 c9ce 1284 793f
00000300: 59fb e133 b104 d1bf af3c 7a65 0246 cdbf
00000310: 6d31 b6f2 be65 c2bf d1eb 57b4 ab06 d93f
00000320: c277 a879 de2e c7bf 1ee5 d4df 8bd7 cf3f
00000330: d2d0 c1cd 438e d73f 6159 67fc 9d51 75bf
00000340: 6874 6ac1 a716 d2bf 9906 6346 c7e1 83bf
00000350: d239 80a5 6bce e23f 3caf e119 3236 d33f
00000360: 1f95 35c2 19ed dabf 6f34 0c99 3cd3 e0bf
00000370: 7696 5393 8e11 ce3f 2534 e685 2656 dd3f
00000380: 136d a02d 99cf 8e3f 786f 727a 719b c9bf
00000390: 284c fefb 295d e1bf b38d 26ea ab99 d33f
000003a0: 64e4 d4ae e502 d53f 9cc4 28f1 fe40 d43f
000003b0: e473 9cc5 eda0 d0bf 933b 6174 184b d7bf
000003c0: a433 6d37 f345 d1bf 2605 752c 3dfd d13f
000003d0: 6053 309f 45b2 cc3f c275 786d b56c bd3f
000003e0: eeee 51b1 05be ccbf 29d7 be5d 3da1 c33f
000003f0: 6010 1355 6528 b43f d6e3 b8c1 91b2 dc3f
00000400: 852d 07f3 2e4d a63f d4c0 fd1e fcd6 c8bf
00000410: 3cc3 3a9c 0151 bfbf c596 a225 d4c1 e23f
00000420: cc63 7772 ca40 e13f 17c4 3791 a2ad ccbf
00000430: 34d7 d045 0d6e e0bf da29 fed5 cafa c03f
00000440: 77f2 7d88 506f e33f adbd 650f 7630 b13f
00000450: 04a6 2eef a587 c5bf fdf1 a737 ace5 e0bf
00000460: afbd 8aa8 c3e3 e13f 71e9 8f36 08c3 e13f
00000470: 1763 4b64 7986 c33f 481a 32b8 6be7 cabf
00000480: 0fb8 ad6f a990 9bbf 9a96 651c 321c d03f
00000490: adc1 5558 a744 c03f ad08 f518 e77c bdbf
000004a0: fc0d d47f b700 d7bf 06d5 1498 eaa5 dabf
000004b0: 5f30 ef05 8855 c6bf c277 854a 4cf2 c7bf
000004c0: 12b0 c304 7d7b d13f 96cb a107 e7b3 d43f
000004d0: 5e76 76bd de0b a6bf 9ede 6049 bc38 c2bf
000004e0: 2048 0597 93e2 b4bf 9249 0f50 bb1a d63f
000004f0: c2b1 29c3 4df4 e23f cf1c 8028 0ce4 e43f
00000500: 73f1 ef9b 6fc9 d13f 4391 5b75 3ca8 b93f
00000510: c8cc 2e96 96aa 803f 9f55 b593 0e84 5cbf
00000520: 386d fe16 dab5 e23f af54 e701 3f43 c0bf
00000530: ac43 2de5 df2e c0bf 093e 80c2 40d9 ddbf
00000540: 6279 f1ee 07a6 debf 1d61 475a 2547 a73f
00000550: 4b44 2d19 90db d7bf 03db 8166 11ef d4bf
00000560: 90a7 af3e a196 d7bf 715d e698 f76e c8bf
00000570: 6d86 072d 30ea d0bf 9d0e 965e 7b3d 943f
00000580: dc32 0325 d002 c7bf 5efe a48f 2f5f bebf
00000590: eb14 64a5 226c 6d3f 8382 4d14 bac6 ae3f
000005a0: 905b 87b8 a9d3 a3bf d8ff 0751 3b06 e2bf
000005b0: 28f3 c9cc a173 ebbf dca7 5ef6 4931 e1bf
000005c0: 2b01 5535 440a debf 1a6e b2a6 6396 72bf
000005d0: 5add 0ccc b872 e2bf 5c99 0787 c862 e2bf
000005e0: 883d 0a84 c52f e0bf 1d3c 4d3a 1def b1bf
000005f0: 8b14 d02f 367f d63f 0790 02f1 51cc b83f
00000600: 8eda 3bd6 2ef2 db3f 9461 37fb 938b e13f
00000610: d7de 0459 2f6e e63f 0af3 a49f afd9 e33f
00000620: ba8f 0bd2 d741 ed3f 0801 947b e38d ed3f
00000630: 301b 23aa 1a8e e73f e307 47e4 80df cf3f
00000640: 7727 8e3a 6a11 bebf b3ff f61c 6f1d d43f
00000650: 592e 5c75 24d0 d83f 5c9f 740b 6355 d73f
00000660: 7aaa 6e78 1584 dd3f cf33 ea51 d606 c43f
00000670: 1c49 881b b8ee d23f b641 9489 daef dd3f
00000680: 6dbd 2388 9832 e33f 0ba0 1d64 1fe6 e03f
00000690: befe 73b4 ffa3 98bf 3293 fedf 3f2f c2bf
000006a0: 0f75 ccae f584 d2bf 303c f5e9 41ba abbf
000006b0: 5c83 5a89 cf1f df3f e632 dc72 8608 dbbf
000006c0: 6068 01da 59bf cfbf 0c85 35ff 9e48 d5bf
000006d0: 1026 43e9 3162 d2bf ce12 e715 5db7 c7bf
000006e0: eb72 6a79 c0f2 d3bf bf25 02fb fdcc e0bf
000006f0: cd60 9ddb 23d0 e0bf 925c f070 8db7 d9bf
00000700: df76 502a 3163 c1bf 2cad a4e8 ba15 963f
00000710: 7571 5118 40c7 dfbf 5e73 0c12 d612 cebf
00000720: 1792 f562 bba0 af3f ffa7 d2af 82b2 b0bf
00000730: 6dc1 70e1 862d 81bf b096 65e8 bd69 dbbf
00000740: 0feb fda2 2d8c e2bf e26e 7fcc afc1 e0bf
00000750: 4a29 60e3 4554 d9bf b83f fffb c797 e43f
00000760: 0ab4 dd4e abcf db3f a722 d106 9053 c0bf
00000770: 37ff e88e 171a dcbf 6cd9 456b 7b87 d8bf
00000780: ff54 98cd e858 d53f 56d3 723c 4dc2 e93f
00000790: 0cf2 221a 2fb1 e63f 4322 660a a6fb da3f
000007a0: 5200 ea8e 191b da3f a224 0944 cef4 c9bf
000007b0: 9f5c 2b6c 36ef d5bf e273 dea7 a034 ce3f
000007c0: f82b 134c 1bf2 dc3f f2bb a9fb 5bd5 da3f
0.10498618773656078 0.3422533395406786 0.36659209048380526 0.5883436322693626 0.4659005332872076 0.4238404931914661 0.5639563770171095 0.490145707434446
0.4273485766156259 0.43400913688217063 -0.2216088415997884 -0.11976577690790317 -0.30922508655885966 -0.32955660421061983 -0.1466317720059373 -0.12279696311585939
-0.3450569437935626 -0.44557561163018866 -0.468063973420933 -0.36967659746876586 -0.05208493010766483 -0.3509367838465126 -0.22691773354894793 -0.11179892738639943
-0.1751256108774982 0.3977907303103883 0.3776309011940433 0.09801560827797269 0.051375568093540616 -0.11597349118398054 0.4636865482331108 0.45565797413431225
-0.0601434698531218 -0.269437560010081 -0.24776894228583676 0.5521605652877093 0.2228950653491791 -0.0965645224792668 -0.3251671114733751 -0.3670064843388175
0.521959854501301 0.12102057346636011 -0.03538115966187741 -0.35618106113169495 -0.2442714330618072 0.3784404135473073 0.18380417181608932 -0.21449576139256352
-0.3724548032866102 -0.22260926940487522 -0.24566813443256055 -0.025905394852045002 -0.22266644101450414 0.3792633233075388 0.6169863662193241 -0.3431263737631269
-0.21570949018681282 -0.35040786200702806 0.1848902280839467 0.76582994169251 -0.5963701225500854 -0.3907985415334491 -0.12225961468268993 0.27262445321950657
0.8133669073046178 -0.4332809909492511 -0.2498828715962633 -0.22293097721944807 0.627566270076872 0.7241871424539327 -0.5035047718338191 -0.20205958512277916
0.17750068905581687 0.5709721318778437 0.6653279306675589 0.39182400586408217 -0.018304959208153924 -0.29382536491930306 -0.22635389513821863 -0.23115718672011973
-0.2809900862838068 -0.3968404714366956 -0.4908805783716592 -0.6557623921704491 -0.6411349435091982 -0.32143395306210104 -0.5446204063403493 -0.6013738952371833
-0.7129312140970693 -0.9032484059225966 -0.2155904414039662 -0.5062092427110817 -0.5030225492822877 -0.46256862895376505 -0.27640283209178357 0.006229470699162163
-0.2659113890330694 -0.228699016141467 -0.14373003817707844 0.3910321484724451 -0.1811178297074872 0.24876545361784336 0.368058157858525 -0.0052047892881631206
-0.28263276947274685 -0.00970798190644766 0.5876978142203433 0.3001828434705549 -0.42072147336723903 -0.5257857312405018 0.23491079515149565 0.4583832080468844
0.01504439993373422 -0.20005625227792811 -0.5426225587601765 0.3062543665530157 0.3283018309917394 0.3164670329161454 -0.25982231424296587 -0.36395846715179764
-0.26989441311598683 0.28108147946848516 0.2241904284752776 0.11494001314755223 -0.22454901846128145 0.1533581454984241 0.0787413914395656 0.44839900892435247
0.04355761257792338 -0.19406081689112986 -0.12232980789373199 0.5861607298908998 0.5391590343161794 -0.2240489205428566 -0.5134340633000876 0.13265357445591414
0.6073382058962825 0.06714570880807598 -0.16820215395755167 -0.5280362212211568 0.559053258117208 0.5550576272647004 0.15254132649604266 -0.21018740171367
-0.026919028703041244 0.2517209317505632 0.1270951443980385 -0.11518711432748559 -0.3594187496493928 -0.41637673236557793 -0.1744852093673925 -0.18708184851396764
0.27316213097833597 0.3234803747683882 -0.04305931151178009 -0.1423564298909143 -0.08158228337313789 0.34538157289821314 0.5923222362303522 0.6528378287338458
0.2779196760964375 0.10022333016565192 0.008137871225562768 -0.0017404692033172531 0.584698719892379 -0.12705218880606625 -0.12643049898408998 -0.46638506883843484
-0.4788837274008043 0.04546467520748563 -0.37277605494188454 -0.32709155092690895 -0.3685687172097625 -0.19088644948781622 -0.2642937125911889 0.019765784881669125
-0.17977334792376254 -0.11863991982408481 0.003591602008898511 0.06010991571270543 -0.03872423532055003 -0.5632607061997943 -0.8578652381689595 -0.5372667133244664
-0.46937661369522016 -0.004537953626960989 -0.5765041337353225 -0.5745585095690262 -0.5058314875513341 -0.07005484269505798 0.351514383976174 0.0968676770594926
0.43665667458791624 0.5482883364266393 0.7009503115322911 0.6203230016759289 0.9142874815411155 0.9235703862796365 0.7360966990462199 0.2490082850109153
-0.11745323113987448 0.31429651096913885 0.3877040048689416 0.36458660238939955 0.4611867595764704 0.15645865440128978 0.29582026184756827 0.46776450572454153
0.5999262484528295 0.5280911403069707 -0.0240631059541545 -0.14206694066265296 -0.28936521597081905 -0.0541554067700577 0.48631657041010157 -0.42239533631145176
-0.24802706856536627 -0.33255743906745816 -0.28724334506532134 -0.18528331346001042 -0.31169139725697786 -0.5250234510905826 -0.5254077233649014 -0.4018281557959621
-0.13583960119370084 0.021567268800180603 -0.4965362775308429 -0.23494983559876464 0.06177316267966065 -0.06522385399389917 -0.008387616877457227 -0.42832896895411476
-0.5796116050181314 -0.5236433977219941 -0.39576861576701516 0.6435279771630951 0.434550120370489 -0.12755012829645304 -0.43909253078526284 -0.38326917148460526
0.33355159833566 0.8049684696803563 0.7091289053419714 0.42160941138766733 0.4079040427823247 -0.2027833778577462 -0.34272537768760886 0.23598106571890215
0.45227701596439784 0.41927241875140375

conv1_bias f8 [10]
00000000: ac03 d5fa 6a08 ca3f 0aa4 a542 4b02 d13f
00000010: 289e 4052 7d8f cc3f 6a3e a354 4710 e6bf
00000020: c0d2 3186 caa7 c93f b6b2 5ae5 7890 e33f
00000030: 9d07 a9d9 b78f c53f 5a2d 9ef0 f2cc e23f
00000040: 1628 3678 ced6 ce3f f219 0c2d 8879 d73f
0.20338189361248504 0.2657650137758202 0.2231289531348335 -0.68948713808818 0.2004330783126047 0.611385772664639 0.16844843032782544 0.5875181865280112
0.2409303748102622 0.3667927207865481

conv2_weight f8 [20, 10, 5, 5]
00000000: eda7 14d2 ac3d a63f d242 7e8a e754 5d3f
00000010: 43a5 85c7 0e9a c03f b770 355e 2fe0 cb3f
00000020: beaf 01a0 8064 c03f 5e25 ba93 19f5 aa3f
00000030: 40b7 4b98 69f7 abbf 06f9 52c3 1544 bfbf
00000040: 8900 2821 6d8b 70bf 4a08 996f 16a6 923f
00000050: 5cff d26b 9be7 b53f 280a d4e7 1b03 b63f
00000060: 0f0d ebf5 1f5c 84bf 072e dec2 7572 babf
00000070: 96b2 1d2b 4150 c3bf 93a5 8751 3a38 b0bf
00000080: 21fa 8f06 4148 8abf 5302 7f0b 43aa 8dbf
00000090: 38bc af1f 95e9 aabf 2865 4b9d 0a38 b4bf
000000a0: baa0 c1a7 2c19 a6bf af10 e76d 9276 c1bf
000000b0: e06d ddce 3d8c aa3f ab10 a1fb ca4a a1bf
000000c0: 2d05 3d29 faf0 a1bf 4eac fddb 5a37 a03f
000000d0: ec8e 3f52 8a88 b73f 58e0 1cb6 d269 a73f
000000e0: 6381 addd 2b32 973f 13bb fc4d 7a10 b2bf
000000f0: a241 5859 077f 99bf d488 2ada 9bff 58bf
00000100: 7c7b 212a cce9 b03f f33a 0fb7 cd9d 983f
00000110: d9de d830 0301 a5bf 3fa2 060f 0f4b babf
00000120: b9f9 aaef 3f67 bfbf 7f92 bbda 9d62 bcbf
00000130: 7108 d4ae 8c23 b23f 4f3f ec9d a597 b23f
00000140: 4f29 559d e808 bbbf d04e bd5e f7a0 b1bf
00000150: f437 3d33 b1b0 b3bf ce80 ea61 10b8 8dbf
00000160: 90a0 9ed7 19c0 c03f 13da 1b35 ed56 a6bf
00000170: 4fc9 5f28 fa55 a0bf 18a9 a4ca eb7b b33f
00000180: e07d 0ca1 bf66 a03f eeea a628 1cbe c03f
00000190: 6a94 c4c9 6746 a5bf 77b4 f1d1 5b8d c0bf
000001a0: b09f c779 feb1 c8bf e32a f02e 2d2a bdbf
000001b0: d5a6 8fca 7e40 c4bf fedf dcc8 ce4b 9abf
000001c0: eafa cfe5 1f42 a2bf 0541 7817 64a1 c7bf
000001d0: 6aaa 181e 3652 c8bf de41 1abe f43a b8bf
000001e0: ffc4 e7df e505 b3bf 1591 bce9 6265 a9bf
000001f0: 085f 8003 e874 923f 4c06 b83f efae c9bf
00000200: 8eb1 6edc c335 bcbf 6f9f 3038 a291 b5bf
00000210: 9493 0750 65a8 adbf bf60 8fed 2516 c93f
00000220: 5a37 5d85 1146 96bf 8f99 222c fc9d babf
00000230: aa72 ee81 bb71 583f 3912 1afb a65f a5bf
00000240: 8841 a77d 69c6 c23f 1527 84fa 1bcc b03f
00000250: c80f 1d35 5075 afbf 9c0b a071 77a3 acbf
00000260: 56c1 795e f278 b2bf 2894 21f9 cd0b a23f
00000270: 16f6 1330 ba02 ba3f 2e68 00c2 708e bd3f
00000280: 68a2 9221 7c45 b1bf c2a4 9358 8522 b9bf
00000290: 6448 3070 0ed2 a3bf 1316 9d95 aae2 ba3f
000002a0: 29e5 690b e82a d03f 8a72 5c7d 7909 c63f
000002b0: 2da2 be2a 0c24 c5bf 353e 3460 de19 d9bf
000002c0: f157 c44b 9c07 d0bf 47d9 1551 fe1a c23f
000002d0: 8f4a ac88 2030 d03f af45 eb24 4872 c93f
000002e0: daa6 ea0c 559d d1bf f478 d62b ee0f d3bf
000002f0: be49 dc28 f006 adbf c494 af25 22ea c13f
00000300: 82f4 491a cb20 b93f 609c c53a 7557 963f
00000310: df4c 9671 145f bdbf e3d5 ae86 d7d0 a1bf
00000320: 6c51 6e53 bb93 75bf f642 6f23 3930 92bf
00000330: 4922 44e7 a11a b43f 83a1 e8b4 acf3 b3bf
00000340: b857 0d15 c5fe 9c3f 0add 429d 10ff b2bf
00000350: bf8d 41cd 2089 a63f 47de c9fc cbd8 b83f
00000360: d2a4 b64d f20d b03f e018 a96e 42b6 953f
00000370: 152b 088a 022f 9bbf acf8 887b 268e bebf
00000380: c743 d28f a098 6e3f 3554 1878 47f2 bd3f
00000390: ada9 8a67 1aeb 863f 1aca 4ef5 3eee bbbf
000003a0: 5f21 b27e 1200 c4bf 1591 6762 01ff bfbf
000003b0: c7ff 5b16 2939 c13f e3a2 2238 d577 b83f
000003c0: fb55 96ad 9189 b7bf c1e0 b53e 330d a7bf
000003d0: e4a4 117b 665e 953f cd1f e7b7 cfbb aa3f
000003e0: 660f 0f0f 4bd3 973f 0763 253a 40ad a1bf
000003f0: 0617 bacc 460a a8bf ca69 d76e 9c05 aabf
00000400: f285 822c f5de b8bf 5fd8 8c99 5c57 aabf
00000410: d889 33b9 801d 91bf bedc c00a 45c1 b5bf
00000420: 3079 f9d6 4666 a03f 5f6b d60f d3a1 96bf
00000430: 4f78 df43 bdb6 a0bf f12e 7fba 7caa 90bf
00000440: e63f 552e c85e b2bf b682 016f 5488 853f
00000450: 10f3 6cff 2caf 993f ecab 7fe9 da23 a23f
00000460: 4170 c63a e80e aabf cfe4 786a b8ca b6bf
00000470: 9916 1b65 f36c b2bf 9b8b 2aaf 3e9a c13f
00000480: 3a4e d2eb bb36 b03f 718e afa6 1763 b9bf
00000490: 5c39 6c2d 1965 a3bf e009 4ce2 f447 b23f
000004a0: a223 77b8 ddf4 863f 51d0 1b39 d2bd 843f
000004b0: 5cdd 78d6 f6e1 a8bf 4af6 39d8 4094 b4bf
000004c0: 01ee fa63 1a5e 733f afb5 1ffa b6e4 a83f
000004d0: 496e 5074 381e af3f df27 468c 8162 c13f
000004e0: 82f2 09f9 ccce ab3f 2ddd 0a39 15ae b6bf
000004f0: 69de 95b0 ba2f 77bf a0a1 dd25 8425 a03f
00000500: 4bbe baf7 1b5b b03f 2f10 a697 b6e0 c23f
00000510: 24e3 206e f7c8 a53f 871d 92ff 8c7e b7bf
00000520: f5fe 5053 ca2e bcbf 5e4b 19cf b594 9cbf
00000530: 3f9c d9d4 0025 a93f 7566 bf28 c9be c93f
00000540: a073 db59 5fe8 a13f e73c 540f 8563 afbf
00000550: 1a29 a202 2839 b9bf 452b 1903 b766 c3bf
00000560: 0bd2 61ad 7a6f b13f f3e0 398f c9f1 c03f
00000570: 7321 c512 a390 97bf 048f 66d3 957e 6d3f
00000580: 23b8 70ce 64ce b13f 9713 6c79 55bc b93f
00000590: be8c 2b29 2755 bbbf d559 c2de 80c8 c2bf
000005a0: eb5f 1b70 5c8e b0bf 7848 a2b8 eaa8 7b3f
000005b0: acb8 8dad 7713 c93f 65be 3f72 79b5 c53f
000005c0: d0b9 e802 00de c1bf 420f bb31 8067 acbf
000005d0: 3504 069d e0a9 c4bf a884 185e 8f05 c4bf
000005e0: 705e c926 1249 a03f bd0f 36e6 fd21 be3f
000005f0: 58c9 54fb 4f86 8e3f 8591 7b8e da06 b5bf
00000600: 9d46 c3f0 b67d cbbf 0825 fd25 27c6 bfbf
00000610: 6917 b2cd 66cf a3bf a64d 337a 1863 a53f
00000620: bc12 6ba5 4755 bf3f 956a f092 6881 6f3f
00000630: 94fb b31a cbd7 bfbf 2626 18f1 5bbc 8abf
00000640: bc0a a37f 8c22 b1bf 0b2b 3b87 5aac 4a3f
00000650: 085f ee33 b41f 8e3f 1f7c 164b c096 c53f
00000660: 90c5 8136 b746 b93f b4e8 9512 1434 52bf
00000670: 7121 ba40 a47b b7bf 230c e573 6d89 c8bf
00000680: 9494 6287 743b 443f dfce a86c 0fcc b63f
00000690: fa43 20bd b229 c13f c03b 6d34 ab78 c73f
000006a0: 31ec b129 5f82 a63f c376 4524 f4b9 c0bf
000006b0: ef87 7fca 78b2 c1bf 52a1 909d c63f 9d3f
000006c0: 7a38 ef7a 90c1 a33f 9989 1c18 da3e bc3f
000006d0: 51b4 0356 ecb0 493f f6fb 9ec7 708e 96bf
000006e0: 094f 4767 44d4 a8bf 2289 9da5 8f9c c3bf
000006f0: b6ea 0a21 1f26 b33f 3618 0138 2c23 ab3f
00000700: 74fe e07b 5280 b0bf e102 ebea 1f1d b2bf
00000710: a9b9 5aa3 2c87 6dbf 2061 e32c 6ca2 b43f
00000720: e741 4b91 3017 85bf 0652 f947 3c8d bbbf
00000730: 75d1 9a95 ad87 a9bf 3f64 1331 4f00 bb3f
00000740: 12e8 6511 420b d63f 77ac 9bad 6bfe c63f
00000750: 9a7b f79c f9c5 b4bf 8228 be34 a9e3 b9bf
00000760: aeab 8da7 1086 97bf 2e4c 31fe 1380 bb3f
00000770: 8ca3 44c1 f773 d03f e325 11b6 d347 c53f
00000780: e601 39f4 0654 9dbf 761e 38eb 45e2 9fbf
00000790: eacb 0f01 279f c1bf cc18 27de 0a08 b53f
000007a0: 0124 6919 d7c1 c23f 72a0 4d0a 8a88 a4bf
000007b0: 6796 c4c5 4486 b5bf dc00 de81 d85c c3bf
000007c0: 5213 e7ae f289 bcbf 77a0 6663 1f62 b23f
000007d0: 9fd2 397b c5be b5bf 443c 3779 e5b5 b0bf
000007e0: 069f af90 67eb b5bf 7be0 671c b98e c3bf
000007f0: 67f6 c962 459a b8bf 8013 9c14 433c bf3f
0.04343929352246776 0.0017902623312446198 0.12970146887099973 0.21777908420597722 0.12806709111043618 0.052651213915917636 -0.054621982422629944 -0.12213264483122907
-0.004039217269110059 0.01821169906748591 0.08556529409815766 0.08598493966932408 -0.009941339199377923 -0.10330902106777994 -0.15088667493127578 -0.06335796823954913
-0.01283312608029258 -0.014484905041059514 -0.05256334316060712 -0.07898012485693029 -0.0431608156948768 -0.13643102995240983 0.05185120725829129 -0.033773749557924525
-0.0350416350688739 0.03167232451854628 0.09192718990339771 0.04572924111420268 0.02265232601655621 -0.07056393054947944 -0.02489863856141173 -0.0015257856363537952
0.06606746700843574 0.024039472864212773 -0.041023349488055146 -0.10270780674785217 -0.12266921616808348 -0.11087977018503102 0.07085494297283092 0.07262644868410216
-0.10560468522195275 -0.06886240065551452 -0.07691485882716603 -0.014511230457458526 0.13086245563795673 -0.043631947262771 -0.03190595381592464 0.07610963532775761
0.03203390923431093 0.13080169663393043 -0.04155277574526724 -0.1293139243238419 -0.1929319471958002 -0.1139248122782806 -0.15821823969536433 -0.025679808625881144
-0.03566074066474363 -0.1846127619360304 -0.19000889272259097 -0.09464959756065336 -0.07430874554099275 -0.04960164168577045 0.01802408715602069 -0.20065107928535253
-0.11019539004946052 -0.08425344344925433 -0.057925382632482286 0.19598840808499138 -0.02175166489114786 -0.10397316052931259 0.0014919596794477443 -0.04174539389808669
0.1466800559560506 0.065614460622012 -0.06144190452917503 -0.05593465101266945 -0.07215800100835187 0.0352463118186182 0.10160411523607879 0.11545471893660483
-0.0674665052380391 -0.09818299686925783 -0.03871197814454844 0.10502115395237181 0.2526188003026442 0.17216414090298243 -0.165162583228509 -0.3922038974278366
-0.2504645099555765 0.1414487739491028 0.2529374441811933 0.19880010416686164 -0.2752277971400027 -0.2978473117926932 -0.05669355868134883 0.13995768394594255
0.09815663711374792 0.02181800051894489 -0.11473205350039305 -0.03479646224097246 -0.0052678410928773504 -0.017762081897504133 0.07853137870927997 -0.0779369298621813
0.028315619859618585 -0.0742044815004769 0.044014954620049 0.09705805703730973 0.0627128066759213 0.02120307732027349 -0.026546516108321223 -0.11935654178612037
0.0037348876927087746 0.11697813684470833 0.01119061115726513 -0.10910409440001737 -0.15625220476455134 -0.12498482372717874 0.13455689994589035 0.09557850475779221
-0.09194288719148595 -0.04502258434780649 0.02086792112496462 0.052214137267185025 0.02326695708667561 -0.03452492437162929 -0.046953403941229196 -0.05082405903859273
-0.09715206467310347 -0.05144776701347164 -0.016714106849471694 -0.08498031151326566 0.03203030943108087 -0.022101686326645772 -0.03264419034506771 -0.016275357134687366
-0.07175875788857375 0.010513934743529556 0.025082305040302677 0.03542980289770256 -0.05089498250455949 -0.08903076743526415 -0.07197495668796207 0.13751967957531694
0.06333517558442106 -0.0991682798335718 -0.03788069419362003 0.07141047024564484 0.011209232513367532 0.010127680175607308 -0.04859897010868039 -0.08038716582265085
0.004728415573193257 0.04861995509404992 0.06077743930674424 0.13581866597479483 0.05431213893914323 -0.08859379427564269 -0.005660752541522742 0.0315362259123646
0.06389021680910749 0.14748270420761986 0.04254887790052056 -0.09177476157684882 -0.11008896383372842 -0.027911034360225677 0.0491104373766622 0.20113481988555618
0.034975986212635535 -0.0613061505520081 -0.09852838577549897 -0.15157210971150384 0.06810728772126866 0.13237876409016955 -0.023012683888084817 0.003600399616702778
0.06955556907698272 0.10052999700935882 -0.10676808123712342 -0.14674387814439052 -0.06467225777612355 0.006752888564863217 0.19590660070702393 0.16960065916599656
-0.1395874036983984 -0.0554771481234 -0.1614342467037503 -0.1564196786357901 0.03180748675793843 0.11770617361440734 0.014904618127364586 -0.08213582972127227
-0.21477400547023687 -0.12411732366048878 -0.03869172345097988 0.041771664540330364 0.12239501751453025 0.003845886465126578 -0.12438649560861698 -0.013054579062571636
-0.06693342319617107 0.0008140031845525764 0.014708907923519657 0.16866305986784 0.09873528557525035 -0.001111049272678727 -0.09173037128687668 -0.19169395598336889
0.000617439173556849 0.08905121233766121 0.134085028025339 0.18337001857659452 0.04396340736362737 -0.13067485590993586 -0.13825902831655365 0.02856359802913861
0.03858615399040928 0.11033404434832618 0.0007840303406091519 -0.02202774256124581 -0.04849447022175297 -0.1532153662365739 0.07480043942170309 0.053002721630534586
-0.06445804142367156 -0.07075690732291263 -0.0036044952238036454 0.08060337158110942 -0.010298137125034535 -0.10762383229423031 -0.049863266479777936 0.10547347019327534
0.34443713854818825 0.17963930108030343 -0.0811458595485263 -0.10113008058229592 -0.022972355105064395 0.1074230666720701 0.2570781123527517 0.16625448598851653
-0.02864085069291091 -0.03113660095371392 -0.1376694445785625 0.08215396808290903 0.1465405344081603 -0.040104211576193274 -0.08408002689665182 -0.15127092686817079
-0.11147991914829206 0.0718097322156853 -0.0849421907276544 -0.06527551850671026 -0.08562323839543859 -0.15279306303978388 -0.09610398923720141 0.12201327565351328

conv2_bias f8 [20]
00000000: a780 c9ae 2001 8fbf 7ac7 8d57 2543 963f
00000010: 625e ce1b c943 a43f 2702 55b1 1949 bc3f
00000020: 3e6a e6a3 d914 99bf 98fc b854 4782 abbf
00000030: 00df ce66 eea9 9a3f a66a 93d4 eb5a 693f
00000040: b00f 0897 997e 9cbf 8188 7a28 3f03 b6bf
00000050: 54b6 8cfb dfa3 b0bf 62f2 ca12 874a b33f
00000060: d7f4 0733 dd7f ae3f bf44 3cc9 f2a6 b63f
00000070: 740e 90a1 9464 ad3f b088 6b64 0a16 ac3f
00000080: 6a85 6a53 a4da b5bf 5580 0b43 e2b0 aa3f
00000090: 89bf 0537 893b 9e3f 5046 bd5a 42db 803f
-0.015138869604186601 0.021740516156064406 0.03957966293745298 0.11049042300602051 -0.0244935995375306 -0.05372832211696127 0.026038861298473215 0.0030951124250411964
-0.02782669052432113 -0.08598704088447741 -0.06500053302144099 0.07535595139320031 0.059569275359516 0.08848493016218394 0.057407994005214485 0.05485565639334433
-0.08536746059919201 0.052130766567416366 0.029523986800483768 0.008230703729768113

fc1_weight f8 [50, 320]
00000000: a9e7 26b9 5033 a8bf 64c5 f78f aeb5 74bf
00000010: b5ca a80d c373 95bf 3224 236e 8188 b1bf
00000020: 97cb 628b f72b a33f 1d47 4300 5cff b63f
00000030: ff56 d459 fc18 c03f 8902 21c7 8a3f b93f
00000040: be19 2b20 637a a73f c46c 715e b955 ad3f
00000050: aac6 3b50 1ee9 ba3f 1bcb 5f36 5a50 c93f
00000060: b4ae 7dcb e1e4 703f 9a39 26e1 f7f2 c3bf
00000070: e75e 9d36 7756 8dbf adc7 98a7 6afa a7bf
00000080: d125 3c61 4378 7c3f c595 f6e0 348e 7ebf
00000090: bf6a 988c 009d 9a3f d6bd fb5e 9d5d a13f
000000a0: 2a78 209e ccf9 a2bf c895 6a9d f53a 9dbf
000000b0: 136a 4c7f a51b 903f 745b dc26 498c 7cbf
000000c0: d905 cfca 6228 95bf 0fb7 ee6d 9f5e bdbf
000000d0: 1593 7ccc 034a 8e3f c303 0707 a8a5 ab3f
000000e0: 842f e136 9371 aebf 87e0 7d3d 5e19 b6bf
000000f0: 5ee0 8cc3 9145 843f 202c 435d 6798 79bf
00000100: 1d87 dd9d 87cd b33f c848 6241 a4aa b23f
00000110: 52fe e825 508f a83f 9228 f322 c801 b0bf
00000120: dcd7 d531 8407 b43f f984 1756 8394 b63f
00000130: f4cd fd05 0e18 90bf 8cef f179 52d8 90bf
00000140: a058 7d34 5d62 bc3f 63d1 8656 13d4 c23f
00000150: cd6a 6bc4 e24a 973f d895 a857 afbf acbf
00000160: 126a 080e d04f bebf ee8d 3246 6963 b1bf
00000170: 6241 30e9 e6bf 963f f56b 2e69 3d22 aa3f
00000180: 16e8 268b 63da 90bf b339 3f58 d74c 9c3f
00000190: a20a 2a67 f147 1bbf 292a adbe 44d2 b73f
000001a0: 7108 0329 64cf 8bbf 43db bdc1 f722 adbf
000001b0: b572 0ea6 fd7f 9ebf 9461 6236 0ef2 aa3f
000001c0: c827 21da d168 7bbf 9dda 7b6f edf8 a3bf
000001d0: 15e8 5942 d962 c2bf 6962 28c2 aa47 b5bf
000001e0: 597a 1e5f b3a0 c53f 7f6a 8ca9 9647 b83f
000001f0: 0770 54dc 9ed2 c63f 5d1b e473 c39b 933f
00000200: 4538 440f 7261 97bf fa2d af54 e1f3 a83f
00000210: ced1 5d54 1a18 803f 5ed2 33d4 3977 833f
00000220: 9533 0bfa a7d4 863f be49 17c9 ffa4 aabf
00000230: 676b 507a 232f 933f 5e5d 4544 b37f 50bf
00000240: e5bc 079c 47cf a83f d05a 882f c1a8 943f
00000250: aba2 6781 2c88 70bf 327e 25d0 93c1 a9bf
00000260: ae54 72f5 9579 923f 0cd5 6d58 9f7c b0bf
00000270: 87c7 bd8c 0c2e 96bf ecfc f60a 0c80 a3bf
00000280: b710 9043 9aed bbbf 4d3a 6edb 692c b8bf
00000290: c374 1588 71d2 85bf 32a7 7c8a 534c bd3f
000002a0: b040 c023 8526 b1bf e56a 7068 3a5a c0bf
000002b0: 1480 1551 ae70 8fbf 4b63 5691 ae3f ba3f
000002c0: 8598 c4d3 1ec4 9cbf 5bb1 a5c9 ea90 85bf
000002d0: 61ba a7aa 4720 903f 81f8 849c 0ec1 b73f
000002e0: c85b 0abf 4781 b4bf 52cc 5d82 fd59 a13f
000002f0: 2697 b699 87a9 b63f a8c1 77c7 44fe 94bf
00000300: dbf4 42d8 b919 b4bf 39b9 c43a 22a8 b1bf
00000310: 4184 5dad 8346 80bf 312e e58c 7a0d c13f
00000320: 577c bf12 2a30 a3bf 3a56 0f61 0dfb bdbf
00000330: 2c0f c31d f6a6 b83f 6468 1ecf d5e4 b63f
00000340: c5c2 c024 50f5 5e3f 4506 af89 b4dd 81bf
00000350: 7b86 847d 0de3 b1bf 7820 7ede 7ba3 93bf
00000360: 0c38 61e3 e10b b3bf f252 225c 9f38 80bf
00000370: 0d41 a456 3b53 a4bf 907a cefe 54cf acbf
00000380: 7f16 233d 0599 a73f 9fb0 bec5 1c73 a53f
00000390: 2c7e 1918 d55d 863f 1420 c80a 87d1 7a3f
000003a0: a99f 4536 df0c aa3f 5784 d4b5 1867 abbf
000003b0: 9726 033f 0281 b3bf 10db 50ba b0a2 b4bf
000003c0: b19c 6193 2a83 713f ccdd 0384 e9a9 a93f
000003d0: 9b50 9ab1 fba5 b2bf 5fb4 35f0 0a84 b6bf
000003e0: 1bbe abf9 e743 b43f f899 3d32 070a 9e3f
000003f0: 06ff 7a1e 56b7 b13f 4dad a17d b985 a63f
00000400: 5795 151c 0046 70bf ee4d 813a 7ad8 ad3f
00000410: 3ca6 c4a8 26b4 b13f 0a7f 789d 9ba4 60bf
00000420: 390d bc24 c79e b43f bc8e 25f8 2a31 b23f
00000430: 5132 a317 56d1 a0bf a6d0 ff7f 5195 7dbf
00000440: 3c6a 7b60 56e3 8dbf 603d 358b 2b43 b33f
00000450: 751d 1b46 a17d 9e3f 4d72 c29f 5814 ab3f
00000460: a116 df8f 7c77 ae3f b51b edad 2ea4 aa3f
00000470: 5fda 1727 34a8 c2bf 012a 7252 6cdc a5bf
00000480: 5da4 adfd 27b3 83bf 2fdf a620 5adc 83bf
00000490: e94e 0a29 b271 af3f e2cf b544 4278 ae3f
000004a0: eca0 371c 3208 aa3f 37de df5d 7e8d 92bf
000004b0: d7a9 c69e 4926 be3f 0564 7d40 2765 b03f
000004c0: 970d 7fd0 6df9 97bf 5f62 3671 7d37 adbf
000004d0: 8754 8e0a 5a90 aa3f 6145 bccf f698 ac3f
000004e0: 8d76 0499 e983 b2bf 341b f187 42f6 b3bf
000004f0: 47b3 5fbb 5064 813f 8ebe d129 af71 89bf
00000500: b207 3c70 0ea1 b1bf b312 98dd 129e af3f
00000510: c269 e84c 1180 73bf ba56 9776 e96f a4bf
00000520: fac7 28d3 192f 993f 91a3 00c3 c6bb 903f
00000530: d689 4f43 e2d8 abbf b90a 0f8e 70fc ad3f
00000540: 3400 f5bd 20ae b53f d600 332d b9cd b3bf
00000550: f6a0 ea14 429f b4bf ffd5 8f3d 51b6 b6bf
00000560: fb9e bea6 193d b53f 5569 8dab 447e c1bf
00000570: 075e 456d a7c1 c3bf 3137 acf2 5655 a53f
00000580: 7921 64f9 5fbd 993f b533 f37f 49bd aabf
00000590: 4602 9290 37f1 b13f b0d5 ef49 c690 95bf
000005a0: a509 dc2d 3f96 9b3f c2af bedf 75fa 9c3f
000005b0: a00a 2647 447b a9bf 241d debf 2f65 733f
000005c0: 05d8 c27d ffff 75bf 04a6 42e7 0827 aabf
000005d0: 181b 8787 330e c13f e8b2 7fe7 5db5 a53f
000005e0: 25f6 87f7 1ecf c53f 0c60 500e f771 c23f
000005f0: f9e5 1849 3de4 c03f d899 9c8b a2c1 a3bf
00000600: 37af 5a4d 509b a7bf b94d 8375 a456 b6bf
00000610: 60da 35c9 85f4 903f 3c3e 62d3 f260 993f
00000620: 4c33 77b6 197a 48bf c98e c350 9e97 793f
00000630: 9ef1 8288 bc7c 9b3f e6a0 f600 bb5c 723f
00000640: d9ca 581c c60b b13f b436 ccb9 3f9e 8dbf
00000650: 295d 5751 d8c5 b33f d01d 419c 83e9 743f
00000660: 1ec9 c831 cb60 9dbf 030d 45cf 42e6 b53f
00000670: 36b7 8a5d b391 a73f a0c1 f7d2 d3c3 32bf
00000680: e908 551d 2e09 a03f a24a ffa9 4043 a4bf
00000690: 08ba 369c 61aa b3bf 9233 cd03 6c16 693f
000006a0: 81e6 40dd 642a 8c3f 7254 5599 21f3 be3f
000006b0: b7ba 7b6c ae93 93bf 00a4 0fca d6b6 a23f
000006c0: d121 264f 53ea 9abf d855 585b f096 993f
000006d0: 3085 cb31 b9c8 b43f 9010 12a9 c9f2 b13f
000006e0: b85a 18da 77f7 a53f 4062 83fe b7b0 b93f
000006f0: c9db d11d 5402 c83f 38d7 b283 3f56 b43f
00000700: 1b39 42af b6ac 8fbf 8410 a0cb 6fce bbbf
00000710: c8db 8b42 db0d c4bf d768 7568 9f3b 82bf
00000720: bc80 f080 7560 b7bf 773b 5ad8 4234 bb3f
00000730: 8a5b 6bad bd6d 93bf 2bc2 59c8 4190 78bf
00000740: eac5 f32c f500 a4bf 86c3 6cdc f74e bb3f
00000750: 40d0 3a11 cd97 ad3f 225d 5077 629a a1bf
00000760: 7475 7464 830f b43f 15ff 3f84 34a4 ad3f
00000770: 0e8b 138d 020e c83f 8501 6132 1d78 cb3f
00000780: a162 e561 0956 acbf 80fe 20d3 5295 a0bf
00000790: cb07 f742 9f87 b5bf 8218 077b 20d8 a2bf
000007a0: 16f1 558e 424f a2bf fd68 cae8 2b63 89bf
000007b0: 028a 4554 3121 913f 7b9f eeff 4887 b3bf
000007c0: 411a a69c 8f2d 7d3f d490 7e52 d987 89bf
000007d0: 58b6 89b6 8a9c 98bf 70fd 1deb 1dff aebf
000007e0: 352f a27f 5d8c 97bf 671d 1b6d db72 a2bf
000007f0: af7f b90a 5570 a13f 76bd 06fc aaad aa3f
-0.047266504861411214 -0.005056077846789495 -0.020949409207058085 -0.06848915995500773 0.03744481636513013 0.08983397489944563 0.12576250444606527 0.09862582551523692
0.045855615307619044 0.05729464795941788 0.10511960467172324 0.19776466040601623 0.0041245288956407895 -0.15585230344408957 -0.014325076441010732 -0.046832402189820634
0.006950629427373526 -0.007459837491670955 0.02598954065443126 0.03391734871354017 -0.03706206732043456 -0.028545224888736148 0.015730462927516408 -0.0069697244159873
-0.020661872509441046 -0.11472507890604454 0.014789609601913814 0.05399823270591455 -0.05946025891225218 -0.08632458688032517 0.009898318081113352 -0.006248859183140915
0.07735488514074658 0.07291628452574905 0.04796839201707982 -0.06252718785541081 0.07823969093973865 0.08820362903454172 -0.01571676169937848 -0.016450203602729682
0.11087591678128428 0.14709703183110454 0.02274660419321144 -0.05614993996668333 -0.11840534536933259 -0.06792314494901294 0.02221642301816596 0.05104247960044709
-0.01645808731857564 0.027636875878494126 -0.00010406886011974728 0.09305219321428439 -0.013579161168653738 -0.05690740814218611 -0.029785121212273242 0.05262798704024188
-0.006691760763780814 -0.039008540972578866 -0.14364162196926658 -0.0831248020189236 0.1689666952560909 0.0948423541962402 0.17830262907307334 0.019148878048351182
-0.022832662755768025 0.04873565825218047 0.007858472537670826 0.00950474909630222 0.011147796934347013 -0.05204009370540373 0.018734506931746078 -0.0010070086146550454
0.04845641879716726 0.020174997831498953 -0.0040361155028924385 -0.050305003317359 0.018041937929031242 -0.06440158757125775 -0.021660038080376445 -0.038086296404339
-0.10909427785378766 -0.09442769629661392 -0.010655295339058296 0.11444589739826652 -0.06699401972605545 -0.12775354480330417 -0.015351640557753433 0.10253420875814105
-0.028091890025415473 -0.010530313757691692 0.01574813822838406 0.09278956719660593 -0.08009766019891551 0.033889696277491624 0.08852431776776068 -0.020501207994983922
-0.07851754693816153 -0.0689717668035187 -0.00794699547594935 0.1332238376584072 -0.03747683981759369 -0.11711200351359077 0.09629762865648378 0.0894292479191861
0.001889541878892385 -0.008723650409481762 -0.06987079920193111 -0.019178328947902362 -0.07440006066573818 -0.007920498847207 -0.03969750816952642 -0.05626931772643673
0.04608932849218394 0.041893862856654744 0.01092115859790884 0.0065474772532141574 0.050879454970356015 -0.05352093906027083 -0.07618726766954818 -0.08060745762564303
0.004275480567321897 0.0501244519854783 -0.0728452023125236 -0.08795231213089626 0.07916116567115987 0.0293351292051742 0.06920374149467187 0.04398898752773537
-0.003973007610828936 0.058292216912970804 0.06915513630215114 -0.002031616149693498 0.08054775854912045 0.07106274183530109 -0.03284710920852219 -0.007222479209293342
-0.014593767947578155 0.07524368427879358 0.02977611532585685 0.05288960409345531 0.0595053601860347 0.05203386185762985 -0.14575817021223522 -0.04269732004566507
-0.009619057110926638 -0.009697631951766176 0.0614143061731321 0.05951125229594802 0.050843778557295355 -0.01811788032497771 0.11777172209136864 0.06404347729166211
-0.02341243348179275 -0.05706398016917968 0.051882566250392385 0.055854523523644735 -0.0723253248765678 -0.07797637766735194 0.008492117613025164 -0.012423866714214495
-0.06886377563571847 0.061752881574681416 -0.004760806636591787 -0.039916320539913966 0.024593738091603236 0.01634131016922741 -0.05438906737960607 0.05856658681979838
0.08468823087332639 -0.07735783914086211 -0.08055508623749916 -0.08871944191908908 0.08296356507218754 -0.13666590096074552 -0.15434735141273867 0.04166671478570406
0.025136470409991205 -0.05222539603128188 0.07008693007993214 -0.02106008363985773 0.026940333532374478 0.028299180775931417 -0.049768575368053236 0.004735170861642577
-0.005371091854774694 -0.05107906172754542 0.13324588887754696 0.04239934397614836 0.17038333021621202 0.14410293768810367 0.13196531361772637 -0.03858669237370166
-0.04610682434335305 -0.0872595583817234 0.016557779699235886 0.02478389182266326 -0.0007469773817604191 0.00624811021791389 0.026843019325257005 0.004482965930414395
0.06658590499936724 -0.014461992127987024 0.07723762498732313 0.005105508902551972 -0.0286895512710511 0.08554475364967477 0.04603348271244416 -0.0002863304279961069
0.03132003887232477 -0.0395755965725091 -0.07681856216252225 0.0030624494233166344 0.01375273513996267 0.12089738839616063 -0.01911804711465478 0.03655120102468601
-0.026284505563610786 0.024989848685512545 0.08118779626558559 0.07011089685153338 0.04290365731519813 0.10035276378347024 0.18757106262248005 0.07944104161546484
-0.015466143821211411 -0.10861872407264356 -0.15667286633808275 -0.008902783751797134 -0.0913155975144972 0.10626619131128999 -0.018973315915754387 -0.005996949160917124
-0.03906980680211432 0.10667370921579619 0.05779877505611397 -0.03438098627537502 0.0783617134333861 0.05789341081981384 0.18792755020611945 0.2146030899039141
-0.05534390754718755 -0.032389248154228945 -0.08410067925345215 -0.03680516721537776 -0.03576095569130382 -0.012396185914714137 0.016728182571919 -0.07628303764670179
0.007123528465291574 -0.012466142492322176 -0.024034659758788685 -0.06054013724405649 -0.022996388354427928 -0.03603254038676589 0.034060151633411244 0.05210623098843829

fc1_bias f8 [50]
00000000: 4587 0f67 5e34 92bf 7e83 4e33 9334 a43f
00000010: 7b65 809f 4f7b a6bf db08 91d6 553d 8c3f
00000020: 66af 480a 5476 943f 4f27 054a b048 a23f
00000030: 051b 4f55 9d72 753f 53df 16ed 7891 8d3f
00000040: 7e95 3b57 d09a 703f 94e8 4de4 588b a03f
00000050: 901e 8687 5a00 9bbf 9661 49a9 209e 98bf
00000060: 76a5 c082 e463 94bf b141 4f9d 9ef7 a1bf
00000070: f09c 00a4 5b9c 9d3f 4bb7 1bd3 f42b 73bf
00000080: 76d4 9bc6 e73e 6e3f 933a 3f6b d844 a3bf
00000090: 87c7 8d09 85ba 6b3f 97c5 6798 3751 793f
000000a0: 98c6 b203 6efe a23f a6bc 6c42 c172 923f
000000b0: 53fe 6431 3818 b33f 2268 b734 813c aa3f
000000c0: 6f5e 6fe2 8f61 a0bf cec0 f7ab 29b2 a0bf
000000d0: 5c2d 0909 30db 8ebf 0fa8 c1c4 4b68 96bf
000000e0: ca69 7b71 ab77 9f3f 85a8 f0bc b8e4 a1bf
000000f0: 8b6e 89d9 aadc 97bf 0368 7089 92d8 ad3f
00000100: 1f66 9fea 2c3c 933f 2e22 f61b 0353 a83f
00000110: d7cf 7e84 0c4d 74bf dfcc b9f9 876f a13f
00000120: 3569 615d 627d a13f 90ba 75dc ba62 b23f
00000130: 238c df0c aedb a7bf 5f8d 8c1e 8f4f 893f
00000140: a258 eb78 4cc3 a13f 30c4 90e8 e49c a03f
00000150: 0f6f 65fd ac3e 943f 5484 4076 e0c7 a63f
00000160: f97c a38d 1f8b 803f 3601 46b6 6f0c 913f
00000170: 7da4 77b9 2443 b0bf 47b6 b1b5 8208 55bf
00000180: 4cb1 0d48 6bfa 883f 3201 5739 0f54 a2bf
-0.017777895965884544 0.039463615429901275 -0.043909538479236475 0.013788862810660543 0.019982636573487332 0.03571082023206761 0.005236258109056595 0.014437622771637548
0.004053891974512223 0.03231313502233593 -0.026368536493036887 -0.0240407088589066 -0.019912310104847696 -0.035092312529403265 0.02891677082530192 -0.004680591913467878
0.0036921049949066266 -0.03763462361495331 0.0033848379502438605 0.006180970353385182 0.037097394896943914 0.018015880278821193 0.07458831029816197 0.05124286430846349
-0.03199433936214013 -0.032609274141465514 -0.015066504741432389 -0.021882232555448463 0.030729941178700128 -0.034948132575963554 -0.023302716758151248 0.05829294135783416
0.0187842386438658 0.047508332408203166 -0.004956292053908093 0.03405404017839841 0.03415973081492255 0.07181899912186851 -0.04659789950508066 0.0123587781141114
0.034693135986956905 0.032447007550566176 0.019770338979795684 0.04449368899828046 0.00807785655018599 0.016649003505791536 -0.06352452781688274 -0.0012837673628171163
0.012196386467359453 -0.0357975728506993

fc2_weight f8 [10, 50]
00000000: b650 5184 36fd d03f 5b55 c06b 300b d63f
00000010: 9071 baed 98c9 dc3f 54b3 e5ac 7245 a03f
00000020: ee10 63d0 cab2 d93f ccd5 6fa1 b4e5 d83f
00000030: 8693 a0fd 291b d93f ecb7 5d82 5ce5 a8bf
00000040: 997d dfd8 364a cd3f 577d a0f9 4a5c c8bf
00000050: a19c 45f8 92eb d53f 2b88 30fe a613 c4bf
00000060: d253 310b 96df d4bf 2fed ed9d d1f8 bebf
00000070: 3482 b64a f322 dcbf 7305 77ea 5468 c8bf
00000080: 5717 5e66 1dd9 d4bf 81e0 c28f 1df4 d8bf
00000090: 4f82 b538 a4aa d83f 7711 99f3 cdcd d33f
000000a0: da5c c00c 3c34 da3f 8556 fea6 25a8 debf
000000b0: 3579 eee8 c163 d33f 231c 3acb 6daf b2bf
000000c0: 3812 4cee fd17 d4bf 7aaa 0ed6 f576 d3bf
000000d0: 1ce5 68a5 e10a bfbf 39ac b686 c9bf d5bf
000000e0: 9da8 d823 8e4e c6bf 027c 0eec c683 d5bf
000000f0: d2ca 6f45 3477 d2bf 1208 945f 917f db3f
00000100: 3e89 8c12 47de cdbf d956 59cb 79e8 d43f
00000110: 2d4c bbc1 55d1 d3bf fcb4 5c21 9cca bdbf
00000120: b52c f4d1 efa3 c9bf 2ad9 702e 148d d43f
00000130: 4dbf 22b2 8e97 b4bf 02cb db80 1bf2 cfbf
00000140: 5fe7 f246 a231 d53f c54a 668f 2c7d 95bf
00000150: 0597 b310 42fe cfbf 36ee edb4 aaec da3f
00000160: b2ba 0d0c b737 92bf eac3 34b3 fa45 d0bf
00000170: b90a 20df 599a d5bf 5cd5 a8d8 0184 cabf
00000180: 2982 ecc5 64f3 cdbf 6a62 3e59 d085 c9bf
00000190: efb2 e911 8e31 ca3f eafc 3e71 bc9b d3bf
000001a0: 880c 9663 07f1 c1bf 34cc 9b8b 20e7 c9bf
000001b0: 8092 f6e1 87c2 d6bf 531e 43eb 6872 d1bf
000001c0: a994 c8a2 9c8b d63f 5893 f8af d962 b2bf
000001d0: 025c 9e1f 7de5 d6bf 10ae 2897 e2a1 c1bf
000001e0: 8059 c445 5979 d1bf 7681 84c3 a843 d9bf
000001f0: a36c ff1a 127f d23f 7a3c 2466 c672 cabf
00000200: e5dd 04f9 b6de d5bf 7be9 a41c fc96 d0bf
00000210: c297 1021 9669 d63f 1a65 7379 7ef9 d83f
00000220: 7395 2dd3 84ed d43f 90e9 cc2a 34fe c6bf
00000230: abb9 f43b 25cf cebf b1f7 e1de 5ac4 cd3f
00000240: 064e 6fd6 86e7 89bf b108 c2a7 bc87 c1bf
00000250: d499 0e73 de67 c8bf 7be7 43e5 06d6 d83f
00000260: 5d2b 1517 a54b bfbf cca1 50ca c9b6 db3f
00000270: 2fc8 de1b 0584 da3f 2873 4af6 e5e6 d23f
00000280: 336e aac2 c5a4 cabf 0656 d9d1 e606 d7bf
00000290: f9f3 e210 de09 d93f 71d5 e59f 99aa d63f
000002a0: 82d0 d007 7869 d73f 57ca b9d5 3af8 da3f
000002b0: 0c9e 6980 0a12 cabf 374f dca6 4262 dcbf
000002c0: ecea ff87 fc31 d2bf a881 0932 4f22 b93f
000002d0: 6e72 9ca5 feb7 c9bf 7990 56ec d811 d73f
000002e0: 781f 11d1 f8a7 d23f aee7 d712 b99e d0bf
000002f0: 1f2e fdfb 59a5 e53f 51dc 96f8 cd8b d2bf
00000300: 99fe 5b3c 157f cbbf 3146 8b99 ba5f c2bf
00000310: 3c00 fdeb 3600 c2bf 414e 9036 69ee d0bf
00000320: 7ece 7d24 572a c73f e095 7b51 0c73 dbbf
00000330: 144c d538 683f dc3f 8b5e 3a15 0d1b c2bf
00000340: 0b70 2f06 95c5 d3bf 9b67 02a5 7724 d3bf
00000350: 490e 2754 f7a2 b5bf 4a65 9e1f 24e0 ea3f
00000360: db70 e85b 5876 bcbf d8f4 f89a 99af bdbf
00000370: 6740 19ca f35d d43f d526 4057 90e4 dbbf
00000380: a698 e37b 8afa d73f ceb8 a414 e961 8ebf
00000390: 739e a7fd bf5f e0bf c540 d591 925b 95bf
000003a0: 541a 4127 67a8 d83f de75 be53 658e d13f
000003b0: 434c f511 7ce7 d53f 5d13 d005 2436 d43f
000003c0: ec01 d420 ae08 d33f d403 aa4f cddb cf3f
000003d0: 2401 fae3 324f be3f b6ba ec4a f05e c8bf
000003e0: 0555 3985 17a0 d33f 34f6 22e3 396e ccbf
000003f0: 1b86 1e18 12f2 56bf 21c9 1802 5591 d0bf
00000400: fb85 cd2d 1df1 b23f d06d 4bae e3da d3bf
00000410: c517 7e3c 9c51 db3f a30c 8131 c065 c7bf
00000420: 2531 8a92 0dca cbbf b64d c5c2 f2ed c03f
00000430: 5878 cfe7 3a3a d7bf 4184 22ad 511b d3bf
00000440: 364b f014 00da c6bf 9a08 19f9 d56e c4bf
00000450: ecae 43f0 ccfc c0bf 3eae 620c d59c cf3f
00000460: c2db bb37 a0e9 d63f f35f 4981 f3d0 c1bf
00000470: 7132 551d 0b7f d43f 36ce 435f 68c0 da3f
00000480: e8c5 8cd0 427f cabf 9668 a09a c4b5 d33f
00000490: b1e5 e6ab 534e d93f de2d 35c8 e21a ccbf
000004a0: cde7 0120 6b51 d63f cc64 d673 2361 c6bf
000004b0: f318 6116 c5b0 ca3f 2d56 cf39 5c50 cc3f
000004c0: c15c 7b69 da17 d0bf ff0f 99bd e30b df3f
000004d0: d2bc 52b4 e3bd d93f 65c6 c13f 6159 d8bf
000004e0: 7211 ed11 0dbb d9bf dc47 8a48 60f7 c5bf
000004f0: 9b70 31e3 73ab cfbf 157c 157c 0920 c1bf
00000500: ee65 0939 a1dc d3bf babd 1b90 59e3 d93f
00000510: 5635 0444 0fad aa3f 4d99 4271 f2ed da3f
00000520: 9664 d777 31f3 d83f 3cea 85b4 9b12 d43f
00000530: 433a 3a2a 6fa0 d8bf 223c 8939 bb62 d43f
00000540: b419 5c40 a6b1 dfbf b0f4 dcf6 0077 d73f
00000550: abf9 5749 9a99 d7bf efdb 0476 0fd3 d33f
00000560: e560 f3b2 3b59 d03f a504 0b01 2a1a a4bf
00000570: 2b76 b43b 5f3b d73f e695 710c b1a9 ab3f
00000580: 3cd2 6e6a 9392 b1bf 6dd6 6b98 673e b5bf
00000590: 4557 1e01 32df d3bf a563 5619 d5ab c8bf
000005a0: c734 fb15 22e3 b1bf 7f53 94e5 7ee7 d1bf
000005b0: bdc0 88c5 73e4 d4bf 51fe aff9 81e4 debf
000005c0: 8a5f 9158 ad59 d5bf 13c2 ba3e 833f c0bf
000005d0: 399f 3cc3 8b42 d3bf 99af 1b8e 99ad e1bf
000005e0: 45bb 10bc 2548 bebf 3981 28cc 446d d13f
000005f0: da0a c481 12d8 d73f 7797 e853 f49e d73f
00000600: d522 7d55 49b9 d63f 70a5 15f7 ebdb d8bf
00000610: d874 c7b3 def9 c5bf e51f f8d6 d000 cebf
00000620: 1ae6 4995 790d d93f 991b 522f 6fe5 babf
00000630: 9f7c 584f a825 d7bf 2245 7e13 f138 c7bf
00000640: e148 2d6e 1295 dcbf 442b 01da c355 dabf
00000650: 7785 a9e4 3f56 c7bf 3972 29a8 bd14 d5bf
00000660: a30b 3365 a99b c63f 645d d6f8 243c d93f
00000670: 1fc0 083e 1e8f d93f e30c b630 f1a6 c2bf
00000680: be48 7f0f f65e d43f 101a 0f2b 1699 b6bf
00000690: dd72 b9f4 c530 c43f e394 fa10 4e8b d2bf
000006a0: 4ac1 1a3e 51c5 cfbf 740f d25b 45ba 903f
000006b0: 6943 2503 92e5 783f 3165 0ad0 bab6 d33f
000006c0: 4bd8 b7b6 1588 b6bf 0634 07d5 b8ba d53f
000006d0: c13b 27ad 88b1 893f b07c efd9 9ac0 d3bf
000006e0: 43e0 255d 7fa1 d33f 69a3 fe21 6237 91bf
000006f0: db95 497a f241 e0bf a91f e667 2e45 df3f
00000700: 8dbf 888e 8b4e d43f 514c 1f49 8517 d4bf
00000710: 8865 36e7 e19e 58bf de00 5bd2 2ef9 babf
00000720: 5439 51b7 2b7f db3f 0856 38df 04f3 d53f
00000730: 30da 8f8a 01b1 d1bf 4a54 48e9 f620 cfbf
00000740: a971 8074 2e98 da3f 034c 09d1 c47e d0bf
00000750: 5cb1 f413 bafc da3f bd24 d1dd 0168 d23f
00000760: bb2b 1e3b 8eb2 a6bf 5d1b cebf 7334 a7bf
00000770: 5e32 ea4b de27 d3bf af58 6f1a 442a d43f
00000780: 23c4 1616 c890 c2bf cefb 58f5 1521 d4bf
00000790: 4e10 2dcb 8b2f dbbf 818d ef0f f6d3 cabf
000007a0: ce4f 1f93 418b b9bf 4497 9d09 8817 db3f
000007b0: c176 6298 57be d5bf 2a8e df99 c408 d1bf
000007c0: ed1e 54c1 88fc d63f 7e82 0b21 c614 e03f
000007d0: f2ae 0cfd 396e d13f 2903 99b5 f14c da3f
000007e0: 4e36 8a05 e783 bbbf 241d d70a b34b d93f
000007f0: 677c d907 992e c3bf 23f7 3bc0 7cfd c5bf
0.2654548923649246 0.34443293116176726 0.4498045274320015 0.031779845815299496 0.4015376124409745 0.3890201164752767 0.3922829605892776 -0.04862488833792597
0.22882733907225086 -0.1903165549165162 0.3425033020525437 -0.15684974109268643 -0.3261466130546157 -0.120984173829062 -0.43963320060905464 -0.19068395088656195
-0.32575163838224824 -0.3898996261518804 0.3854151300238628 0.3094363097082104 0.4094381451154284 -0.4790128832622503 0.3029637121889153 -0.07298933230968933
-0.31396435042578075 -0.30413576034576517 -0.12125978744815707 -0.339830762439934 -0.17427231550511105 -0.3361680321922337 -0.2885256460278188 0.42966112455189986
-0.23334587484084496 0.32668919428156823 -0.3096517936621151 -0.1163728314829377 -0.20031545402193776 0.3211107686542102 -0.08043758248345263 -0.24957603256151378
0.33115441254232353 -0.02098531365624969 -0.2499468404341131 0.42069499653709685 -0.017790660963721457 -0.25427119732472525 -0.3375458411175419 -0.20715354041173384
-0.23399028457881002 -0.19939617498018275 0.20463729738857903 -0.30638037738022084 -0.14016811716655675 -0.20236594025445387 -0.3556232172652827 -0.2726080224497071
0.3522712316210553 -0.07182083650748206 -0.35775688255074567 -0.13775284176641422 -0.2730315381353634 -0.39475459187999407 0.2890057815217892 -0.2066276549089457
-0.3417184287859228 -0.25921538159641216 0.35019448498712447 0.39022790775705263 0.3269969999585875 -0.1796326836573141 -0.240696577334757 0.23255477793639792
-0.012648633402853281 -0.13695486251169123 -0.19066982858676218 0.3880631674688783 -0.12224799932043369 0.43303150899239706 0.4143078586740811 0.2953429131683145
-0.20815345769084245 -0.3597962426477753 0.391227261057622 0.35416260352152223 0.3658123089146629 0.4214007460751978 -0.20367556829590716 -0.44349733633974914
-0.2843009307977542 0.09817976924524052 -0.20092757307510872 0.3604643161763828 0.2915021936100781 -0.25968767967389794 0.6764345094356407 -0.28978299404429203
-0.21481576392396987 -0.14354641434924667 -0.14063154719224424 -0.2645514519547057 0.18097962648208815 -0.428896979878429 0.44137006330601136 -0.14145053421519935
-0.3089344559100488 -0.2991007911128862 -0.08451791576867963 0.839860975032175 -0.11118080371710752 -0.1159606936789318 0.31823439346499643 -0.4358254291588371
0.37466680620708315 -0.014835186903465216 -0.5116882280535279 -0.02085713400930513 0.38527849992207064 0.2743161504566539 0.3422537017224309 0.3158044869199353
0.2974047966563649 0.24889532461023 0.1183959776481101 -0.1903972974627856 0.30664623270179475 -0.22211383429196163 -0.0014004875851941826 -0.2588703651882885
0.07399160736306236 -0.310234947404493 0.42685609729266744 -0.18279268662636125 -0.21710366873993184 0.1322616053608791 -0.3629290832303744 -0.29854242236803336
-0.1785278417815676 -0.1596324411676207 -0.1327148602643925 0.2469736395336088 0.35800939028507284 -0.1391891843111349 0.3202541147664198 0.41799363425454616
-0.20700869734859784 0.30796923732999326 0.3954056910257249 -0.21957049155967828 0.3487193882534683 -0.17483943134428725 0.20851958840120907 0.22120240042447517
-0.251455882081654 0.48510068431301073 0.40221493348776705 -0.3804553148866943 -0.402041690355211 -0.1716118196678157 -0.24741982072271615 -0.13379019316468602
-0.3103411728858124 0.4045013339336624 0.05210159020689768 0.42077313480912865 0.3898433370901072 0.313635755817504 -0.3847921287896591 0.3185260831714364
-0.49521786008008495 0.3666384135029359 -0.36875016367403174 0.3097571041611777 0.2554463622632411 -0.039262116076778576 0.362998779588312 0.05402901913548046
-0.06864281986674653 -0.08298346968862243 -0.3104977618144072 -0.1927439092367226 -0.06987202679302405 -0.2797543756471938 -0.326443617729648 -0.4826970041612855
-0.33359845780568576 -0.12693825304951697 -0.3009366423234386 -0.5524413848447579 -0.11828838197173493 0.27229423463178964 0.372563006138234 0.369076806966738
0.3550589880801856 -0.38842295770026336 -0.17168792513158482 -0.23439989563507804 0.3914474447152273 -0.10506338982859943 -0.36167342899893556 -0.18142522289103008
-0.44659863242590175 -0.4114846829367489 -0.18231962838312274 -0.32939092084942306 0.17662541810395024 0.3942959241917008 0.3993602376749567 -0.14571967009042117
0.31829597009085464 -0.08827341605420025 0.1577384419387248 -0.2897524991806916 -0.24820914776274555 0.016335567216187966 0.006078310356614527 0.3080279380461262
-0.08801398955242339 0.33952160647896823 0.012545650276391986 -0.3086306694294292 0.3067320260665875 -0.016812833142157233 -0.5080501926828974 0.4885974897992989
0.31729401511528793 -0.3139355863651803 -0.001502724274223462 -0.10536472926742443 0.4296368875701735 0.34295770453294994 -0.276428590120676 -0.24319349661587558
0.4155384195053338 -0.257737354409244 0.42167522381602907 0.28759810125172774 -0.04433102103856564 -0.045322053111752615 -0.29930837071950644 0.31507971364534176
-0.14504338339386988 -0.3145193954441624 -0.4247769817486685 -0.20959354189026771 -0.09978113023618038 0.42331124247572327 -0.3397425640231227 -0.26616015459714737
0.3591634643530444 0.5025358815583585 0.27235269271726203 0.41094629987860515 -0.10748142132998703 0.3952453237402145 -0.1498595512702849 -0.17179831873357285
