trained_models/mnist_mnist_lenet_51_epochs.model (torch_old, 200038 bytes, 8 tensors)

conv1_weight f8 [10, 1, 5, 5]
0	0x3fda213b7066bb90	0.4082783315342846
1	0x3fe522d80926c154	0.6605034044969593
2	0x3fc9ec0590a0ccae	0.20251531183166577
3	0x3fcd5b378f643acc	0.2293462228921811
4	0x3fb8d77a49898422	0.09703792853680729
5	0x3fe33f17cd510d9d	0.6014517793741337
6	0x3ff0d57b70151a81	1.0521196726055282
7	0x3fe71fdad3790b5b	0.7226385240868284
8	0x3fbf0fc1f3f8e328	0.12133419233658727
9	0x3fbe3bac3e107d80	0.11809803500408655
10	0x3fe1c35c4787af33	0.555097713191094
11	0x3fe99f509f6c6f3d	0.8006976236097
12	0x3fe837a7abc3af74	0.7567938189290389
13	0x3fc57c14450bb89c	0.16784909602524045
14	0xbfbe0369d02a80f9	-0.11723958332231978
15	0x3fd202faea3853aa	0.2814318930916736
16	0x3fd64e412c59430e	0.3485262806980679
17	0x3fd67f64af3f94f4	0.35152546991442013
18	0xbfb83789632c6791	-0.09459742232539116
19	0x3f8bfe8949054dd7	0.013669083157458779
20	0xbfc4f215887c09f8	-0.16363782085689116
21	0xbfd10dd0b1f01d1c	-0.2664682138133274
22	0xbfdf7c11300f1cc0	-0.49194745724930655
23	0xbfe1f1d07d852b4e	-0.5607683612409831
24	0xbfd0a06ac0f1cdb0	-0.259791077062995
25	0xbfc3b51b558257ac	-0.15396444010974386
26	0xbfbb59215b14ba99	-0.10682877038628148
27	0xbfd20908f7d713e4	-0.28180145457400685
28	0xbfb9f43a8087ef38	-0.10138288152660102
29	0x3fd8d22518881075	0.38782622714666753
30	0xbfcd5945f897f908	-0.22928690565454013
31	0xbfa57161f6ab4407	-0.041880666123354664
32	0x3fd065cf6dfa1f99	0.2562140058512284
33	0x3fdbd80f6b6134b1	0.43506227003383474
34	0x3fd6deca710053d8	0.35734807048112094
35	0x3fd18f4246e50f6b	0.2743688289958672
36	0x3fd79b9a1a37dbce	0.368872190097531
37	0x3fd3764dc89a0e54	0.3040956934930581
38	0x3fccfb47ef132308	0.22641848729679048
39	0x3fdced6fc0091e4c	0.45199197534063695
40	0x3fdd092073aaa60a	0.4536820535236933
41	0x3fd5d2d55206f0ee	0.34099324236355144
42	0x3f525139d3c29381	0.0011179985731726019
43	0x3fc8aede3807dabc	0.1928365491473495
44	0x3fd1be62b6a13ffa	0.2772452147955843
45	0x3fbb5a2b797349d6	0.10684463229271243
46	0xbfc8dad73137ba63	-0.19417848494727527
47	0xbfd5c6add4deef71	-0.34025140560310435
48	0x3faafc4cb183e7bd	0.05270614306387198
49	0xbf95a4bbe3d64e9e	-0.02113622263057257
50	0xbf85dab3b1dd2d68	-0.01067104708240292
51	0xbfdefff195f06d44	-0.48437156336304477
52	0xbfe6d7d89b516017	-0.7138484033157536
53	0xbfe3de9aed21ba64	-0.6209234839896678
54	0xbfd4788f46759873	-0.3198583782272017
55	0xbfbad1814992cf57	-0.10475929304339836
56	0x3faf8821a60dcaaf	0.06158547546410397
57	0x3fb57a8cbb4cd8d9	0.08390121052511591
58	0x3fd0fa6f7789253e	0.265285364851099
59	0x3fd759a6db6f82ca	0.36484691075569897
60	0x3fdd781a83926abd	0.46045554016897566
61	0x3fe900ba60adcf07	0.7813388717899848
62	0x3fe508327d06f697	0.6572506372392181
63	0x3fe403f747ca85d5	0.6254841234369289
64	0x3fc031540b2c28b3	0.12650538011104615
65	0xbfb36e5671dd27dc	-0.07590236930732835
66	0xbfa05aa56f16ad86	-0.031941575823419874
67	0x3fd20d6ad56a52c0	0.28206892815914486
68	0x3fa152bda488de07	0.033834387144846594
69	0xbfc752067f2eee5e	-0.182190715886338
70	0xbfc74c8a2ccc65f7	-0.182023307680353
71	0xbfdd1e8996b9fcbb	-0.4549888584078407
72	0xbfdc32f02b7169f0	-0.44060901873095215
73	0xbfdab7dc478aa8c8	-0.41747195230949474
74	0xbf7333eac09a81b2	-0.004688183785816967
75	0xbfd2d5230bbfbda5	-0.29425884387361584
76	0xbfd8862a0ca10904	-0.38318873627953587
77	0xbfdd5f385f6c21e8	-0.4589367801532078
78	0xbfd976ef46012402	-0.3978841956746352
79	0xbfa699086ea9ba40	-0.0441362986647289
80	0xbfd381f39331dd50	-0.30480660795679615
81	0xbfced0bccf32b6e8	-0.24074516408057112
82	0xbfd6606712006055	-0.34963394887882276
83	0xbfa57e8216a81eea	-0.04198080565043745
84	0x3fbbaba6ebf02ff2	0.10808795223437054
85	0xbfdac57084bf7b40	-0.41830075229329466
86	0xbfd8bb3ce72a89fd	-0.38642809462376687
87	0xbfbc62fae99cb97e	-0.110885316881399
88	0x3fceac133defd6e6	0.2396263172556054
89	0x3fdd0c15b335a19d	0.45386259556701153
90	0xbfd7026949ed4418	-0.35952217311302226
91	0xbfb8c94b566e65f3	-0.09682150707376262
92	0x3fd39df31a4c6b67	0.3065154797383713
93	0x3fcd8528a44f12d6	0.23062618277449215
94	0x3fd2d8fefdf1cd1e	0.29449438857337096
95	0xbfd48b7b9f31b748	-0.3210133604651344
96	0xbfc074f571a914e0	-0.12856929826572294
97	0x3fd2777525ae70df	0.28854111366105245
98	0x3fe0515a36806f8e	0.5099307121740695
99	0x3fdc9b722cfb2981	0.44698767082868335
100	0xbfbda528f48d5505	-0.11580139132032137
101	0x3fbaf96f803876e5	0.10536858444580906
102	0x3fba8f192a73f8a6	0.10374600683641919
103	0xbfc8c668ad652ec7	-0.1935549589783163
104	0xbfca57a7a3ff2fd4	-0.20580001361520195
105	0x3fc93dab0ff78f13	0.19719446448936448
106	0x3fded0de6bc9a36a	0.481498341809632
107	0x3fd7ef95f7518d24	0.3739981570453941
108	0x3fd4c4dceec8f959	0.3245155650983143
109	0x3fb9df8a865be76a	0.10106721668480892
110	0x3f84e654ddea9548	0.010204947492932562
111	0x3fb0375826850fad	0.06334448757576068
112	0x3fdc02b71ef1a23d	0.43766572973121126
113	0x3fe0897ff8339e8d	0.5167846534431689
114	0x3fcace40a9225fb8	0.20941932924756457
115	0xbfd55a28e837788a	-0.33362791707430317
116	0xbfd6bd9a62277e25	-0.35532245240571775
117	0xbfcea7a64c0edb21	-0.23949125970622112
118	0xbfc27eb86ca84804	-0.1444921999505483
119	0xbf79cd6a35afec5f	-0.0062994145218865085
120	0xbfd39ed3018b3313	-0.30656886244541787
121	0xbfde90c428560bf3	-0.4775858301074429
122	0xbfdff7b55391a8f9	-0.49949391518624925
123	0xbfd17f27bef8fe1c	-0.273385941025454
124	0xbfa3986db7f27e04	-0.03827231283616686
125	0xbfd62e227ced8c38	-0.3465658397673823
126	0xbfd2f7d14affb301	-0.29637558292488114
127	0xbfdc506b73df89c1	-0.4424084312032868
128	0xbfcc8f6c5bf5eff2	-0.22312693109768095
129	0x3fd3a241b25f0162	0.3067783586411875
130	0xbfdfc03a5aa0df12	-0.49610766268186623
131	0xbfdb94cd79a0114b	-0.4309571922060697
132	0xbfceb904d6de2f5c	-0.24002132884595084
133	0x3f90eecf80f6d2f0	0.016535989996287748
134	0x3fdd2342edd72751	0.45527718760114505
135	0xbfe2553dcc869cb8	-0.5729054445881934
136	0xbfd4c0bf3b7af8c8	-0.3242643433440091
137	0xbfd16ee7c6ca1ea9	-0.27239412701644966
138	0x3fdc7b619400fc4d	0.4450305886602493
139	0x3fe2a5cd8d14433c	0.5827396159603278
140	0xbfd0147e6d2e0d61	-0.2512508455476646
141	0xbfd2b09b3067574b	-0.29202918745919665
142	0x3fc9229a293cd723	0.1963684750896216
143	0x3fe132861681c932	0.5374174537267093
144	0x3fe118caae440ccf	0.5342763332013422
145	0xbfd89d3405bb6797	-0.3845949226357503
146	0xbfbfbb13560b63d6	-0.12394829607673272
147	0x3fd58f54a5e910d4	0.33687320902050755
148	0x3fe5085c06592aa8	0.6572704433431982
149	0x3fe5379ce9872a46	0.6630386887639552
150	0x3fdcf7b2ca5a1388	0.4526183105556858
151	0x3fe3d0f20e2ad4e2	0.619256045980958
152	0x3fe537ae1b5c3731	0.6630468878154031
153	0x3fd09311c5a4ad36	0.2589764051542319
154	0xbfc358b6717cf4d7	-0.15114479581271809
155	0x3fc167852fef40b6	0.13597168770366402
156	0x3fe2c30b61a3aaf9	0.5863091380136601
157	0x3fecc72fe8c76833	0.8993148371184873
158	0x3fe14950be9e8f21	0.5401996348414039
159	0xbfa6c232bf2a18d7	-0.04445036490965187
160	0xbfd54d039da92930	-0.33282556912003525
161	0x3f6cb92ca09b256d	0.0035062667492168826
162	0x3fdfcbf81f12d73c	0.4968242934659093
163	0x3fe392f9746f9557	0.6116912149561057
164	0x3fdb5e26aa42c14b	0.427621523161197
165	0xbfe3939695a809ec	-0.6117661402680006
166	0xbfe01e7993dad803	-0.5037200820722777
167	0xbfa805e1169ef35f	-0.04691985512861296
168	0x3fdfdebe3c15ace1	0.4979701601757381
169	0x3fda840d49edfe9c	0.41430980891889546
170	0xbfe6901bfa4fc9e4	-0.7050914658450975
171	0xbfe38eedec7ae069	-0.6111974352597943
172	0xbfdcaf16ad5950fc	-0.4481865589962266
173	0x3fc777a12271a152	0.1833383005316685
174	0x3fd4fcd7c34d8c0d	0.3279323012595235
175	0xbfbac8eff2ca346c	-0.10462855985152125
176	0xbfc2a298a0d8f0e9	-0.14558704236868117
177	0xbfb21fa4bd1995be	-0.07079534165094167
178	0xbfccd0fac502634a	-0.22512755031200476
179	0xbfdc3cebbe5e6e57	-0.4412183150359161
180	0x3fbc7c969454e655	0.11127606507661743
181	0x3fc79741518e0b86	0.18430344087763845
182	0x3fd2b09cb50583cd	0.29202954938778874
183	0xbfaf0514c319a27e	-0.06058564073174909
184	0xbfdb081818b6da63	-0.42236902631285583
185	0x3fa259351b3e0855	0.035836848807790624
186	0x3fce8ab792484975	0.23860830919927492
187	0x3fdafffa3e7c77f9	0.4218736276833393
188	0x3fd750f096968b18	0.36431517320504403
189	0xbfcd9eb7e1eae94e	-0.2314061978448287
190	0xbfd38138d29d4ea4	-0.3047620827467006
191	0x3fb09106b0f28640	0.0647129232406991
192	0x3fd7cd0bb48961ce	0.37188999777347653
193	0x3fd03ba3b580dcba	0.25364010548532756
194	0x3fd64ddc5f9a532f	0.3485022481557278
195	0xbfda0877cccdb0d1	-0.4067668437990167
196	0xbfd1faf5781dafda	-0.2809423134810892
197	0xbfa8b9d7a6760199	-0.04829286486620105
198	0x3fbcf20f412dd96d	0.11306853619848818
199	0x3fcfd0119dd865ff	0.2485372563103709
200	0xbfd387aa3fd052f4	-0.3051553366833979
201	0x3fc2dfe51bb01309	0.14745773174231427
202	0x3fd91fa5bdd9fe0a	0.3925566057223199
203	0x3fdb074af0396446	0.4223201127948112
204	0xbf9937b7b357c394	-0.02462660820123437
205	0xbfd28eca905eceb5	-0.28996528719583675
206	0x3fa45d912c45e6ed	0.0397763601822144
207	0x3fca743b316474e0	0.20667209541071596
208	0x3fe02dfb4610597a	0.5056129806933278
209	0x3fd547d75e04d9f8	0.3325098436502283
210	0xbfb4a31bbbd91825	-0.08061383567937293
211	0x3fb04d84e9ef9748	0.06368284903836952
212	0x3fa2f6029149b33e	0.037033157573068895
213	0x3fe483c1435c2676	0.6410833659767394
214	0x3fdb2a9193b1d2eb	0.42447318480780777
215	0xbfd5e18f34c3ebcc	-0.34189205315459215
216	0x3fb20d0560fd3963	0.0705111848630842
217	0x3fb057009590980a	0.06382754947171079
218	0x3fda824f51470be4	0.41420348107584304
219	0x3fb3424f8debabbd	0.0752305718885244
220	0xbfcd7c2b5dcc3f14	-0.23035184936497244
221	0x3fb5c75633c5c88f	0.085072887077134
222	0x3fc303e3f28f0588	0.14855622619328934
223	0x3fdcaf97d26c1767	0.4482173495201693
224	0x3fa8277486d37682	0.04717601915193105
225	0xbfa916f40506ddfa	-0.0490032440315495
226	0xbfb5c3fc579f6b16	-0.085021754638927
227	0xbfd83a4f2717c4e8	-0.37855891053830115
228	0xbfd838003a1c956e	-0.37841802287069626
229	0xbfbb9260a647e073	-0.10770229396428181
230	0x3fc6ff637c740e9e	0.17966884209464679
231	0x3fd224a22421eb70	0.2834859230858262
232	0x3fc0f9141bf686f7	0.13260127416020115
233	0x3fccc4d712e2d62f	0.22475708410427006
234	0x3fd56247ca6eb157	0.3341235615614741
235	0x3fba05e81fad9803	0.10165262959853298
236	0x3fd174abfd751475	0.272746083752572
237	0x3fed4ca0d05f9785	0.915604025821026
238	0x3fecac54e04f651b	0.8960365658814767
239	0x3fda730bd9ba849c	0.41327186834866736
240	0x3fdd4ab6247b254d	0.45768502771951064
241	0x3fe8383f8d241b8c	0.7568662411366502
242	0x3ff1d3c403ab9c69	1.114200605714155
243	0x3febee25b36ef734	0.8728207115707165
244	0x3fdc10fbd7065ab4	0.4385366058208249
245	0x3fcc6d80c6a073c9	0.2220917672974834
246	0x3fc767b88e4bad11	0.18285281131770906
247	0x3fd9202edd55b080	0.3925892983886641
248	0x3f51d942fafed463	0.0010893968683210124
249	0x3fb379525522f82d	0.07606997087984331

conv1_bias f8 [10]
0	0xbf6671bfa3fb9e5a	-0.002739786432232977
1	0xbf77bd4927fcbf85	-0.00579575134888433
2	0x3fbd521d25e9f912	0.11453420806535444
3	0x3fcf67a76d76cfaa	0.2453507694714266
4	0x3fd1714a1a2e2741	0.2725396400133953
5	0xbf6a9e432fa44c24	-0.0032492935398607137
6	0xbfaa22f0e3607497	-0.05104782844157645
7	0x3fbf1d9820f8c8f0	0.12154532246566752
8	0xbfc318ffdf33f7ce	-0.14920042418083174
9	0xbf45f6387c450d28	-0.0006702209289319071

conv2_weight f8 [20, 10, 5, 5]
0	0x3fb86f680c15bd34	0.09544992728273344
1	0xbfa8b8003c0306da	-0.04827881558004572
2	0xbfd2c4c7797f8584	-0.2932604490761934
3	0xbfcc997a207b1363	-0.22343374811148484
4	0xbfc039dd7e2e223c	-0.12676590596335469
5	0xbfab7e5ece1121d8	-0.05369850411858906
6	0x3fa9b4426fb15fd3	0.05020339597166381
7	0x3fca8f79793f6227	0.20750349445622016
8	0x3fba61939daae87c	0.10305140113169559
9	0x3fbe438f1e5c81c5	0.11821836940044424
10	0x3fbd965aed8bf517	0.11557548808555783
11	0x3fcb3b7deed3961a	0.21275304948282853
12	0x3fc4ba54e9417210	0.16193639172969698
13	0x3fa703c6c8caa4d1	0.04495068741864262
14	0xbfb609928c662d1b	-0.08608356406891852
15	0xbfc7580dbd89fcbf	-0.18237468485674488
16	0xbfd30b354e37818d	-0.29755909574853306
17	0xbfd8c3c515a29ce9	-0.38694884407818947
18	0xbfc9f9891fa80579	-0.20292772336692247
19	0xbf9120d6ca34ced8	-0.016726833430950133
20	0xbf998f8987e30840	-0.024961613577723307
21	0x3f86bb4bc8f54a61	0.011099426336533104
22	0x3fae5503fa9414ee	0.059242367113293656
23	0xbf8d5e080b6f4ac1	-0.014339506958923722
24	0x3fb319afe0dba17b	0.0746107028932154
25	0x3f8e602cbef0fc69	0.014831876351420985
26	0xbfc561912c432a51	-0.16704001103637947
27	0xbfb631499e2f97e8	-0.08668956863365873
28	0xbf9647947c9bb971	-0.021757431130873642
29	0x3fa5d0bb320d9c4d	0.04260811792374195
30	0x3fbea185c9f709ff	0.1196521394804577
31	0x3fc81c8176acd092	0.1883699254482321
32	0x3fcfc25666bdd77a	0.24811820999792272
33	0x3fc95263834e592b	0.19782680427005891
34	0x3fb0bc49bea5265c	0.0653730478708438
35	0xbfba34a9e9d93bc2	-0.10236608466332967
36	0xbfaf742c84526ae2	-0.061433211472111685
37	0xbf920f6afa478eca	-0.017636939550256504
38	0x3f95bb536feb6755	0.021222404199625917
39	0xbfb0c90f76277480	-0.06556793818113427
40	0xbfc9a306e6c70737	-0.20028768795423854
41	0xbfc82a410201a188	-0.1887894878193601
42	0xbfb0115d4e7b09e1	-0.06276496091871976
43	0x3fb4ada8842d7a47	0.0807748148631414
44	0x3fb0ae37ee59ef60	0.0651583630478263
45	0xbf8ab3ce032ad27e	-0.01303826281705622
46	0x3fb5aaf8c7f67712	0.0846400726499861
47	0x3fb26c401fe383cd	0.07196427134068913
48	0x3fae87d4ed061990	0.05963006394727011
49	0xbf9740483767b0e0	-0.022706154233603892
50	0xbfa7d2b1771bc5e8	-0.04652933672867815
51	0xbfc0299d907816f9	-0.1262700038352518
52	0x3f9747d9d7253393	0.02273502708094417
53	0x3fad90b85a8178c1	0.05774475197607521
54	0xbf80f94b9dabbcb2	-0.00828799319194071
55	0x3fc3c9d7fb7ce3f2	0.15459728030853587
56	0x3fd06f808c5366cb	0.25680555061044846
57	0x3fd8b8433e081251	0.38624650056616355
58	0x3fc643bab952ec99	0.17394193696040786
59	0x3fa10a68240612de	0.033282522580554405
60	0x3f92f792e6957d33	0.018522544215895564
61	0x3fca642b7f690586	0.2061819431419673
62	0x3fc4a18dcfe1ced9	0.1611802353905805
63	0x3fb1b4691982fdec	0.06915909645885393
64	0xbfb221e78890ec63	-0.0708298405087802
65	0xbf9f7682c9793c0a	-0.030725520655604334
66	0xbfa7076d68550a6c	-0.04497854136072452
67	0x3fb77c22a403885b	0.09173790458911084
68	0x3fb9b8631d3fb62d	0.10046977485736681
69	0xbf9b6120c6cf18ce	-0.02673770154412907
70	0x3fb1bd6999bdc48b	0.06929645541619515
71	0x3fc402b961c6b093	0.1563331344053763
72	0x3fb4aa5a96f24919	0.08072439370360875
73	0xbfb74bc819e20365	-0.09100008613496653
74	0xbfbe509ae8c18084	-0.1184174364329938
75	0xbfb19ef41dfab5b3	-0.06883168918530806
76	0xbfa3f0b599e8e155	-0.03894584182529807
77	0x3fb06a7708e57b73	0.06412452666471129
78	0x3f94e0492b3bd685	0.02038683248880215
79	0x3fa551ac7b318280	0.04163874629808095
80	0xbfc1676d3867914e	-0.13596883062485648
81	0xbf9a849c582f5d35	-0.025896494753252248
82	0xbfa646c5615a55a7	-0.043508690008063504
83	0xbfa92258d8555ea9	-0.04909017220296381
84	0xbfc3e366abd298ce	-0.15537722959306283
85	0xbfc74ec12ff1e752	-0.18209090081273388
86	0xbfc72e6a4eed0dd2	-0.18110398153122148
87	0xbfc3ba1b4f8854a2	-0.15411702521729348
88	0xbfc19459769a620a	-0.1373397664181229
89	0xbfafb8a6b0d475a2	-0.061955651364978395
90	0x3f9bc3c90ca8b808	0.027114049337051
91	0x3fa55fd5e5ddfc71	0.04174679213519362
92	0x3f9c8f28fccbbc2d	0.02788986247008667
93	0x3f751771f30ba52f	0.005149312128858426
94	0xbfaa3b59dbdafaf1	-0.05123406227857242
95	0x3fb5517cf19611a3	0.08327465913868663
96	0x3fc23af2f628e7ec	0.14242398280640545
97	0x3fbd645ae189310f	0.11481254583594967
98	0x3fb3f175f8e553db	0.07790314985807305
99	0x3f89826a78d0cc9f	0.012455779850006286
100	0xbfb1e81ea24cfe3e	-0.06994811499043238
101	0xbfb488580ef918d7	-0.08020544400742168
102	0xbfb86e309d35873e	-0.09543136442291897
103	0xbfbc8b5cdf41cede	-0.11150150728809247
104	0x3f7adb1ab6743ebc	0.006556610437897067
105	0xbf799bb8ea270300	-0.006252024004823609
106	0x3facc2215dac9947	0.05616859692081504
107	0x3fc55851c20557c3	0.16675779317546188
108	0x3fc2797ccbe61ab7	0.144332503852828
109	0x3fae91f8aeaa8df4	0.059707423516808605
110	0x3fbdf99ebbba01b7	0.11709014971893948
111	0x3fcd49d757a11818	0.2288159540059389
112	0x3fc59796b9bcc0d4	0.1686886221809859
113	0x3fb3c3b8a63c2738	0.07720521982642203
114	0xbfbbdf19b163b4cb	-0.10887299137876309
115	0xbfa1cbcf82768eb2	-0.034758076358483506
116	0xbf8d86ebdedce0c0	-0.014417498339398427
117	0xbfaa27d0e686ebdc	-0.051085022106654526
118	0xbfb5d80e3349fad9	-0.08532799484417398
119	0xbfbb5b9611224d44	-0.10686624449072207
120	0x3fa8ed0e4bdcb911	0.048683592567941976
121	0x3f9ea40bc17d7789	0.029922660526942067
122	0x3f9cdb161891ccd0	0.028179497956853095
123	0xbf42068d665615d1	-0.0005500975063774065
124	0x3f96d7238c286b2a	0.022305064611013815
125	0xbfa09b46f1df0f57	-0.03243467047243936
126	0x3f8765c44b2a68b5	0.01142457346331969
127	0xbf8852ca58b64405	-0.011876660187029495
128	0x3f9e4009ad8bc53a	0.029541159837156196
129	0xbf5fcf87a77a0eda	-0.001941568827448606
130	0xbfb252ad37198ad3	-0.07157404513558711
131	0xbf3833c67c8a4e1d	-0.00036929698811968994
132	0xbfb271cd97761529	-0.0720489973810642
133	0xbfa8c9e90b85fe28	-0.04841545358339899
134	0xbfc6455850977dcc	-0.1739912408365697
135	0xbfd1259188221b93	-0.267917998259173
136	0xbfd089ec16543a17	-0.25841810398643034
137	0xbfcb9c06f4808583	-0.2156990712983707
138	0xbfc62bb0ec5949a9	-0.17320834675281319
139	0xbfa77d299e86036a	-0.045876789666187204
140	0xbfa6801030c1757b	-0.04394579501306858
141	0xbfae828f528ae636	-0.0595898426303844
142	0x3fa4b147eae9cdd5	0.04041504614442785
143	0x3f92685df3efb5a4	0.017976253522581268
144	0x3fab5f5ddcfb023e	0.053461964821967176
145	0x3fc4b91f20f5e3ed	0.16189946278953418
146	0x3fb6895542556add	0.0880330359408776
147	0x3fbf5c04a5b2e796	0.12249783559209812
148	0xbf946745b015779f	-0.019925202247911163
149	0xbfb363e9ff717569	-0.07574331747442432
150	0xbfb05b7030a64b62	-0.06389523685201717
151	0xbfac133ddf62cf79	-0.05483430244330995
152	0xbfcf8746c19aed1c	-0.24631580785158114
153	0xbfd3805d341491e7	-0.3047097214314633
154	0xbfc678f88c0491a6	-0.17556673847969967
155	0xbfbf820adbd851cc	-0.12307803981122517
156	0xbfae8dd285bab315	-0.05967576868474659
157	0x3fa35eb2eebb0df7	0.037831870691231666
158	0x3fc41916a7c785d1	0.1570156401858598
159	0x3fc47264f753abbc	0.1597410400057394
160	0x3fbbfee7fec5073c	0.10935831041299776
161	0x3fcacfe6c73d6a82	0.209469649586783
162	0x3fd826a45d9b942b	0.3773585237634644
163	0x3fd1efbf7c081e74	0.28025805580589425
164	0x3fac019f3939cb54	0.05469987462574602
165	0xbfc072ea7b7d7155	-0.12850695638452217
166	0xbfcf22a5dcd2dc8a	-0.24324487001806389
167	0xbfc52786d8ff25ab	-0.1652687606386228
168	0xbfbddf68f4b06258	-0.11669021581509165
169	0xbfc2dc3b71f29e7c	-0.1473459535966305
170	0x3fb04433e4475c9e	0.06354069064342346
171	0xbfbdce0e09e0d3c2	-0.11642539731185678
172	0xbfa6b39690742abc	-0.04433889878608485
173	0xbfb3765ce4ea4866	-0.07602482403516006
174	0x3f9e71878f58681c	0.029729955791573656
175	0xbfb9be38a2252999	-0.10055879553434578
176	0xbfb3408aa65420e2	-0.07520357666738023
177	0xbfba401d8efb496e	-0.10254082432519393
178	0xbfa4bcf4ea6e1378	-0.0405041252297797
179	0x3f9381ec44473d5b	0.01905030409562634
180	0x3fbb07d1603803a8	0.10558804129688204
181	0x3fb1cf0aca55f5b7	0.06956546249235528
182	0x3fa6a2cab258cd11	0.04421075274549414
183	0x3fb5dc20aa8e7174	0.08539013065314355
184	0xbfa018a1b33b04a6	-0.03143792450783538
185	0x3f878bf21a37fe81	0.011497394013530783
186	0xbfa8d4b329c42b27	-0.04849777111856773
187	0x3fae6a2c1065123a	0.05940377903110457
188	0xbf94a85a2c140849	-0.02017346281082436
189	0xbfb00e7dbecef1b0	-0.06272111805350877
190	0x3f9b0a058d5801f9	0.026405417205753044
191	0x3f676b956d9a65d5	0.0028589170950225986
192	0xbfc2beb2632a74ca	-0.14644460527498487
193	0xbfae472b51c3162a	-0.059136728029937594
194	0xbf8ff2f9422fbbf3	-0.015600154239988817
195	0x3fafbd59253c8df9	0.0619914873080027
196	0x3f862a19c3a2de8b	0.010822488100856084
197	0xbfb134203ffdb8c3	-0.06720162927897193
198	0xbfb9f852ddb56aa2	-0.1014453688889412
199	0xbfa9353bb37caf25	-0.04923426214221952
200	0xbfb5de4b7632f566	-0.08542319904059567
201	0xbfc08647b0c95e27	-0.12909790165098053
202	0xbfc11c9ea029cc72	-0.13368590183708623
203	0xbfb5170c5826d966	-0.0823829379286046
204	0xbfb105bda3260ea3	-0.06649384720918276
205	0x3f96eb5a7f5b0492	0.02238217737499732
206	0xbf68203b9c254ccb	-0.0029450573212358214
207	0xbf939d3e72ead0a1	-0.019154525531761227
208	0x3fa7bf79e9105dfc	0.046382722568690554
209	0x3fa685c9084e3e83	0.04398945070636009
210	0x3f752f60e7ad6f37	0.00517213681709077
211	0xbf9f05e5d6160e7b	-0.030295935813696034
212	0xbfa0397b5352d051	-0.031688550874065975
213	0x3f723ac61294f431	0.0044505822382321794
214	0xbfb11f348b0f67ec	-0.06688240427993691
215	0xbfc3111477cba74a	-0.14895873879805271
216	0xbfc9ca2b62c603ad	-0.20148222277569286
217	0xbfbf7604fede8c43	-0.12289458486934372
218	0xbfb17e8993e67831	-0.06833705769392463
219	0x3f94b87bd80ba33f	0.020234999715202703
220	0x3fa2cee55f6c3fce	0.03673474111394591
221	0x3fa35d9c2c9f3e04	0.03782356304838788
222	0x3fa5140b42224e8c	0.04116854841518344
223	0x3fb487f57b919c00	0.0801995684320076
224	0xbfac41c782aa89bc	-0.055189356518229954
225	0xbfc1d5a3f709f3ac	-0.13933229029126204
226	0xbfd198694761582c	-0.2749274441788454
227	0xbfaaa391ebab3981	-0.05202919008080454
228	0x3fc01593df9178fc	0.12565849701326914
229	0x3fc94c0f0f5c1195	0.19763363122923452
230	0x3fd09f8a485713d9	0.2597375589796776
231	0x3fdaca354f7aa445	0.4185918117678436
232	0x3fd6ee2fbf7a44c1	0.35828775118814
233	0x3fc91394660e496f	0.19591002448266745
234	0xbf9937926894adf1	-0.024626052506546207
235	0xbfcb9620f0f4fae2	-0.21551906362034062
236	0xbfcd14a201dd7c30	-0.22719216433594758
237	0xbfc61ca9212d5ded	-0.17274965400677847
238	0xbfbbd2e6e4a0f0f0	-0.10868685800318523
239	0xbf9b07fded18b8af	-0.026397674175478055
240	0xbfc68d9f3cbf456b	-0.17619696108026103
241	0xbfc2eb3d96dc1356	-0.14780397287554575
242	0xbf731bbdb8905060	-0.004665127847165079
243	0xbf77b7440fec26e1	-0.005790010326345047
244	0x3fb08d62a9e8362f	0.06465737007257454
245	0x3fbc2a21ea203db6	0.11001789060559627
246	0x3fcc98bff8d3a26c	0.2234115567182643
247	0x3fb7655be3c6ff3f	0.09139036475152994
248	0xbf947bc3691a0f4e	-0.02000336960783438
249	0xbfc584741a52f1c2	-0.16810466084815628
250	0xbf95e219e3d87ee8	-0.021370319873425553
251	0xbf816b5fe69d94ce	-0.008505582070663566
252	0xbfb5671d653b988c	-0.08360465737823314
253	0xbf8452824f1bbe74	-0.009922998465724954
254	0x3fb796a3a44ecc9e	0.09214232217236648
255	0x3fbb70dfa43da9eb	0.10719106445109332

conv2_bias f8 [20]
0	0x3f9325aea014c870	0.0186984334188271
1	0x3fab4715b2a109fd	0.05327670865564824
2	0x3fa8280c63316fcb	0.04718054495671672
3	0x3fb71c1779bd8172	0.0902723953454421
4	0xbf9fc4b3d492d75a	-0.03102379784532814
5	0xbfa84cf154914fc0	-0.0474620261890375
6	0x3f99fd7d732f613f	0.025381050258006296
7	0xbfb99ab2fca61614	-0.10001677196677178
8	0xbfb04fc57febc51b	-0.06371721623488151
9	0x3f90083fab40ba0a	0.01565646631950738
10	0xbfa13e3ad91dc520	-0.03367790127129866
11	0xbfa9a981b1b109a6	-0.050121357861388646
12	0xbf9cb3c9424ceafa	-0.02802957980314156
13	0x3fbb996fc1a60957	0.1078100059294561
14	0xbf957e76eff26cf9	-0.0209902366592418
15	0x3fa65f73a46c6b0b	0.043696988888958975
16	0xbf851c76e0e28ec3	-0.010308197725243834
17	0xbfb1a6ef887ed710	-0.06895348627480424
18	0xbf8ec2e280befd8e	-0.015020150712983928
19	0xbfac6bcb251084e6	-0.05550989940116739

fc1_weight f8 [50, 320]
0	0xbfad9f701735dfb3	-0.05785703929262755
1	0x3fc0eb7c42329860	0.13218644363695642
2	0x3fc1446f5c0c38ca	0.13490097040670995
3	0x3f859559e3d4cd2a	0.010538770928724423
4	0x3fa8e3327430ec57	0.04860837620113816
5	0x3fa91a3edb2db189	0.049028362517535014
6	0x3fc42ffdde9ea786	0.15771458978752778
7	0x3fa9a1dec87ed36f	0.05006309697583943
8	0xbf7d983d98546440	-0.007225266080490178
9	0x3fa776dc5b061257	0.04582871066216814
10	0x3fa1a12007cfd419	0.03443241210326437
11	0xbfb8d08141d6438a	-0.09693153245303968
12	0x3fbf179fda08f842	0.12145423005219505
13	0x3fb44729ff21aae5	0.07921087721630789
14	0xbf94d3536907fedb	-0.020337394033048333
15	0xbfc044baf2d5bac7	-0.12709748131915985
16	0xbf9137283a625a7f	-0.01681197029446446
17	0xbf95beadee62a179	-0.02123519675720462
18	0x3f967e7bb1a94ac0	0.021966870039544117
19	0x3fba1141c3ab97a7	0.10182581927401078
20	0xbfaa155c2a4fd852	-0.05094421402456874
21	0x3fab2cc7a65cec20	0.05307601838872977
22	0x3f75200438c3352a	0.005157486430289718
23	0xbf907598045e5afb	-0.016073584810864166
24	0x3f8c6db9f698e533	0.01388116153531147
25	0x3fa554a8ab3dfef9	0.041661520865998676
26	0xbfa4cfb5c3dd57dd	-0.04064720168996392
27	0x3f9fc91381eab03f	0.031040482334603544
28	0x3f95ec57a845f107	0.021409387250501257
29	0x3faf1f48f2b12cad	0.06078556025075819
30	0x3fb0b86832488d6f	0.06531382777807491
31	0x3f8dfc041b8fd3bc	0.014640838709945807
32	0xbf8b5d0cd1a13af7	-0.013361072680849058
33	0x3f8ecfc14944f8d9	0.015044698761468233
34	0xbfa2d882de2f9a56	-0.03680809938650913
35	0x3f9a041fa1ca1d0b	0.025406355142448194
36	0xbf8e99ce252595b8	-0.014941797741537907
37	0x3f95a6ab94379d7f	0.02114360897203715
38	0x3fa2081a07696fa6	0.03521806087948613
39	0x3f6674096017b97e	0.0027408774483241296
40	0x3faba3e593bdeca6	0.05398480823984046
41	0xbf7e68b8ae65cf8f	-0.007424088870141689
42	0x3f9422d0eb4d921b	0.019664062844997426
43	0xbf8d637c1fff1c67	-0.014349908567863957
44	0xbf8f31acf57b9953	-0.015231467477360516
45	0x3fac548a58ed0900	0.05533249221345393
46	0x3fae384ca5110d1b	0.05902328028653355
47	0x3f955da00c46a97d	0.020864964246052765
48	0x3fb516a999c550ae	0.08237705234688761
49	0x3f151175c26da102	8.036881682261038e-05
50	0xbfa3cdfb2bea8d50	-0.0386808863743463
51	0x3fa542a912bb9d2c	0.04152420381233876
52	0x3fbb6ba75c96c2b4	0.10711141596290014
53	0x3fa4006d0150735b	0.03906574860614028
54	0xbfae78c0d0f33b58	-0.0595150237146444
55	0x3fa35ec53564fdfe	0.03783241535938585
56	0x3fd3d3cd5c93bb6c	0.309802379996589
57	0x3fc3694cd77243a7	0.15165100593415312
58	0x3fbfc3a82d213c4e	0.1240792379551163
59	0xbfb3c273305e74e4	-0.07718582087405285
60	0x3fb692280d77dd7e	0.08816767052473115
61	0xbfa213059a980a60	-0.03530137550480528
62	0xbfb9be55d0a31030	-0.10056053489375993
63	0xbfc085bdd79f91ea	-0.12908146885378297
64	0xbfb793d67455674a	-0.0920995744721981
65	0xbfb8c015ea688b59	-0.09668099377499341
66	0xbfa4d6598cc47fbf	-0.040697859223882464
67	0x3f9cc9b9b31e82c3	0.02811327129132014
68	0x3f50d4c1cec3f8e3	0.001027287736234999
69	0x3f92da33c25938d2	0.018410500275700077
70	0x3fa62b39adbf3d74	0.04329853292403643
71	0xbf78c8240e88b5c4	-0.006050244185229873
72	0xbf7ac1ba8927c344	-0.0065324102929345575
73	0x3f960594a67a8adf	0.021505663548519457
74	0xbf78f6b61df97fee	-0.006094657320858217
75	0x3f7aa57eaa99c066	0.00650548438134999
76	0xbfbf2fd5e5b80370	-0.12182366236085129
77	0x3fae12ec0f7609b0	0.05873811424955322
78	0xbf98ceadf10f0bb3	-0.024225919569072562
79	0x3fa0f59bd89428dc	0.033123846233211046
80	0xbfc2ec2766f491b7	-0.14783184554211257
81	0xbf9156aa4aa7202f	-0.0169321640076136
82	0xbfb46ed41bc3f8bc	-0.07981610944622991
83	0xbf7da7e0718a4b41	-0.0072401778530942216
84	0xbfb6be5dcd83ebd0	-0.08884226100410264
85	0x3fc4801c98a44ded	0.16015965893949105
86	0x3fa4810ba118eeaa	0.04004703847428222
87	0xbfc051543b5d6504	-0.127481965052347
88	0xbfa6a7629023e842	-0.04424579629444782
89	0xbfb4ecd55c177859	-0.08173879144985231
90	0x3fa5be800c33f560	0.042469026078814975
91	0xbfa3437f0a4b0fb7	-0.03762433052682417
92	0xbfc3de153064cb2b	-0.1552149282739149
93	0x3fa1c993672caa71	0.03474102625326204
94	0x3fc4106a7081521a	0.15675096982398956
95	0x3fb24ad748a0c34a	0.07145448229927101
96	0x3fb06530d18f1b0c	0.06404404751002007
97	0xbf963afa721b08aa	-0.02170935937352484
98	0x3f990de631fba512	0.0244670837409205
99	0x3fb76834d3b17938	0.09143381279270535
100	0xbfcec697e93f3b62	-0.24043558968557038
101	0xbfd26d5668cbe9fa	-0.2879234336284352
102	0xbfa3ec92a19a81c0	-0.03891428206157199
103	0x3fb2bab7020647cd	0.07316154288699224
104	0x3fb118100455a31f	0.06677341562102555
105	0x3fc11490ca8342dc	0.13344011200253802
106	0xbf69f5357eddbc17	-0.003168682559525414
107	0x3faa1a15895ec6e9	0.05098025609858132
108	0x3fc002caaba70ce8	0.12508519536468232
109	0xbf94b7b5758aa2bc	-0.020232043551603893
110	0xbfc66395cb7929db	-0.1749140971681545
111	0xbfcf0ceebaca7be9	-0.24258216972972882
112	0xbfa25299cca85f1f	-0.035786443932179994
113	0xbfb05185104b1968	-0.06374389312541029
114	0xbfaf82e969fd78e1	-0.06154565256905343
115	0xbfb84e682628adca	-0.09494639331449331
116	0xbfa1966e817e00d6	-0.03435082751002631
117	0x3fc3679a6296f3b6	0.15159921468685206
118	0x3fb4d749ea7cd592	0.08141004538341282
119	0xbfb80ca71aefd5e9	-0.09394306571615342
120	0xbfa5bc23e7c8b6c5	-0.042451021236372045
121	0xbfc85e5f38503616	-0.19038000344919287
122	0xbf9043d221228c75	-0.01588371588935585
123	0xbf9adf7309e07c36	-0.02624301669868264
124	0x3fb94095214cb6d2	0.09864170134525388
125	0x3fc2c54e0cd96da2	0.1466462671986451
126	0x3fb2477cd2dcdbad	0.0714033140946941
127	0xbfa9bd42a99e34c6	-0.05027206726581705
128	0x3fb8af0a3b0ddaed	0.09642089788199444
129	0x3f8d0d5e35d800cd	0.0141856537038624
130	0x3f9680cd9e499886	0.02197572020158891
131	0xbfa548baa6f89fe4	-0.0415705040762189
132	0xbf9d034a067d2281	-0.02833285965542354
133	0xbf838b30fcdd1876	-0.009542830197130519
134	0x3fa41ab3d5166d0a	0.03926622368018158
135	0x3faf4d41dbdec912	0.061136301126128015
136	0xbfaa8672bb83b11b	-0.051807008161491384
137	0xbfac02e716736e42	-0.05470964573916294
138	0x3fa1a184c009512a	0.03443541378206512
139	0xbf908065cf4eee61	-0.016114798334213257
140	0xbfc30bdf1d032c25	-0.1487997905408928
141	0xbfc6d6915739950c	-0.1784230876830083
142	0xbfbf70797201243e	-0.12280997308074945
143	0xbfb2123f3fd13263	-0.0705909281543398
144	0xbfab4e9f79312d8c	-0.05333422045131461
145	0xbfc79f451648355b	-0.18454803073874868
146	0xbfc2ff702c041835	-0.1484203543588493
147	0xbfb4b65d0f61c3bf	-0.08090764642271518
148	0x3f8adcae5df497fe	0.013116228334705934
149	0xbfb086154c270b45	-0.06454594716255453
150	0xbfb07cd834812081	-0.06440497667165525
151	0xbfa8ded95cb8377d	-0.04857520348387732
152	0xbf916950b38ae71b	-0.017003308256540266
153	0xbfa0a8e4e24f826f	-0.032538559556773865
154	0xbfb59f9f15ea5e29	-0.08446687970205659
155	0xbfb67884e7baa1d6	-0.08777647645423
156	0xbfa59de1acd301f8	-0.042220165583334024
157	0xbfb2fc35b390fd80	-0.07416091569847616
158	0xbf854e531821965b	-0.010403298543859288
159	0x3fbe732fa12af55d	0.11894509968529605
160	0x3fa2a619c85cf175	0.03642349787557723
161	0x3fc0a52bcfbfb725	0.13004062313069045
162	0x3fb844e1e4682787	0.0948010618814391
163	0x3facc7f6e3f257a0	0.05621310741950869
164	0xbfab2a398b066313	-0.05305652448732281
165	0x3f761147a0e05cbc	0.005387573050050051
166	0x3fa7c4f2f4bf06cb	0.04642447698235016
167	0x3fb5869c4e28d64c	0.08408524425689129
168	0x3fc27b4e889a5173	0.14438802404459813
169	0x3fc9499e61ee59e5	0.1975591638735771
170	0x3f9ca108ec3c58b0	0.027958049219784342
171	0xbfac3db861f7a232	-0.055158388098622516
172	0x3fc3c081bcd18c7b	0.15431234092384102
173	0xbfb6c4cbc0d809ec	-0.08894036729910909
174	0xbfb00f19489050d1	-0.06273038884711758
175	0xbfce3bafad03ba23	-0.23619647930122864
176	0xbfa6f68e1480ffdf	-0.04484981537143517
177	0xbfa202ebcc0d0653	-0.03517853608947221
178	0xbfa7a3676cd996dc	-0.046168548619602595
179	0x3f992ccedf19fa0c	0.024584991805108244
180	0xbfa048bf1ab00314	-0.03180501175666542
181	0xbf74cab238837810	-0.005076118635967589
182	0xbf93b147a1511856	-0.019230956288332678
183	0x3fa3a74772f12af3	0.03838561323262537
184	0xbfadd3f931790e8d	-0.05825785378376933
185	0x3f5d1b9ab64dde31	0.0017766009197809458
186	0xbf9cc51c0be037a0	-0.02809566328510693
187	0x3f9dc03e4baab35e	0.029053662651381422
188	0xbfb7c7580a84854a	-0.09288549668101101
189	0xbfbc8544873b22fe	-0.11140850354707862
190	0xbfae199c688c15e4	-0.058789146196470715
191	0xbfaf7acbef549fa5	-0.06148373886600148
192	0x3f914a6d3ed8f00c	0.016885477982427274
193	0xbf69efd5d9de2a92	-0.003166120221924481
194	0xbf98ba69a961164b	-0.024148608172501345
195	0xbfba3bfa1be002bc	-0.10247767620604525
196	0xbf7d00ff8156c7a0	-0.007081029956156032
197	0xbfa7c4f356669ce1	-0.04642448835084579
198	0xbfa393b9108697f0	-0.03823641134958666
199	0xbfa8a62f58bc4d25	-0.04814289053151758
200	0x3fb3ff73d39e671d	0.07811664501641898
201	0xbfa742ff70fd9a9d	-0.045433027785113135
202	0x3fc16cf6c58e7c52	0.13613781591718294
203	0x3fbe0113a25904ad	0.11720392907683914
204	0x3fcfeccdedda2346	0.24941419710037332
205	0x3fc2a63a0e0f8a75	0.1456978386550706
206	0x3f9f2ac32aa3f8e7	0.030436562993593787
207	0xbf6b80f998b29129	-0.003357398503412896
208	0xbfbd335ca867d2b1	-0.11406497107948145
209	0xbf94adf670a0f322	-0.020194864868460567
210	0x3f855d70cb48526c	0.010432130054178056
211	0x3fc41fd9d32cf747	0.1572220116740317
212	0x3fac303577db56ef	0.05505530441375394
213	0x3fc27a475e13eed0	0.14435665219922678
214	0xbfc2e5957292a10a	-0.14763134092687152
215	0xbf9de7148f296dd7	-0.02920181392469864
216	0x3fa81490ed39e225	0.047031907041802413
217	0xbfa8057945deeee2	-0.04691676118770062
218	0x3fa0145d8a050d3e	0.03140537557421873
219	0xbf8ad92e08a1bce7	-0.013109550131245885
220	0x3fbee31d301bbb54	0.12065298485297876
221	0x3fc663843a3833e1	0.1749120029711824
222	0x3fc3359474b8b020	0.15007262896813334
223	0x3fb0d6632338602a	0.06577128991955364
224	0xbfa3e58316056eec	-0.03886041301549689
225	0x3f86cd9ac48ffedf	0.011134347079859662
226	0x3fb3f862dc4a9d07	0.07800882223329007
227	0x3f84b333bae2b523	0.010107425823970012
228	0xbfb48c98fcb57c01	-0.08027034921313715
229	0x3f8d20830f01a3ff	0.01422216786905217
230	0x3fbabaa95d34aecd	0.10441072965175664
231	0x3fb603036e635526	0.08598348088283511
232	0xbfa038a320dec442	-0.03168210769889203
233	0x3f7309a1a39132cb	0.004647857095801465
234	0x3fbd291e11ee7b19	0.11390865266592377
235	0xbfb5a4a8a1d7abfb	-0.08454374266845825
236	0xbfcd05ca6338f945	-0.22673921437121627
237	0xbfc20c69cc7280e2	-0.141003823116086
238	0xbfa8cfa2f90a8e93	-0.04845914163641143
239	0xbfb3e297a3dbc8f5	-0.07767627478077428
240	0x3f819fa5048caaa9	0.008605279160822947
241	0x3f8771b32c2035cf	0.011447334083665077
242	0x3fa398c650cbfe9b	0.03827495323457449
243	0x3fc51607c1785858	0.16473481127531175
244	0x3fb2e64a9022d850	0.07382646578739238
245	0x3fb51fb54edb65fd	0.08251507926197373
246	0x3fbf370ac5c6fa1b	0.12193362549349056
247	0x3f977a61188e8371	0.02292777740842972
248	0xbf7fb7c92783328c	-0.00774363113323474
249	0xbf8623a80a20528c	-0.010810196694401662
250	0xbf8da518dd6eb7e6	-0.014475054032882139
251	0xbfb38c0e469f6bb5	-0.07635583137691422
252	0x3f9e9ab911dcf2d5	0.029887096133495234
253	0x3f7d6a27b25174b7	0.007181315483731846
254	0xbfa1d51ca320741a	-0.034829039490638716
255	0xbfc32c099317f7e5	-0.14978141481691334

fc1_bias f8 [50]
0	0xbf903b4d93795637	-0.015851223112198744
1	0x3faee8291b773b7d	0.06036499462390219
2	0xbf6b3ea7e9002756	-0.0033257750983510066
3	0xbfa1a821ccb860c5	-0.034485870590459856
4	0x3fab5180843458ac	0.05335618604492373
5	0xbfabdb9ded77fcb7	-0.05440991901195374
6	0x3f91fa809d9be07c	0.017557153339084128
7	0xbfa677534bca3a94	-0.043879130365089086
8	0x3fa27dc4a3279c0e	0.03611578456530405
9	0x3f838e372a88db35	0.009548598275711842
10	0x3fa02bf70060a047	0.031585425182413966
11	0xbf819f3b6653c81a	-0.008604492244987983
12	0xbf71301e5c9e33c7	-0.004196280098665412
13	0xbfa1769e1aa88f64	-0.03410810542507539
14	0xbf9ff44ecceaf919	-0.03120539785117513
15	0xbfa5be48cb1223a5	-0.042467379368708515
16	0xbfa353dc9a11ea75	-0.03774918919312579
17	0xbf9b46d8ea1b1ca6	-0.02663744858616881
18	0x3f98863d23297c1c	0.02394958045112726
19	0xbfaa750f0641f89b	-0.051674336923484186
20	0xbfa05d96785c4872	-0.03196401805156847
21	0x3faa817a9209d77e	0.05176909477897505
22	0xbf80be18c4374775	-0.00817508076480398
23	0x3fae27919e817347	0.058895636175952996
24	0x3f992659ddad4627	0.024560360102731018
25	0xbfa122e1b6c4fd1f	-0.03346925121376842
26	0x3fa46544db9a4c43	0.03983512097070065
27	0xbfab587fcfffd869	-0.05340957082800985
28	0x3fb2f22c9e8b3722	0.07400778647135245
29	0xbfacfc802076b6fb	-0.05661392589841615
30	0x3fa96dab2360b997	0.04966482931955623
31	0x3f8654674d8275cf	0.010903174450784285
32	0x3f62a05dfe11ccd2	0.002273734644910521
33	0xbfa4ae139801d5aa	-0.040390598588526075
34	0x3f90ad873fd90225	0.016286958000138924
35	0xbf97bcf9e4051267	-0.02318182424757467
36	0xbf9e206965062ef7	-0.02942051581480506
37	0x3f9eeb3da69a136f	0.030194247525759218
38	0x3f83c8a83e7841d3	0.009660066992211924
39	0xbf55dd8953380629	-0.0013345566811725584
40	0xbf77801dd06be75a	-0.005737415753850639
41	0x3fae5e34f2daa9c3	0.05931249107864602
42	0x3fb0efc234790af5	0.06615842610430518
43	0x3f8aadefa10eb025	0.01302706918962577
44	0xbf8df53ea6a74045	-0.014627923451286171
45	0x3f8c683afbe2c81d	0.01387067872233066
46	0xbfa43e60c2970a4c	-0.039538406137144294
47	0xbf26f73b83c3c5bb	-0.0001752147817409131
48	0x3fa011a9c57fb68a	0.03138475929141034
49	0xbf8d7c0877e23faf	-0.014396730574190856

fc2_weight f8 [10, 50]
0	0xbfd2c0742806c768	-0.29299644383274037
1	0xbfd351dd2d259117	-0.30187158020841437
2	0xbfdb4020e644c822	-0.42578909384895003
3	0xbfb8f43ec226a8d3	-0.09747688522353153
4	0xbfd1fa7406b6e5d1	-0.28091145187098926
5	0xbfd2f7c4c207256f	-0.2963725943378312
6	0xbfd283788bf83f9a	-0.28927434605520264
7	0xbfe0fd502fb39196	-0.5309220248860125
8	0x3fdca422133dcf4b	0.4475178897766809
9	0xbfbc4ce64f8a6497	-0.11054839555653682
10	0x3fd88c6d8a4aacaa	0.3835710382943015
11	0x3fe02aa0a85a749b	0.5052035606528479
12	0x3fd4da3218883f7a	0.32581760783886404
13	0xbfb8670ab6c818d1	-0.0953222938770495
14	0x3fb90e9066242ffd	0.0978784798973606
15	0x3fc12973924d4f14	0.13407749789859535
16	0x3fd869401fc0341b	0.3814239797655447
17	0xbfc727e389e1e43b	-0.18090481026209368
18	0xbfd12f03373a2552	-0.26849441903376203
19	0xbfdd4fecdb6ddaa7	-0.45800324848770874
20	0x3f99713652135626	0.024845932731144903
21	0x3fde1638446fa65d	0.4701061886140446
22	0x3fac76b20896f49b	0.055593074368041694
23	0xbfb2ebe44598face	-0.07391192149314493
24	0xbfc93f7695791421	-0.19724924372181454
25	0xbf52e2d61b0f27ce	-0.001152714812848721
26	0x3fd65e92dbc4c234	0.3495223184754963
27	0xbfd40652fdf8f6ba	-0.31288599779132265
28	0xbfd1099a4df81188	-0.26621110548173776
29	0xbfcb4512effb3f70	-0.21304547040790167
30	0xbfb23feaaf3d40cb	-0.07128779199888695
31	0xbfa44bff7acd0fd9	-0.03964231847797323
32	0xbfa9bdd43f672fec	-0.05027640603984182
33	0x3fd6c15a49b1929f	0.35555131146092295
34	0xbfd88e3a19960f75	-0.38368084429406873
35	0xbfd1b2fee0108dcd	-0.2765500248080713
36	0xbfd0a92a61dc972a	-0.2603250461273655
37	0x3f9113a9c1e59d84	0.016676571330575665
38	0x3fd9d2429204433b	0.4034582544273239
39	0xbfc48672983de184	-0.1603530162208352
40	0x3fdde58962c79675	0.46713480612229513
41	0x3fd472b4af0166b7	0.3195010861432865
42	0xbfd24f5a148cc002	-0.28609325415436626
43	0x3fd0653b8e097f8f	0.2561787497597771
44	0xbfca51ab9d44791b	-0.20561738185001208
45	0x3fd74283e75ce01c	0.3634347686197559
46	0xbfbbcb4c371137a0	-0.10857082695403486
47	0x3fdb488b551bb6ea	0.42630275069573875
48	0xbfd9560e1ad1f075	-0.39587738627574903
49	0xbfccc34d3f562156	-0.22471013634300147
50	0xbfd1a1eadad1f0fc	-0.2755076538958432
51	0x3fdd618abf9ce077	0.4590784903734923
52	0xbfd1fd522d284768	-0.2810864869107861
53	0x3fe056aca4f14052	0.5105803700953493
54	0xbfd03b2bd127beac	-0.25361152100866025
55	0x3fd118780fad1f1d	0.2671184685791433
56	0x3fc4343ebeeda7ec	0.15784439394639038
57	0xbfa0f9f7e4c62c3d	-0.033157107044722946
58	0xbfc3b603da06e676	-0.15399215837333075
59	0xbfbac6bf9bb9e84f	-0.10459516097935871
60	0xbfcbd61abd5c9619	-0.21747144933867515
61	0xbfcac1785343c4bb	-0.20902923646602808
62	0xbfd61a92c8280aed	-0.34537190958523817
63	0x3fdc342f91906ae1	0.4406851693653789
64	0xbf954cebc73e5ead	-0.020801242862573833
65	0x3fc444c6de7723eb	0.1583489023453518
66	0xbfb949492c33fa1f	-0.09877450303245226
67	0x3fda3a282579b749	0.4097996107073994
68	0x3fdd194cf69b8966	0.45466922838945434
69	0x3fc6be2e89ec476a	0.17767888769645462
70	0x3faf134184bf4c72	0.06069378610086397
71	0x3fd654581755dd59	0.3488979556927539
72	0xbfd84c8669518f15	-0.37967071805017955
73	0xbfd0c1c7a4c4a3c8	-0.26182738390576477
74	0xbfd5db9ea3d64712	-0.34152952193936514
75	0x3fe3b6fc6d2c35ee	0.6160871631888634
76	0x3fd2e4959c9fdb09	0.2952016858611591
77	0x3fd7cefd7aa95f23	0.3720086763255372
78	0x3fd32e9d41ad0b1f	0.29972011006991467
79	0x3fdda3d93a4b4899	0.46312552159100445
80	0x3fe4ae76b4ad5e67	0.6462968376972186
81	0xbfccdd9f9d688add	-0.22551341234164726
82	0xbfc671a1ce324ab1	-0.17534277504144805
83	0xbfd4b8f456a83924	-0.32378872358903465
84	0x3fd3dd644dc2d138	0.31038768380973947
85	0xbfc0d283e20a9d89	-0.13142441308194133
86	0x3fd76d0c8a28100a	0.3660308217224616
87	0xbfb0cbc323c184b4	-0.06560916541049516
88	0xbfa813f3900cd640	-0.047027217230077856
89	0xbfc0732a1d5d8f67	-0.12851454194889841
90	0x3fd8a87945230cb9	0.385282819286839
91	0xbfc836dbfc59b146	-0.18917417356295568
92	0xbfd029cf5a542b8e	-0.2525518781773649
93	0xbf83451aa76a10f5	-0.009409149393157604
94	0xbfd979bbe7e8b277	-0.39805505416260395
95	0x3fd27f8d6eaa65ce	0.28903518492878966
96	0xbfbc9759d63efba5	-0.11168443184486294
97	0xbfce59c12bf79ec5	-0.23711409231986216
98	0x3fd2825043d259b6	0.28920370696269104
99	0xbfb7ea86ef2010f5	-0.09342234933871281
100	0xbfd594007f14a28c	-0.3371583214780365
101	0xbf93740ecd5a9a5a	-0.018997412952240424
102	0xbfd142e74c31268e	-0.269708465963597
103	0x3f908b19296fd0af	0.016155617860889645
104	0xbfd74f61048614ea	-0.3642199081589995
105	0x3fd6360df90bc652	0.34704922982118547
106	0xbfccde3624842e36	-0.22553135664962703
107	0x3fc6c716956e9ee0	0.17795069023599464
108	0x3fd444121cb29075	0.316654708886069
109	0x3fe2167ef3c9e4aa	0.5652460824486714
110	0x3fd98f716da694fc	0.3993800707633708
111	0x3fda6479e280375b	0.4123825752184211
112	0xbfc3de8918bbaa52	-0.15522874553365057
113	0xbfb4fd9c856ac028	-0.08199480302096218
114	0x3fa051866c85eda3	0.031871987101989484
115	0x3fad57d2e94f3161	0.05731066797270291
116	0xbfd06cc1f69bc66b	-0.25663804133282636
117	0xbfda6a12501f93cf	-0.4127240927176076
118	0x3fd8389e8294f5aa	0.3784557604993447
119	0x3fd2080f3700a863	0.28174190875382105
120	0x3fc144d0587c8c21	0.1349125320494702
121	0xbfd074c19d8abfbd	-0.25712623963317666
122	0xbfd678a28d880df4	-0.3511129743712609
123	0xbfbcdca032123df7	-0.1127414819950373
124	0xbfc1f3a1eb011a5d	-0.1402475736124015
125	0xbfc17deb114ce68f	-0.13665521950479273
126	0x3fd9381576d209ca	0.3940480862003396
127	0xbfd329cd69d0d8c2	-0.29942641576361606
128	0x3fd5da732a9efb74	0.34145812189301883
129	0xbfdcae55db73e8c4	-0.44814058714804283
130	0xbfbb22071ed5a551	-0.10598797323986743
131	0xbfb8aa2918ca89e8	-0.09634644370320411
132	0xbfd22e8dc7935b86	-0.2840914200764292
133	0x3fb7a9ab21a24d7d	0.09243268557684377
134	0xbfc20af620f3d91c	-0.14095951661119777
135	0xbfc420f07adc072a	-0.1572552299403978
136	0x3fdd6b11cbf087ad	0.45966000476812036
137	0x3fa0b87c39f06f3e	0.03265751082673639
138	0xbfb77aeca923176a	-0.09171942834208627
139	0x3fdbc0fae7a0f057	0.43365357036578217
140	0xbfb2b17b65534500	-0.07302066062699808
141	0xbfc8e5adfbbc9e91	-0.1945092658217971
142	0xbfb94a7cb0fbd686	-0.09879283257381574
143	0x3fd0aa41acbe4142	0.2603916346497678
144	0x3fb62c6256c3a955	0.0866147481753264
145	0xbf9c77455cf4e6eb	-0.027798732565520828
146	0x3fe519c46606d6eb	0.6593954079350771
147	0xbfcc70902050ac3c	-0.22218514993559946
148	0x3fd41cb9a81ceaa9	0.31425324837952445
149	0x3fd654d7f517cc48	0.34892844138011414
150	0x3fd9e40d10b7a88d	0.4045441306358349
151	0xbfd4e10eda03c3ad	-0.32623645105837334
152	0x3fe0fd8c795f2bd3	0.530950772337173
153	0xbfcce38047f81942	-0.22569278253667774
154	0xbfd3f6d948d49dba	-0.31194145309788335
155	0x3fd6af7644fcd176	0.35445934998576634
156	0x3fd66b466efabe97	0.35029755437697346
157	0x3fd18efc9de4c44d	0.2743522207193266
158	0xbfd639de340af72d	-0.3472819812994768
159	0xbfcdd9ff222ba645	-0.23321522873384218
160	0x3fd9b77c244cbe7b	0.40182403130436456
161	0xbfd09c955599090f	-0.25955708846244446
162	0xbfdbf0981c152a1a	-0.4365597032780514
163	0xbfc88d13da98f6c5	-0.1918053452845269
164	0x3f4aa3338ca7c5a4	0.0008129121500230385
165	0x3fcb4dd559c83253	0.21331278690230934
166	0xbfdcccd551185f06	-0.45000203055813903
167	0xbfd15fbd8c9bb3af	-0.2714685319068008
168	0xbfd053f5d037648f	-0.25512452443724326
169	0x3fd6c327aa98d691	0.3556613126741946
170	0xbf952dd35636a5cd	-0.020682623040249305
171	0x3f92ae413bef5cf1	0.0182428543883732
172	0xbfda37d10bd63e7c	-0.40965677410074597
173	0xbfcebdb0b4027a9e	-0.24016388692412688
174	0xbfd1980177d7311f	-0.274902693778829
175	0xbfce0b8968ec9811	-0.23472707389117933
176	0xbfcfad6dc02742d1	-0.24748012430656854
177	0xbfd807e304bd6264	-0.37548137152547256
178	0xbfc1917be7b47e9d	-0.13725231946681485
179	0x3fe2453cd0476a17	0.5709518497417915
180	0xbfbdb4b8c2f5e5b8	-0.11603884467867587
181	0xbfb7a19e11cd141f	-0.09230983671757585
182	0xbfd8481db4151458	-0.37940161310354403
183	0x3fd8e81df386887c	0.3891672971896083
184	0x3fc19c6c4a8fb6dd	0.13758615151112155
185	0xbfd0d697361ade5a	-0.2630975750321106
186	0xbfd0a286051dc4c9	-0.25991964816701035
187	0x3fb2aaaa0c562c89	0.0729166298025793
188	0xbfe065d862306b1f	-0.512432281280187
189	0xbfc113cb22253ffa	-0.13341654937039477
190	0xbfd2fb939b206ce8	-0.29660501622283997
191	0x3f8c67539f40c380	0.013868954942241052
192	0xbfd4e7cd9cbd3be8	-0.3266481428772168
193	0x3fd43751c06fe6a7	0.31587642471968497
194	0xbfd00b6078a4d12a	-0.25069438726065363
195	0xbfb3871c6b00d29a	-0.07628038036711829
196	0xbfcb042a0c5f4c05	-0.21106458286394073
197	0xbfd90c3835b0bce3	-0.39137082331849465
198	0x3fd944ff75a3b7d1	0.39483629692301486
199	0xbfc491813a26720a	-0.1606904539047636
200	0xbfc5c37a3f0945a9	-0.17002800062122717
201	0x3fdf35fbdba17646	0.4876699108916437
202	0x3fc4cda763a63476	0.16252605786977242
203	0x3fe338ddb5f154af	0.6006916574066475
204	0x3fd6a9302d289636	0.3540764275552165
205	0xbfd7aeb9747a5e47	-0.3700393331032256
206	0x3fd0b6054bb98721	0.261109661054535
207	0x3fc99d89f091d20a	0.2001202034622483
208	0xbfa8ea354f4ddf47	-0.04866186707562164
209	0xbfc9cb6af73ed513	-0.20152031967669667
210	0xbfa1497090d22026	-0.033763425520249066
211	0x3f8601634aa76635	0.010744834628826453
212	0xbfc4fbc5ee737af3	-0.16393350737686027
213	0x3fdd209265f1e934	0.4551130290561958
214	0xbfafa8e9f945b75b	-0.06183558624148474
215	0xbfd40e910f22181b	-0.3133890769753422
216	0xbfc9d9fbdc1fe3be	-0.20196483848829233
217	0xbfcf18bf65ebbc29	-0.24294273830989369
218	0x3fdc88b592171c31	0.4458440710699874
219	0xbfda3565a91c1dce	-0.4095091010535413
220	0x3f84567b283703d9	0.009930574574243
221	0xbfcbf71a55b1c78e	-0.2184784811429918
222	0x3fb3d9e361b91f40	0.07754346023386649
223	0x3fe07d92f248899c	0.5153288585755038
224	0x3fe10ab70d03691c	0.5325579885641534
225	0xbfc5b1ea312b2a04	-0.16949202919779804
226	0xbfcc79fee1e4af6f	-0.22247301130243666
227	0x3fd4134453d71174	0.31367595851431607
228	0x3fcd0ba9fc7387fe	0.22691845728610355
229	0xbfcf3eee617459cf	-0.24410800703544885
230	0xbfae6fe1ac41f477	-0.05944733836893417
231	0x3fdf7304ce140da5	0.49139518856847025
232	0x3fa05ed8b702b277	0.03197362169280365
233	0xbfc92fb1815f89fa	-0.19676798646021593
234	0xbfc2a7a075f108e8	-0.14574056395401347
235	0x3fdc3ba235eb2c2f	0.4411397482442138
236	0xbfd323d988b1e493	-0.29906309460745567
237	0x3fbc394b965879dd	0.11024925632998568
238	0xbfd5be9ffaef7f05	-0.3397598219435028
239	0xbfa089ad7eb94292	-0.032300397605131384
240	0xbfcf39ad4ed6621a	-0.24394766187175848
241	0x3fd37d5b14099337	0.3045261092832336
242	0x3fae826403b6949a	0.05958855195357522
243	0xbfd405cb9d4b1cbe	-0.3128537212437087
244	0xbf9c282bb7a269bd	-0.027496989329486732
245	0x3fd78c5dcb036159	0.3679422838736364
246	0xbfbd904c8a82c6dd	-0.11548307782757257
247	0x3fd7d6950cb1f8dc	0.3724720596291158
248	0xbfdb95aad1bfa4c1	-0.4310099647833106
249	0x3fd96e27d3acef3f	0.39734836265028045
250	0x3fd5807279aabb54	0.3359647930291676
251	0xbfd603811a34b476	-0.34396388587158044
252	0x3fdf306fab45752a	0.48733131147112607
253	0xbfc8579ff8557bba	-0.19017409921340606
254	0x3fded58ceef92bd7	0.4817840894435767
255	0xbfd7fa0ae950e215	-0.374636390540702

fc2_bias f8 [10]
0	0xbfa34e2f52cc3305	-0.0377058781215052
1	0x3fbdd0e1d06658de	0.11646853769193252
2	0xbfd42b906aa50e08	-0.31515894331479943
3	0x3fb696d5e4e28089	0.08823906744010136
4	0xbfcf322174cc5175	-0.24371736720116713
5	0xbfddafb935b78eed	-0.46385030980876146
6	0xbfc4fc0c08675d91	-0.16394186411228565
7	0x3fd269fc3c61fcfa	0.28771882912401703
8	0x3fd0f048160c4c09	0.2646656241715282
9	0x3fc3ae18c11db8b3	0.15375050954339073
