trained_models/mnist_mnist_lenet_53_epochs.model (torch_old, 200087 bytes, 8 tensors)

conv1_weight f8 [10, 1, 5, 5]
0.3069837339196853 0.7187969015067146 0.7556273994469006 0.5720582648624594 0.23390343337694708 0.3564402456291136 0.5777547311966283 0.8178172986422694
0.825588687448415 0.6267703406327728 -0.2791081120114682 -0.46414634549275957 -0.40978304905082424 -0.1023581570396177 0.10472909161212293 -0.7828734430170244
-0.6282500897642707 -0.5625304872074476 -0.29622322607308277 0.09732869889623597 -0.31442407068849576 -0.19995859868161633 -0.353935788350198 -0.12175994248205911
0.05000047380762352 0.12351890280371798 -0.16182573620120436 -0.28042676285321694 -0.26135558191103436 -0.05281805987809818 -0.4505920425901413 -0.6577712658016509
-0.595707960837694 -0.6541873328739157 -0.3476917152298214 -0.6461526901801398 -0.45774013223773014 -0.7002526323912828 -0.7856254270994331 -0.7967186167275708
-0.4624631752783361 -0.6417869239771297 -0.5591342961371099 -0.5577235152659885 -0.11380124174482376 -0.1933565393305069 -0.10142526122450107 0.07946406522903261
0.2927226369370975 0.3944898842039094 0.10242122119434723 0.1599590125434147 -0.19933462816726608 -0.3433263818343253 -0.2322600007858346 0.3888492146628536
-0.14276570338128414 -0.29811680985467004 -0.2525066337619753 -0.3326534723064721 0.33788935414808935 -0.14858938816661454 -0.30234473149185537 -0.2935696423761132
-0.2924801899872351 0.3431404897440802 -0.24454451989719275 -0.26271848562356637 -0.3948694033040097 -0.1439759895823091 0.3683822991776969 -0.11232982924404468
-0.04656978464899488 -0.29305698921889495 -0.015424883101055548 -0.11086980776564674 -0.12667524822324353 -0.08519181451460998 0.33503470669784813 0.6312610996588913
-0.1662137438786761 0.1262898501819124 0.58835809098194 0.9959739635013942 0.617608930820392 0.19323752784413525 0.35894891096713816 0.6129679314035655
0.15559302385563653 0.26747556077085394 0.12815329180500612 0.22840734785818623 0.04538942626874563 -0.4358848519390474 -0.663182103092743 -0.08638958157215314
-0.022661151393046256 -0.4835817760221378 -0.8252708871483192 -0.722207942777271 0.11571205686901703 -0.04049133234705971 0.06577668429667569 -0.01313033872500245
0.026659530037090245 -0.1121417862791403 0.20211600691971782 -0.21142529571407626 -0.12039931617175308 -0.12149605026888048 0.1657760610204503 -0.10472248770014793
-0.05680979586098086 -0.08497921768778098 -0.09470797061198738 0.13767175543055646 -0.024261139584925432 0.03175669444415168 -0.10670806244101455 -0.12615538145844937
0.19582444849335673 0.11686759487318224 0.24680187711108442 0.019363445908204144 0.19901662022255706 -0.25946197658842574 -0.261450072149308 0.17735965628458683
0.6495557732640285 0.3404439025308112 -0.5523216709433657 -0.3871750735726103 0.19851170813749358 0.7368353497685013 0.321356107160392 -0.3984362507740637
-0.3469976064984569 0.35226632803240976 0.7660766971775317 0.029834882908184028 -0.3701743267463901 0.005356170307506932 0.47980295934451994 0.4681505985601864
0.04548449963330996 -0.07145898352894894 -0.020135094678265405 0.35872481507325044 0.41002244940528365 -0.19778388667840482 -0.1628355922769393 -0.1001976392400745
0.21986822051843297 0.355581420527499 0.5238554269757748 -0.3808841780717479 -0.2676717770511561 -0.34453107380672854 -0.027929533474378668 0.008911347244807206
-0.16477596297968947 -0.3550480686900566 -0.48232283422255695 -0.7319814184072471 -0.6290639959343429 0.5541343988993845 0.11510039090244772 -0.10134361076851982
-0.3465066249857637 -0.3495407191461127 0.48169651881789355 0.46568679333863355 0.6686389424379096 0.697922186116859 0.42688955231453557 0.23414717058870368
0.3258173490284505 0.10776082255871564 0.1882508428404235 0.2738063437105403 -0.18454653187438685 -0.34452824928442716 -0.3075760374396224 -0.43984417865379544
-0.18419079696255652 -0.4381362842360258 -0.47121889775020837 -0.6723836027406453 -0.5897346687791554 -0.426737019668332 -0.587319321002302 -0.39940392853705137
-0.6423102903080783 -0.37674943640782005 -0.2724326232977969 -0.324733053769198 -0.2596965003294629 0.04832696958194838 0.2803265923615749 0.5991167791108913
-0.13695201712640243 -0.05494712486377366 0.06257076307058979 0.15909103824330095 -0.12096625305375802 -0.04637394881203722 0.3390345444419824 0.1078450412783803
-0.10014615309018977 0.0359252943194547 0.1238610725001462 0.1919577022682047 0.25203364617313806 -0.04256700458284238 -0.15757209771442113 -0.26473773938636236
0.3421222714012279 0.728073172619241 -0.038478914945375184 -0.5737307223925404 -0.19941578521247302 0.34551381421371496 0.5963459125528138 0.12448514458160377
-0.29889930139602394 0.12374916995761112 -0.12344907667766508 -0.16377155144029296 0.22902550040500558 0.4459808885355654 -0.22587043718805414 -0.2817160923474463
-0.4811795055810735 8.653204021148227e-05 0.5871639821256425 -0.4552994273833892 -0.3209528045137348 -0.5732030879054767 0.2259521174286345 0.8733001964043731
-0.5835351199964315 -0.40017493648817887 -0.4148155791446375 0.22122968103324964 1.024773678264701 -0.21389663457958094 -0.3689415638985941 0.20078416560798082
0.5056484465431553 0.7571082536625754
00000000: 69b2 651a 9fa5 d33f c6ff 0d5c 6200 e73f
00000010: 3dc0 1283 192e e83f 61b4 5f22 4d4e e23f
00000020: 5457 6336 8cf0 cd3f d022 7dbf eacf d63f
00000030: 4929 737d f77c e23f 0cb1 f82e 8f2b ea3f
00000040: 753b 91f7 386b ea3f 75db 63ac 800e e43f
00000050: cbcd 4845 e8dc d1bf a6c1 9cdf 92b4 ddbf
00000060: 9738 88ae e239 dabf 10c8 f6e8 2434 babf
00000070: 76f2 6997 86cf ba3f 0148 559b 4c0d e9bf
00000080: 34e4 a7ee 9f1a e4bf c9e2 b1ef 3f00 e2bf
00000090: 172b 1343 52f5 d2bf 78b8 b89a 88ea b83f
000000a0: 80aa 2b23 861f d4bf af1d f24c 3e98 c9bf
000000b0: ea46 f64a e2a6 d6bf 675c ecda a82b bfbf
000000c0: 3195 937f a999 a93f 4dd2 fa4f ef9e bf3f
000000d0: 6151 51aa b4b6 c4bf 792c d817 83f2 d1bf
000000e0: 16d6 3bc3 0cba d0bf 7013 a1ff f70a abbf
000000f0: bccc b001 80d6 dcbf 4dbb 5b53 760c e5bf
00000100: c978 3824 0a10 e3bf 73d4 0446 1aef e4bf
00000110: 8124 80c0 9440 d6bf d279 1168 48ad e4bf
00000120: ecc6 8144 9d4b ddbf fcde 6135 7868 e6bf
00000130: 038a 89ef d723 e9bf 62b2 5e0a b87e e9bf
00000140: 6b2f 5b25 ff98 ddbf 446e 2fbb 8489 e4bf
00000150: 4163 7f9b 6de4 e1bf eae1 48fc ded8 e1bf
00000160: 00c8 8903 1422 bdbf bc35 7236 e8bf c8bf
00000170: a48e f283 01f7 b9bf 01ac 5dc9 c157 b43f
00000180: d565 1cba f7bb d23f 328d d07f 523f d93f
00000190: d533 72f3 4638 ba3f 9886 c973 8979 c43f
000001a0: 3f28 780e cc83 c9bf a046 7537 0ff9 d5bf
000001b0: dfa4 c519 b2ba cdbf e657 03d1 e7e2 d83f
000001c0: b0ab 8185 2546 c2bf 94ac 2d87 5814 d3bf
000001d0: 89f7 8195 1129 d0bf c541 1dca 314a d5bf
000001e0: 03e3 6eab fa9f d53f 3aa8 5a21 fa04 c3bf
000001f0: e206 78b7 9d59 d3bf 05a5 4653 d8c9 d2bf
00000200: 4f46 aed4 feb7 d2bf 8497 5887 03f6 d53f
00000210: 71ee af1d 3c4d cfbf 0ab4 f331 61d0 d0bf
00000220: b16e 5851 8a45 d9bf 0d27 5523 ce6d c2bf
00000230: 092f d959 9393 d73f 71eb f7ce a5c1 bcbf
00000240: 3330 19ac fed7 a7bf dbcc 231a 72c1 d2bf
00000250: 9d91 b5c3 1497 8fbf 539e 77b6 f661 bcbf
00000260: 056f 2a00 e536 c0bf 5f26 3a79 21cf b5bf
00000270: 91b3 1269 3571 d53f b1b3 487a 4a33 e43f
00000280: a664 0df1 7d46 c5bf 048d 2c0c 442a c03f
00000290: 7357 e358 d4d3 e23f d6fd 1cca 04df ef3f
000002a0: 60ea f2cd 73c3 e33f 5ba8 39df 01bc c83f
000002b0: a379 62da 04f9 d63f b300 5cec 6e9d e33f
000002c0: eb0c 79e2 78ea c33f 715d 7fd0 511e d13f
000002d0: 00b0 96ba 5367 c03f d6c6 9bb4 733c cd3f
000002e0: 6e22 d16a 483d a73f c799 f993 89e5 dbbf
000002f0: 366d 82ac c938 e5bf 1f49 91ab a01d b6bf
00000300: 61c9 7d20 7c34 97bf 3a3a 3dfa 00f3 debf
00000310: f292 d47d 9e68 eabf 6479 e4d4 531c e7bf
00000320: ac5c 012c 4e9f bd3f 2178 67a8 47bb a4bf
00000330: f6be e4a3 bdd6 b03f b738 463b 14e4 8abf
00000340: 0b4c 8bc6 a24c 9b3f 617c 95f8 52b5 bcbf
00000350: 2ef1 dbf3 efde c93f 96cd 51ed fb0f cbbf
00000360: 1b1f 6b55 7dd2 bebf d37d 7f7a 5d1a bfbf
00000370: c571 4564 2638 c53f 19f1 d3cb 17cf babf
00000380: 6b75 a16e 2c16 adbf eb05 cfb0 32c1 b5bf
00000390: a4f2 7214 c83e b8bf 811d 9463 3a9f c13f
000003a0: 71e3 5284 e9d7 98bf 0726 22d8 6942 a03f
000003b0: cc57 6736 3851 bbbf 7b0a ca0a dc25 c0bf
000003c0: 52a2 0489 c610 c93f 5a47 f1e1 08eb bd3f
000003d0: 564a 6433 3497 cf3f 3c87 a7db 02d4 933f
000003e0: dcb0 9b69 6079 c93f fa2d 0068 069b d0bf
000003f0: 73c2 5a15 99bb d0bf 04a1 afa1 b8b3 c63f
00000400: 921a 6330 29c9 e43f 3b84 df38 d5c9 d53f
00000410: cf5c 327f 9eac e1bf 4087 b4f5 79c7 d8bf
00000420: c66c 29e7 d468 c93f 9f5b 39ba 2794 e73f
00000430: 9aeb a734 1991 d43f ab63 a7c2 fa7f d9bf
00000440: a2df ec72 3535 d6bf b665 9811 888b d63f
00000450: c05d 1347 b383 e83f fe88 7b19 098d 9e3f
00000460: bb73 cca8 efb0 d7bf 223d d704 5af0 753f
00000470: a528 ba78 17b5 de3f 09ce 9aed 2df6 dd3f
00000480: 86cb cc8c be49 a73f 0e22 43cd 224b b2bf
00000490: 6f7e 9454 4b9e 94bf 6335 40ed 58f5 d63f
000004a0: 9693 b4cc ce3d da3f 83d1 7a7e fb50 c9bf
000004b0: af24 baf3 cbd7 c4bf ae2a ac6f 8da6 b9bf
000004c0: a637 4750 a424 cc3f f1c5 0e93 d8c1 d63f
000004d0: 9f2d d674 6cc3 e03f a672 1808 6860 d8bf
000004e0: 84cd 1fce 8821 d1bf 8e29 9d0f cc0c d6bf
000004f0: e4c0 7543 8f99 9cbf 6a85 d6c7 1c40 823f
00000500: 0114 15f6 6017 c5bf 4508 e288 1bb9 d6bf
00000510: f464 c697 60de debf 9ad7 aa4b 646c e7bf
00000520: 6c21 34d1 4a21 e4bf 3491 1b10 78bb e13f
00000530: e0cd ae1e 3877 bd3f e7ca e8a5 a7f1 b9bf
00000540: f650 8a1f 2a2d d6bf 8195 5609 e05e d6bf
00000550: aadf baa2 1dd4 de3f fd62 e4fa cfcd dd3f
00000560: 884a d37e 7d65 e53f a0ca 90e8 6055 e63f
00000570: 117b 8c8e 2852 db3f af90 10d4 88f8 cd3f
00000580: b2fb a202 31da d43f 9e03 ae98 3696 bb3f
00000590: c9d6 b886 9a18 c83f 8d24 eb0a 0b86 d13f
000005a0: b0cf 7e83 389f c7bf 4e62 ce36 c00c d6bf
000005b0: 6588 7567 53af d3bf acdb a932 6826 dcbf
000005c0: 62d4 9664 9093 c7bf 2e05 ffc4 6c0a dcbf
000005d0: 3909 c64e 7328 debf 4468 049e 2a84 e5bf
000005e0: e629 773d 1bdf e2bf a0f3 ddc9 a84f dbbf
000005f0: 2871 80e3 51cb e2bf c379 bd7e d58f d9bf
00000600: 213d 584f ce8d e4bf fb1c 0aab a91c d8bf
00000610: 935c db3d 896f d1bf 4d9c 7725 6dc8 d4bf
00000620: 9c3e f311 de9e d0bf 010f bd03 50be a83f
00000630: f717 99f2 def0 d13f 2c84 98f3 f62b e33f
00000640: beed 56c9 a487 c1bf 6528 9990 0722 acbf
00000650: 3cee 1235 a304 b03f 9cbb 2b5b 185d c43f
00000660: dc19 c9f4 a4f7 bebf a972 1183 53be a7bf
00000670: b7ec 25f2 bdb2 d53f d48f 538d bb9b bb3f
00000680: f5b2 57a4 2da3 b9bf f307 67d8 cc64 a23f
00000690: 87b7 a2f7 5bb5 bf3f fa86 baea 1192 c83f
000006a0: 7089 f3ba 5121 d03f e4db 24a9 57cb a5bf
000006b0: f307 398f 522b c4bf 049c 2b8f 76f1 d0bf
000006c0: 57b2 b9cf 54e5 d53f c9d3 2f1c 604c e73f
000006d0: 9649 8d22 82b3 a3bf 855d 2c88 005c e2bf
000006e0: 0399 e5d9 7486 c9bf d64d 17f9 e51c d63f
000006f0: 4590 f005 4415 e33f 91d9 d028 42de bf3f
00000700: 4cc3 1289 2a21 d3bf 9a05 e08d 06ae bf3f
00000710: c44d 0dd3 5b9a bfbf 3bc2 b958 77f6 c4bf
00000720: a442 1825 b550 cd3f 7cae b96c f38a dc3f
00000730: 9d8e 6d8e 52e9 ccbf 9ee8 d8ee a207 d2bf
00000740: 6879 fe1f a5cb debf 9502 8d21 11af 163f
00000750: e8cc 931e 0cca e23f 9ff2 9f35 a023 ddbf
00000760: cf8a bca1 7d8a d4bf c5a5 9000 ae57 e2bf
00000770: 27b2 68bd ffeb cc3f 87b5 e440 13f2 eb3f
00000780: ad77 0ed8 51ac e2bf 9951 3956 779c d9bf
00000790: 880a 93a4 568c dabf e69d 7812 4151 cc3f
000007a0: 202d 9f15 7965 f03f 9f33 1f05 f760 cbbf
000007b0: 7217 c513 bd9c d7bf 73a3 6ba8 4bb3 c93f
000007c0: 41a2 a5a6 452e e03f db65 a016 3b3a e83f

conv1_bias f8 [10]
0.7011324600153728 -0.4589360860060785 -0.23695445600121018 0.7441188894430769 -0.1242860008686907 0.3757689238092886 0.17994304680425852 -0.48387356284514815
0.6679226092954254 0.23808044788758045
00000000: 00c3 3d57 ad6f e63f 246c 1676 355f ddbf
00000010: 6655 950b 8654 cebf a9cd cf6a d2cf e73f
00000020: 49e7 1415 35d1 bfbf f24b a719 990c d83f
00000030: 935c 95ae 5f08 c73f 0e69 f4d1 c8f7 debf
00000040: ced9 653c 9f5f e53f a141 bf8c 6b79 ce3f

conv2_weight f8 [20, 10, 5, 5]
-0.032594261171956185 0.1282267335528053 0.22803605990592893 0.044431750257591926 -0.2196389517767347 -0.006509763305569435 0.0491680055359962 -0.22492449767963346
-0.14796961188625313 -0.047473055591287484 0.01248181703043008 -0.14822598203989862 0.0360688771308392 0.1790610233773169 0.016634262404423797 -0.007062573851933362
0.12258512946263272 0.2339422777231173 0.03860097957139437 -0.07040341496136795 0.2502791183315085 0.10495932235909013 -0.05816138565905076 -0.05448194698087198
0.0688795933820381 0.1770702852150309 -0.0421426106324304 -0.08818645895529083 -0.03789245234231857 -0.10757579173732858 -0.09682144797977761 -0.1320536695130882
-0.08858388365754757 -0.12310602150658731 0.16026418171416706 0.015812817546011913 -0.2763976331945422 -0.2466296466696576 0.07492128038590996 0.3050049465577767
-0.11042675760073062 -0.07220687619573914 0.16372533970445596 0.15252043882211047 0.23549336756316253 -0.050906246022786955 -0.01394945435658062 0.02941279396326068
0.1440033240535096 0.08551979707972272 -0.09284943212401231 -0.1838492916423246 -0.06020216939386285 -0.027599770220925336 0.07265056763526632 -0.10965032456955934
-0.08465042698921119 -0.1099148050827519 0.00011493016986142875 0.07878487752105774 -0.1250854095924397 -0.15232363251931033 -0.07166989314043148 0.02012821413996708
0.07317728594922206 -0.16623840860288402 -0.047432691230509784 0.002519614869902421 0.04340824759349424 0.028775810499098577 -0.07190288603472132 0.016904215898975776
0.0319837180949616 0.05003826872160071 0.009515005035162461 0.04547397131916321 0.06800090519142941 -0.18393791256484532 -0.11641483623784209 0.028299852612217343
-0.11695160504420883 -0.21452145519777044 0.018591626002960097 0.23858122154190886 0.10161042427747423 -0.08853537281672248 0.3181966171706803 0.3199960298606744
0.10688818486281543 -0.16308667305363375 0.23255288540975366 0.13555851024814575 -0.13997947118818307 -0.07211246360862059 -0.059996524431832766 -0.09772617940679972
-0.20968297689325205 -0.11018235577142602 -0.06053648802007534 -0.04257697345098923 -0.05550462132596547 -0.07073323577985188 -0.01418891634707237 -0.048948827812777325
-0.022091500748357175 0.012754277168916296 0.03905406950151935 -0.0442849074851047 -0.05020392181632665 0.022780626645719598 -0.05954326846076156 0.0017855232022720173
-0.07584828872888554 0.002831952977803628 0.06273974542497925 0.02847683096210951 0.021682826482430424 0.04514392999441914 -0.0556098785221187 0.012735035462383849
0.03290448638504208 0.0832139459090422 0.012742976411052551 0.025099799442873796 0.010261655339022433 -0.12188419063561663 0.03281224243719828 -0.07941998654697983
0.09348299338997265 0.16888805360885595 -0.16248885657364479 -0.0314372892899108 0.1487271721641656 0.3268190909169369 -0.02879569752694331 -0.1771442799510607
0.149163563990854 0.09225642172807977 -0.004594486431266753 -0.055346911091426844 -0.0029344793400273217 -0.01645232608711566 -0.17352728126789208 -0.16555093664069062
-0.08506994130007656 -0.12037636441890325 -0.17772116818525982 -0.05593570341906194 -0.06053305285946112 -0.018425401256257974 0.11728045073011799 0.09076345946867975
0.04252283450022445 -0.07971251814119688 -0.12856692307321185 0.23809799522327305 0.13925089733574908 0.020357393641494647 -0.04300281757146823 -0.020572277757026212
0.05467189249427516 -0.13785163002158227 -0.0546478006326573 -0.03441840739965641 0.0218344825436988 0.16427267635214043 0.17348751531710058 0.017368061743873984
0.03505749234008561 -0.047756722649522326 0.09604100129138346 0.0658216251495001 0.06339939894040002 -0.017630882096217 0.01786238444711786 -0.017067437672942144
-0.08834939012455181 -0.029844786641276856 -0.003950516700700774 -0.04649697738121995 -0.03778714503659011 -0.003905628844087503 -0.08625515778811978 -0.22572398680699798
0.027265813134392948 -0.020513252883720308 -0.24653477793720344 -0.08068710682037974 0.0852779151108027 0.19472397350237847 -0.07204188941373539 -0.013330153091042464
0.14725961263353393 0.048408288828629686 0.05056606943590812 -0.03885626899274359 -0.08074603848302489 0.018081288478865188 0.08698743668863623 0.0282723924722432
-0.04675200229450389 0.01060287038389055 -0.0025352668490556877 0.17519092116248655 0.03878589585877395 -0.10501161642883457 -0.021519034907724242 0.08856440641763061
0.04420170051372116 0.051644048495591545 -0.006522800388715883 0.046931225128217756 0.00863501850012447 0.04904992883828323 -0.10897141043456302 -0.05965047582912588
-0.1464210218002118 -0.13394231647887542 -0.054398242798336834 -0.060118986928054764 -0.049806984728504575 -0.02048432552006332 0.06352700705335518 0.03999024476579421
0.06597002409163515 -0.08215920011202736 -0.16843920141154192 0.14959756506094926 0.1928357385739029 -0.032296051842311636 -0.02928807095360283 0.24127142405627164
0.22590207829321937 0.009898775864446012 -0.1786508745796564 0.10162777461648292 0.009213794037350117 -0.14907455134188102 -0.18964492462309793 -0.11829082553940193
-0.09055108297245737 -0.22923204852156898 -0.17124593065932978 -0.10799233156031775 -0.025414225296765333 -0.15301553847692465 -0.10103977357924863 -0.020087873976558934
0.019976153896768704 -0.08859408996981388 0.00017345528690223183 0.021707628776703083 -0.04193641720192743 -0.027291141841021715 0.007602061053530591 -0.00641112115378448
00000000: d0aa 8aeb 31b0 a0bf af85 8acd bb69 c03f
00000010: 8d65 cd1d 4930 cd3f be52 8524 c2bf a63f
00000020: a686 6711 211d ccbf a3b0 0848 fba9 7abf
00000030: dfc3 927f 8c2c a93f 6a37 cd70 53ca ccbf
00000040: f437 ed11 abf0 c2bf a55a 696a 634e a8bf
00000050: cfd7 851f 1190 893f 4ab1 a3a8 11f9 c2bf
00000060: f45c 5caf 9e77 a23f 416a b2bb 78eb c63f
00000070: 8490 1474 9208 913f b3a3 833b a5ed 7cbf
00000080: 4c97 0432 bd61 bf3f 217c fc0f d2f1 cd3f
00000090: 7a95 b4f1 81c3 a33f b229 c94c f505 b2bf
000000a0: 38c1 06b5 9204 d03f 214f f138 9dde ba3f
000000b0: 9761 9742 54c7 adbf 45b0 02c9 0ee5 abbf
000000c0: a108 f0d0 17a2 b13f 05c5 0b36 3daa c63f
000000d0: 2e63 de5c b793 a5bf b5bb 2945 6393 b6bf
000000e0: 86a7 26b7 a366 a3bf f166 5a4b 168a bbbf
000000f0: e5df 9f58 4ac9 b8bf 9510 f077 22e7 c0bf
00000100: aa07 43f3 6ead b6bf 2ebc 4f50 e083 bfbf
00000110: c25d 9765 8983 c43f 39f6 de38 3c31 903f
00000120: 8dca d0b2 7fb0 d1bf 98c9 556d 8f91 cfbf
00000130: 892c 0881 0a2e b33f 455e a577 3385 d33f
00000140: e89a 7f90 ed44 bcbf e598 ce5b 267c b2bf
00000150: fe4f c7b1 f3f4 c43f 4a34 5b2c ca85 c33f
00000160: 90e9 0d8c a524 ce3f c4f5 a82b 6210 aabf
00000170: 1c87 1112 8891 8cbf 7ef0 9f30 631e 9e3f
00000180: 559d a96f b36e c23f fb32 9e1b a0e4 b53f
00000190: 00c0 6cfa fac4 b7bf f68e 7fa3 5f88 c7bf
000001a0: 07c9 6399 d1d2 aebf aa69 e739 1d43 9cbf
000001b0: 8780 0744 3a99 b23f 96a4 052e 0b12 bcbf
000001c0: 4ed7 827f a6ab b5bf e337 2d6d 6023 bcbf
000001d0: bc63 9448 d520 1e3f 9d4f 5fe8 3e2b b43f
000001e0: 6a01 b477 cc02 c0bf b307 0a3e 577f c3bf
000001f0: 285e 2547 f558 b2bf 5309 d595 7d9c 943f
00000200: 4b42 f621 bfbb b23f a6ec 24d8 4c47 c5bf
00000210: f54e 3103 1949 a8bf 6833 dfee 03a4 643f
00000220: 5cda 9417 9b39 a63f 17c0 09f4 6777 9d3f
00000230: 23d4 0140 3a68 b2bf 6e70 cdb9 564f 913f
00000240: 02d7 717e 2b60 a03f 365c 6aaf 9d9e a93f
00000250: 0711 945b 9a7c 833f 0225 4547 5d48 a73f
00000260: 1f45 e5df 8168 b13f 42f2 7a0b 478b c7bf
00000270: 6f25 69da 5ccd bdbf 7feb cdf5 a2fa 9c3f
00000280: 852c e156 8af0 bdbf 3cb0 2e65 7075 cbbf
00000290: ae11 a6e6 ae09 933f 542a fb57 d489 ce3f
000002a0: ef55 3409 2403 ba3f 3578 c912 41aa b6bf
000002b0: b189 1c58 555d d43f ed7d c6a0 d07a d43f
000002c0: 4489 502a 065d bb3f f7e2 962b 06e0 c4bf
000002d0: 2271 b6fe 4ac4 cd3f 06ea 1a34 fb59 c13f
000002e0: e3ab 6ee9 d8ea c1bf 8240 d560 f675 b2bf
000002f0: dde4 9d4c ddb7 aebf 57e6 8338 9504 b9bf
00000300: 9268 244c e4d6 cabf 5a6f a22e e934 bcbf
00000310: 3997 8578 a3fe aebf d3be 1129 a6cc a5bf
00000320: d267 be0a 1a6b acbf 262b 6ac6 921b b2bf
00000330: 222d 691d 140f 8dbf d14e 441d d20f a9bf
00000340: 1a5d ef84 279f 96bf bacf 981a ea1e 8a3f
00000350: 00c9 911e e5fe a33f cdb6 b5ea 82ac a6bf
00000360: 4704 aa14 54b4 a9bf 4bf8 b3f9 cd53 973f
00000370: 65ca 788d 747c aebf 87f6 a3f0 0641 5d3f
00000380: 2b52 8c1f cb6a b3bf 5f1e 8d2d 0933 673f
00000390: 8578 c242 b60f b03f 4034 b4c6 0729 9d3f
000003a0: 32ed 81da 0534 963f 39bd e0ed 1a1d a73f
000003b0: 8a8f 2ce3 e578 acbf fa3e 9886 d314 8a3f
000003c0: a2b3 d459 dbd8 a03f 711d 4058 824d b53f
000003d0: a56b 8357 fd18 8a3f 2724 f906 c3b3 993f
000003e0: f2e0 ab10 1004 853f 59ed ad64 cd33 bfbf
000003f0: 9235 5a28 c4cc a03f c337 de44 de54 b4bf
00000400: f694 575f 80ee b73f 60b2 77ad 1f9e c53f
00000410: e55f 7952 6fcc c4bf 9807 c062 8c18 a0bf
00000420: 1e5f 3cf2 7d09 c33f a596 cc9e 9aea d43f
00000430: da2d 938c 9e7c 9dbf 5e19 88ec a9ac c6bf
00000440: 0a3a 8caa ca17 c33f b607 2bea 1d9e b73f
00000450: c063 6d0f abd1 72bf 3d04 252a 6e56 acbf
00000460: ee82 7a99 0c0a 68bf fffb f2e9 e0d8 90bf
00000470: b033 0157 2436 c6bf d7d2 58e9 c530 c5bf
00000480: eca7 c1c7 24c7 b5bf 3bfc 6344 fcd0 bebf
00000490: 4bd0 9436 91bf c6bf 3e2d bac1 9aa3 acbf
000004a0: 7483 b734 30fe aebf d2c6 3ebf 1bde 92bf
000004b0: 3393 5874 1706 be3f 34fd 162a 463c b73f
000004c0: 83fb 058f 8dc5 a53f 238d 7f22 0a68 b4bf
000004d0: 8130 f984 e174 c0bf 5512 5dbf fe79 ce3f
000004e0: f672 ff30 f9d2 c13f 7325 b08f 91d8 943f
000004f0: 38eb 351e 7704 a6bf 66c0 ae30 e610 95bf
00000500: 2ef3 8b4c f4fd ab3f 6b4d 5249 1fa5 c1bf
00000510: 92fb 07e9 cbfa abbf 51e8 521c 4a9f a1bf
00000520: 6113 cd51 c75b 963f ee87 4716 e306 c53f
00000530: 3b8f 46c2 d634 c63f a948 bde4 eec8 913f
00000540: 322f 293e 0ef3 a13f 1c3f e3b3 9173 a8bf
00000550: 3e20 9f9f 2496 b83f 12fd 629f afd9 b03f
00000560: affa 0869 f13a b03f 02f4 0278 d40d 92bf
00000570: 22a5 1d54 844a 923f daf7 865a 207a 91bf
00000580: e2dc 34cd 109e b6bf 9a4f 52ba a18f 9ebf
00000590: ed4c 82c0 6a2e 70bf 922d 6eaa 73ce a7bf
000005a0: c360 4830 d658 a3bf e13f fb84 b2fe 6fbf
000005b0: f9b0 cf69 d114 b6bf 1720 a10a 86e4 ccbf
000005c0: 6a21 d8be 91eb 9b3f e2a3 1419 6d01 95bf
000005d0: 8b90 489c 738e cfbf 9a9c 0005 e9a7 b4bf
000005e0: 7dd2 7800 c6d4 b53f 304e f814 b7ec c83f
000005f0: d35a f956 5671 b2bf 4115 9ddc d64c 8bbf
00000600: 182e 242a 67d9 c23f 80a2 bfa2 f8c8 a83f
00000610: 4e6b 07bd cbe3 a93f f906 2309 f8e4 a3bf
00000620: 2aef 90ba c5ab b4bf edbc beba e683 923f
00000630: 8c95 bd03 cf44 b63f b91c 3124 70f3 9c3f
00000640: 093c c1e1 e0ef a7bf 931d 572c f5b6 853f
00000650: efa7 8106 d7c4 64bf a378 79f6 a76c c63f
00000660: a7dc 84b4 bedb a33f 8d0e 4392 0ae2 babf
00000670: e63d aefc 1509 96bf a643 272d 28ac b63f
00000680: 1c9e 44f4 9aa1 a63f 3da9 a4b6 1671 aa3f
00000690: fae0 90e5 a6b7 7abf 4b7f 2c9a 5e07 a83f
000006a0: f494 7790 3caf 813f 368e 7680 121d a93f
000006b0: f6f3 03e4 8ce5 bbbf 83fd c0d5 818a aebf
000006c0: 8916 0a8e ecbd c2bf 63e3 6996 0525 c1bf
000006d0: f1b4 8e23 16da abbf e504 7375 eac7 aebf
000006e0: a6e7 0a15 4d80 a9bf 47d5 c1d0 d7f9 94bf
000006f0: d4f8 b451 4e43 b03f b732 dbf2 9979 a43f
00000700: 6b6a fd57 69e3 b03f 07f3 8ba5 6208 b5bf
00000710: a1a5 b66e 6a8f c5bf c5be bf54 0326 c33f
00000720: bc63 566b d7ae c83f 9dc1 e7ac 1b89 a0bf
00000730: 9775 a22b b1fd 9dbf eff8 e365 fbe1 ce3f
00000740: 5b14 2ffb 5bea cc3f 8fa7 dd34 cf45 843f
00000750: 8e57 dc27 08de c6bf 54d2 5720 4704 ba3f
00000760: 3eff 7f80 aede 823f baf1 56f9 df14 c3bf
00000770: 4de6 8dee 4846 c8bf 6ecb 1bbb 4e48 bebf
00000780: 1eed fb13 5b2e b7bf 4c30 cccb 7957 cdbf
00000790: bba0 e0fb 62eb c5bf e135 45ac 62a5 bbbf
000007a0: 8cd9 02ca 2f06 9abf 6de4 c45e 0396 c3bf
000007b0: f73c 1e1b bedd b9bf 131a 1a67 ea91 94bf
000007c0: cef5 befe a074 943f 200b 0a2f 1aae b6bf
000007d0: ae4a b291 31bc 263f 44b8 ad4e 863a 963f
000007e0: c191 c9a8 b078 a5bf 30f3 b586 35f2 9bbf
000007f0: 21b8 b6b9 5623 7f3f e3aa fa3a 8c42 7abf

conv2_bias f8 [20]
0.0025664717811892494 -0.0455092979073657 0.02744108746576341 -0.005667342536929793 0.0631201805614957 0.04111725308543519 0.002423774730631028 -0.030765158314770162
-0.020187269451623354 0.011203221969154954 0.05782203631337333 0.006796916340736418 -0.016014555693633956 -0.06436682172513059 -0.04154249468177083 0.01806011458182406
0.06866811423717192 -0.06205094082974173 0.003052081991894917 0.0009360255049297447
00000000: 98d9 b80b 4806 653f 2224 5aa4 fe4c a7bf
00000010: 52b3 ed34 8419 9c3f fa19 9fad a336 77bf
00000020: 67af 3ae7 a428 b03f 0a4a 9b12 520d a53f
00000030: d807 6e26 06db 633f 4ed6 45d3 e680 9fbf
00000040: af6d 5cb8 f8ab 94bf 9a21 bdff b6f1 863f
00000050: ed7a e895 d99a ad3f f890 5a56 15d7 7b3f
00000060: 7c44 dba3 1e66 90bf 14c4 4112 587a b0bf
00000070: fddb 1ad0 0e45 a5bf d3ba f6c5 597e 923f
00000080: a238 edc8 3b94 b13f b27b 1913 24c5 afbf
00000090: 4c74 e00a ae00 693f 0757 4877 f3ab 4e3f

fc1_weight f8 [50, 320]
0.013280920906995817 0.025795197511688694 0.025234870345805568 0.1821843354211094 -0.02329908468141111 -0.08534444878402868 -0.1411079716382402 -0.3179383059301016
0.028634378007157905 -0.11490809654257728 -0.16504140875541976 -0.13268350419304306 -0.08945738842454325 0.08132260467612457 0.20815971037426284 0.10155397643937457
-0.030565675333808454 -0.04931203550471568 0.02844452242630309 -0.009619049176575876 0.028594195515309895 -0.03374276514139798 -0.029267361073526146 0.054745213062307105
-0.055559478378385665 -0.00276480445703374 -0.02436484315262903 0.010233419498392723 0.03715710152901573 -0.021131372600113094 -0.0266241575120627 0.047739651589590204
0.08825957280224589 -0.10770030435997321 -0.060838693631277 -0.03067614564707749 -0.04838166165876809 -0.2601443984288079 0.09536589466641643 0.004685802010102188
0.04788021151576591 -0.07964997927880707 0.021160027279565032 -0.021165802617971477 0.15351698252588397 -0.0623378398902975 -0.13972729476185608 -0.02196557277231799
0.00634755573161908 0.04572728893521066 -0.0662540865875614 -0.009252245976126472 -0.05953808754562725 -0.04821458047847235 -0.07740885977683595 0.029716532423196957
-0.01789333965232323 0.0566040622015196 -0.018752648506676007 0.039182864259917356 -0.01065547614585777 -0.15750696845992376 -0.017067529833509704 -0.04994368114162266
-0.12432416233194693 -0.13958323353030969 -0.04289721865992434 0.022322825808352095 -0.008427401888028044 0.05550290386481934 0.02101743002159552 0.1308829647287166
-0.091170763033122 -0.018498098013810804 0.022518558903683046 0.05062099626267191 0.02032336353767789 0.09279207562927606 0.07629789471867023 0.030341380603105237
0.11788787940043059 -0.011060553220079176 -0.014733289976865455 -0.010084021193111494 0.0016930702850259283 0.009612664172858061 0.06693627033889736 -0.0472429828521152
0.008621826954163287 0.01719008408933406 0.00933776239424651 -0.03563598068565853 -0.08916519245082244 -0.03258246179817498 -0.08560240475036777 0.013880161049457568
0.06991937475605732 0.09352451280262508 0.0227477860444241 0.08753024517781086 -0.008991394938321634 -0.003628117067137121 -0.014525712798402785 0.06786127960528868
-0.03739693054014104 0.00470918321365412 -0.0724672519894393 0.02700126202780453 -0.04617450389155002 -0.0009474140023103958 -0.04516241735234245 0.014391373155753031
-0.0408016197183294 0.09263944925906833 0.22799135031039025 0.18170890523305233 -0.06087805008974573 0.0036534766465450242 0.050865805101084245 0.12166006704710781
-0.006885087720164555 -0.014579170352228514 -0.033212507656186864 -0.06614228810348861 -0.030692595110646374 0.012693541649391087 0.08984197120161025 0.0017436062758767717
-0.14596532591457304 -0.06594656852884512 0.11139992451180467 0.18805089252879137 -0.08901716884335263 -0.07219176731479195 0.037096275716399306 0.18446612691105244
-0.008040218898616695 0.018072482633796613 0.013557851479187985 -0.1471857005749155 -0.08522318941401943 -0.022787754493846006 0.006995267789904314 -0.034316470508991205
0.09900887406456205 -0.0035769562865555476 -0.06967042674138463 -0.1091502753563685 0.12991963554658745 0.03297631380859294 -0.10109920065096936 -0.20888163015121788
0.08856539025947238 -0.14878563720609173 0.020681271707516914 -0.01921574538239248 -0.044405409931976246 -0.11497405457071745 -0.05898218663460159 -0.019714811207069947
-0.08867633103410982 -0.15984317258766878 -0.150374067672428 0.01528504773568492 -0.10175381763516016 -0.11630990211262696 0.037711224539696164 0.1552440571697284
-0.09601563334087475 -0.02047373086890185 0.08811377996722462 0.03830386830814301 0.016967733311805056 0.12758442957259342 0.08291010845778386 -0.11592507107610148
0.05773737574424779 -0.02094799917899935 0.015755889778261485 0.02112828151043519 0.09426912375129279 0.017771921445462243 0.01514976608633749 0.051297679804198464
0.014209487057748386 -0.12020608612736343 -0.029610921804343555 -0.028517924838850364 0.04967846672800391 0.017553925837387095 0.007374214992129339 -0.0934478050833467
-0.0695362957776641 -0.10994857465860619 -0.11578611188911785 0.08919233840399804 -0.10505073849964117 -0.02459367637395194 0.10580379948392214 0.25762579215253073
-0.024394716330944224 -0.05250070199595876 -0.13305940459375928 -0.07221858066432381 -0.019521222231626695 -0.03266197138327221 -0.050364672805330905 0.015360103763923836
0.18061581267184632 0.15106570161884114 -0.08896956885296509 -0.12452952321042411 0.1182331516662663 0.1332263059895872 -0.10013526124914832 -0.1898819182418095
0.07109758970861002 -0.024389682104116777 0.033907594727229255 0.0117086408432296 -0.14574045941309258 -0.04962882684232354 -0.04506978027772614 0.05793271462811151
0.006522022945833616 -0.0352123830461493 -0.04514237389672439 0.10845467625624157 0.012291850296157697 -0.09292196308283661 -0.19212799058564828 -0.13857760734752694
-0.0784625559156752 0.024845541208456685 -0.0810989335392775 -0.0790601036346573 -0.08373022744985531 0.08115054562598566 0.14823294583268784 0.11914166562738288
0.08797134766354348 0.12010259505728507 -0.1547812829785118 -0.03628146334877901 0.04405708174329878 0.04394028787045621 0.03864330730473707 -0.005335777668871877
0.04044579349558856 0.04531864589500358 0.04471181470023469 0.040654672050203323 -0.051416191614575515 0.06399393247574801 0.013747476106890737 0.04520760972196663
00000000: b285 a607 0733 8b3f 6385 d366 0e6a 9a3f
00000010: 2f88 6a7b 2bd7 993f 8e13 3df9 d051 c73f
00000020: 2dff ee1a b7db 97bf 3f2c 6c40 22d9 b5bf
00000030: c910 b275 d30f c2bf 3163 87e8 1959 d4bf
00000040: 9103 5494 5452 9d3f c02b b2f4 9d6a bdbf
00000050: d18e 8bae 1320 c5bf 8328 9de7 c5fb c0bf
00000060: 6b42 abed ade6 b6bf 0c6e 82e7 8ed1 b43f
00000070: 447e 3336 faa4 ca3f 77fb 95ff 70ff b93f
00000080: d464 c1bf 9b4c 9fbf c779 9557 6d3f a9bf
00000090: 9405 4996 8f20 9d3f cc5a 0eed 26b3 83bf
000000a0: 30ef 5ffa cb47 9d3f 4390 8451 bb46 a1bf
000000b0: 87a4 9a5a 43f8 9dbf 9629 6e87 9007 ac3f
000000c0: 9a68 3cbd 4a72 acbf e022 2117 37a6 66bf
000000d0: 2c04 0df2 18f3 98bf b823 9350 42f5 843f
000000e0: 5e36 c36f 4106 a33f 1cc4 f268 76a3 95bf
000000f0: be02 31f7 5c43 9bbf 7875 99e4 5471 a83f
00000100: 9c9c beea 2d98 b63f 06ce fe44 3f92 bbbf
00000110: dc94 f4ce 3f26 afbf 503f 4949 9169 9fbf
00000120: 2ce1 192d 7bc5 a8bf 1451 dfb0 34a6 d0bf
00000130: 70fc be36 e669 b83f 2304 3966 6b31 733f
00000140: fcea 2b4d c183 a83f 742a 21e8 f063 b4bf
00000150: a7c1 9764 f9aa 953f 74af 26f8 7cac 95bf
00000160: b025 aac9 71a6 c33f 2fa4 43cf beea afbf
00000170: 342c ae80 95e2 c1bf b4b1 c7a2 247e 96bf
00000180: 25f1 6d04 e5ff 793f b7df 0535 9169 a73f
00000190: a2b3 1e1f 07f6 b0bf ad5b 0e6f d7f2 82bf
000001a0: dbec bfb5 c67b aebf 1cd8 b0dc 94af a8bf
000001b0: 5683 2929 11d1 b3bf 45f3 a1bb 026e 9e3f
000001c0: 28e6 7db2 a152 92bf 82da f327 35fb ac3f
000001d0: fdbe 32f0 e433 93bf 11b2 1ec1 c60f a43f
000001e0: 22e2 8ecc 89d2 85bf 89b7 3637 3029 c4bf
000001f0: 486e d589 267a 91bf 564d 4ada 3792 a9bf
00000200: 947c 5153 b5d3 bfbf fd92 8a07 dddd c1bf
00000210: 3eac 77ce 9ff6 a5bf bf67 347b cbdb 963f
00000220: 42a0 febb 6242 81bf 9b67 dd69 e06a ac3f
00000230: c4d9 5ada 9785 953f 8f82 8ee2 c5c0 c03f
00000240: c020 9495 f756 b7bf 50b3 0758 2af1 92bf
00000250: e26e 2de8 1a0f 973f 90d3 e0c6 feea a93f
00000260: 51c8 f4d6 a5cf 943f e9db 27b2 38c1 b73f
00000270: c901 9242 4288 b33f c990 9f95 cf11 9f3f
00000280: d3a0 9e6a e62d be3f 0fe6 d852 eaa6 86bf
00000290: 5dac e7b4 7c2c 8ebf 8e86 e469 eea6 84bf
000002a0: 52cb 4160 40bd 5b3f a4b4 fff1 cdaf 833f
000002b0: 4f93 0544 bc22 b13f 1872 a174 3b30 a8bf
000002c0: 5733 6606 52a8 813f 17ae ea03 479a 913f
000002d0: 6811 cf40 ad1f 833f 3e2a 3617 e13e a2bf
000002e0: 6890 84b1 87d3 b6bf 4852 b1ff a5ae a0bf
000002f0: eb9d dc08 0aea b5bf ca41 2aae 336d 8c3f
00000300: dd1c ef73 3ce6 b13f 5892 dcf3 38f1 b73f
00000310: 0905 7814 324b 973f 5216 73d4 6168 b63f
00000320: 23e3 a499 146a 82bf 8dfe c784 b6b8 6dbf
00000330: d0a0 5c2b a8bf 8dbf f2c5 9158 5b5f b13f
00000340: 7008 48c3 b025 a3bf 17d8 4bbe ef49 733f
00000350: ab5c 53bd 368d b2bf 67ca 7005 38a6 9b3f
00000360: 4618 3f40 2fa4 a7bf 83d5 ed13 7c0b 4fbf
00000370: 09bf 1243 871f a7bf 8e4f 6368 3979 8d3f
00000380: 9fcb a02c f3e3 a4bf 421c e30c 38b7 b73f
00000390: 0e50 ad10 d22e cd3f 1a18 afc6 3c42 c73f
000003a0: a802 5c64 682b afbf f6e5 d556 e5ed 6d3f
000003b0: e9a8 c932 150b aa3f 854d 3239 1d25 bf3f
000003c0: 4542 69a9 8933 7cbf a9d1 ec1e afdb 8dbf
000003d0: 5d27 67d4 3a01 a1bf f57e 4974 b3ee b0bf
000003e0: 211b eb30 e16d 9fbf c950 0952 12ff 893f
000003f0: ac7c 1e28 e2ff b63f f3bd a5fb 3691 5c3f
00000400: e197 93e6 fdae c2bf 5c64 1dd3 dfe1 b0bf
00000410: 0e19 8e98 b484 bc3f d087 b238 0d12 c83f
00000420: 37f7 f644 d4c9 b6bf 2950 a8df 287b b2bf
00000430: 23bb 0276 48fe a23f b3c0 2607 969c c73f
00000440: af25 c7e9 6377 80bf 8c8e 7ac7 9781 923f
00000450: c537 a805 38c4 8b3f f73c 3425 fbd6 c2bf
00000460: f2de 64db 2fd1 b5bf ce8d 3351 ac55 97bf
00000470: e781 26e6 11a7 7c3f 6dbc 19ad ed91 a1bf
00000480: e0fe 1e44 a558 b93f 3ca8 a3c8 6b4d 6dbf
00000490: b444 5acc ebd5 b1bf 8347 01bf 45f1 bbbf
000004a0: 4ff2 e3e4 34a1 c03f f779 b37a 45e2 a03f
000004b0: 8a99 7220 a3e1 b9bf f508 1e1d a2bc cabf
000004c0: 26cf b8ae 38ac b63f 6414 f562 680b c3bf
000004d0: 4a70 7ea6 782d 953f 474b f1d7 4aad 93bf
000004e0: 4bbc d84e 4ebc a6bf 630e 458c f06e bdbf
000004f0: 19cc 48c5 e932 aebf f953 8695 1e30 94bf
00000500: 7c84 b8f5 7db3 b6bf b85f 60b7 bd75 c4bf
00000510: a4e7 681b 753f c3bf 6df9 2361 c44d 8f3f
00000520: 0b75 fcc6 890c babf 5a52 c659 7cc6 bdbf
00000530: 9822 2eb8 e24e a33f 869e 388a 09df c33f
00000540: 9b91 1a05 7b94 b8bf 8c41 09d2 10f7 94bf
00000550: 6b42 49eb 9f8e b63f 2d35 638b 909c a33f
00000560: cd53 a54e fd5f 913f 081e 3fc4 af54 c03f
00000570: ad80 55cc 9839 b53f ceee 0ef5 43ad bdbf
00000580: 1525 28d9 c08f ad3f bbce 8f6d 6473 95bf
00000590: 429f 44dd 4f22 903f b797 6ef8 a6a2 953f
000005a0: 16cd 8873 0522 b83f 5fd4 9475 cd32 923f
000005b0: d91d 102f d706 8f3f e74a 3d82 b043 aa3f
000005c0: c2d0 a511 dd19 8d3f bb7a b278 d3c5 bebf
000005d0: a22a 0453 5352 9ebf 946e 218a cd33 9dbf
000005e0: 000c d3bb 746f a93f 764c 8d05 a8f9 913f
000005f0: 9e0f 99c3 6c34 7e3f ef48 b702 32ec b7bf
00000600: 4a03 4074 21cd b1bf 0089 66fc 9625 bcbf
00000610: db0e e59b 28a4 bdbf 4cba 7f20 4fd5 b63f
00000620: b6cf 46ee 9ae4 babf 22ae dbae 152f 99bf
00000630: e773 9332 f515 bb3f 79ad f9e3 f07c d03f
00000640: 57ae 58b3 edfa 98bf 2aeb 2d3c 5fe1 aabf
00000650: 13e5 932f 1708 c1bf 2de7 1dba ea7c b2bf
00000660: a84a 400c 5ffd 93bf 51fd d3e5 11b9 a0bf
00000670: a730 25fd 65c9 a9bf c53d a23a 1e75 8f3f
00000680: 1374 4840 6b1e c73f 1c07 00f4 1e56 c33f
00000690: 740d 90ac b5c6 b6bf 3943 93b5 2ae1 bfbf
000006a0: c4a9 b51f 8744 be3f e598 9841 8f0d c13f
000006b0: 7ad3 3de8 76a2 b9bf 02a4 79fa 0c4e c8bf
000006c0: c876 9f9e 7333 b23f 4bf2 fcdb 9bf9 98bf
000006d0: 6f02 e114 565c a13f e6ab 042c b3fa 873f
000006e0: 450e 7195 9fa7 c2bf 6508 7418 f368 a9bf
000006f0: b256 a9e0 6213 a7bf 8979 6455 5ba9 ad3f
00000700: 190e 1934 d6b6 7a3f 25e3 3183 5b07 a2bf
00000710: 72b8 19b7 e61c a7bf 556b 9e87 afc3 bb3f
00000720: dd0e 3c38 782c 893f df59 85d8 bbc9 b7bf
00000730: 3e14 1b66 a697 c8bf cafd c139 e9bc c1bf
00000740: 394f 9e3f 1f16 b4bf f557 c40b 1c71 993f
00000750: 2cab 4a53 e6c2 b4bf 377b 876f 483d b4bf
00000760: f471 951c 586f b5bf 5723 843b 48c6 b43f
00000770: df43 4513 4cf9 c23f 5ce8 7575 1180 be3f
00000780: ec30 334d 4a85 b63f aa8e ef2d 0bbf be3f
00000790: 087b 3682 dfcf c3bf 2f6c 11e5 7b93 a2bf
000007a0: fc44 7d5a a68e a63f 5dc8 c266 577f a63f
000007b0: 2e8f 2a3a 0ec9 a33f 336f 62e9 f7da 75bf
000007c0: 950d a6a0 4fb5 a43f 333d 096c 0134 a73f
000007d0: 74bf c38b 77e4 a63f ad3c c56d b0d0 a43f
000007e0: 8a5e f01a 3953 aabf 7732 2007 e861 b03f
000007f0: f6ca 4002 a327 8c3f f785 92aa 7325 a73f

fc1_bias f8 [50]
0.03563767199578001 -0.04238027721549334 0.02465139205758509 -0.02751695829727606 -0.004606371854760096 0.016425575507206906 -0.05606092507863366 0.025476610609433282
-0.07041754048217991 -0.025982469390458587 -0.003816299318728507 0.02087397623068499 0.017428323893690333 0.056890596151144224 0.003479959544413603 0.023834001894516326
-0.014005218077874592 0.012405428675267052 -0.012490335636584457 0.005284611478892534 0.002941848877462253 -0.0018457589535498904 0.016120399175367024 -0.07549184712555423
-0.06256319263570663 0.007711574785203539 -0.0009000647321510089 -0.014581737848337977 -0.0069045563197912205 -0.043903749598734824 -0.008336970127408241 -0.04941595681271123
0.04984657867328525 -0.03345761913816887 0.031985569075324266 0.048701652456159074 -0.04207450023496051 -0.036128522266237556 0.008906919009485363 -0.01565840331976285
0.027934137961284963 0.03555076363793922 -0.025479348669067804 0.032130095269616334 -0.0031958101355295913 0.001727198876454835 -0.015604314999660224 -0.023472697323733624
0.03840399296407267 0.01122953066722956
00000000: 5a74 74d7 193f a23f 449c 4521 deb2 a5bf
00000010: 0eb8 c0ea 363e 993f 7c87 e3cf 672d 9cbf
00000020: 82b3 8287 21de 72bf be58 7cb6 ddd1 903f
00000030: 7bac 977f 04b4 acbf bd92 8565 8a16 9a3f
00000040: 448b 6f49 e206 b2bf a792 3401 269b 9abf
00000050: f77f 8018 5c43 6fbf 613b fed4 fc5f 953f
00000060: 0609 9704 bbd8 913f 5095 d6a3 c320 ad3f
00000070: 02bb e80d 0182 6c3f dbd2 adca f067 983f
00000080: 464b f18c c4ae 8cbf fb03 a073 0468 893f
00000090: 18ff 9978 8894 89bf 4322 9517 51a5 753f
000000a0: a1be fd16 8119 683f 2cfc df95 ac3d 5ebf
000000b0: a5d3 06ad dd81 903f c8d5 8406 6f53 b3bf
000000c0: cfbf 4d32 2404 b0bf 5fba 0c18 2c96 7f3f
000000d0: df24 604b 4a7e 4dbf 966e 6bb9 07dd 8dbf
000000e0: 58ea 63b9 f347 7cbf b78c 6561 8d7a a6bf
000000f0: 5b0d 5c30 f912 81bf 5a81 d25c 0c4d a9bf
00000100: b241 70a2 7d85 a93f 2a3c 0068 5b21 a1bf
00000110: f4b3 3e9a 6960 a03f ade7 1e49 6cef a83f
00000120: 0068 02f5 c98a a5bf 442f 2c0b 707f a2bf
00000130: bcb4 d46e ca3d 823f 3af1 a9a8 c108 90bf
00000140: bf53 f143 c49a 9c3f f575 58ae b533 a23f
00000150: 2d32 0725 4217 9abf d5fc cc18 5b73 a03f
00000160: d8bb 8580 192e 6abf f032 09ac 654c 5c3f
00000170: d0d8 ccb4 27f5 8fbf ccd8 6a0d 3a09 98bf
00000180: 1a0d a22b b0a9 a33f 4db0 b817 82ff 863f

fc2_weight f8 [10, 50]
0.4686384036850408 -0.4303471070139228 -0.34935046393329455 0.009797344661941019 0.493282744207881 -0.025051675549283444 0.417884095486269 -0.3710197787149194
-0.1502902050401967 0.43838338652756054 -0.34002795130585683 -0.3091024126609262 0.41514586524437497 0.06250476253037486 -0.31341657396001904 -0.34691997503462835
-0.20306746647472113 0.3784243318625193 -0.13923499905459244 0.31322565007129904 -0.1982322080996811 -0.3411990254989683 -0.07226350209980242 -0.37176087159079013
-0.13263613807480645 -0.13010746955845356 -0.14766793933591507 -0.19525916792969816 0.019767641374572688 -0.3546734860450476 -0.21217052220937807 -0.10262910962346114
0.5468096093396868 -0.12139270519097797 0.42454745640532726 -0.5015223842952585 -0.10742337277417362 -0.40760237569286134 -0.3715541421048811 -0.4702632966136871
-0.1463557598401463 -0.38934363332125754 -0.22960489278911225 0.12719453274816628 0.4396090538464227 0.4529832572727206 -0.04481372578836067 0.3945935056883883
-0.16534795827388502 0.5263249741553448 -0.4227197496247176 -0.39434843658958235 0.46378764122863003 0.12375915139521758 0.4663172938685886 -0.29760015168724707
-0.20372887607058457 0.5030722972793156 -0.01382855662714859 -0.3519902083555017 -0.3700549440265824 -0.15593177779323594 -0.31728985579940383 -0.4056924906150618
-0.2866466796438321 0.389272105977157 0.5238059633034606 -0.23442858604792027 -0.08252913352495335 0.26991217706962634 0.09253122200485323 0.5034650769312687
-0.3118006434611414 -0.12335334367464952 -0.26243749762107216 -0.17630042153075284 -0.14899141542070946 0.3838178182443433 0.05150230346837492 0.5273974066020128
0.20611464440782667 0.014834869745786749 -0.3266418685881728 -0.11987933719826853 -0.30449892228615294 -0.42116648827760156 0.10417212447007951 0.3066690897803989
0.26666381994121496 -0.3646251094279069 -0.2951652613659335 0.28429664817928 0.6298971681261155 -0.11992798648905051 -0.400855653616802 0.41096131444441414
0.06825411918874555 -0.10134692438338151 0.34549743292663393 -0.11756757693435914 -0.3172526188781492 -0.5335265122114844 -0.30283029689706514 -0.12452645496233768
0.4547688666945429 0.03761664467227993 0.26899262425677944 0.08282078607040777 0.6110827497099112 -0.15084409583144112 0.0023544696756750087 0.2473783686290519
0.28805156245032776 -0.4473140938605449 -0.254903813872983 -0.1958710100852132 0.5258051503001417 0.28188681874506294 0.041587234592467125 -0.258610959739324
0.5343672516603327 -0.25311701561370614 0.5259403248953417 0.40617279749268803 -0.15696575665179854 0.25076962224879606 -0.23896950934845781 0.29931938030200944
0.4221032736889919 -0.13962135449811586 -0.42033901242881194 -0.3003346898640344 0.4992086626912627 -0.22365045841226033 0.3911758485155475 -0.3534550155106808
-0.09046532556857434 0.18106968530188053 0.3899651279598567 -0.33527168471859464 -0.23826864179479582 0.29573946955712804 -0.35600884817668466 0.28560577960882966
-0.12138175154193219 -0.13538426077022592 0.368914138533555 0.007523236791113936 0.25965628417924436 -0.2482966148463401 -0.2870198573339289 0.32817524692822236
-0.24024980240569122 0.0017888401232135252 -0.32946955376493847 -0.21095797112061057 0.336706907873338 -0.368394474588916 -0.1467445508874055 -0.260217736033204
-0.15143668721366244 0.3065409042217195 0.36872760195146376 -0.29087156700989614 -0.2851328791891746 0.38053191353947285 -0.23622570685003252 -0.49013191085758595
0.06631435083685457 -0.42617622834211893 0.5830573931340279 -0.3128355823759754 -0.26025634369940415 0.449458386073241 -0.1721381672607334 -0.3219157198521736
-0.12798010689583753 -0.303404828064261 -0.207192852633895 -0.32308484965008805 -0.1276861192463154 0.7521148687423386 -0.10307013261511065 0.5727912228199549
-0.03509872611751584 0.34452342328281715 -0.1383489718515204 0.3189520226428929 0.03186429350483559 0.10490474382628316 -0.16163897744275152 0.3328714266421054
0.017258967544420693 0.33413720871790914 0.11548265618382632 -0.21414378558072678 0.3730328582381358 -0.3490111247280408 -0.4440330477810035 -0.13076303225962108
-0.18689645170891778 0.2650524072454407 0.4072264555421952 -0.04134952988015069 -0.2170099656711329 0.472605795707035 0.28426034250413956 0.46280333727081197
0.015571180614187354 0.3998850810305505 0.4270525311890727 0.22293808755266326 -0.3331517609288742 0.1598044257897387 0.4041492646738569 0.3208953026285475
-0.2081713836008792 -0.3419624467305934 -0.013542319753550369 -0.21554442602936358 -0.22313124414375574 -0.1473656441250057 -0.19912621459903268 -0.4052099871419391
0.4031560700224089 0.5563708763172929 0.49730093468491393 0.3183369966723338 0.48799754102488835 0.4677520943913139 -0.09529811836763448 -0.12395005197300915
-0.18627539951533081 -0.2382535002699988 -0.1830861222632622 -0.20961952330927774 0.13835404492200973 -0.14515095283555865 -0.245509963199474 0.24884328678583376
0.34346179033837804 -0.19617571503302603 -0.054576292595752404 -0.3780080534867639 -0.38664707547497046 -0.16973999662968453 -0.344003491059374 0.1151239571596204
0.32772200210734237 -0.06448218737981275 0.4303491745768856 0.2977846633017826 -0.2819427985625256 0.04697637303829323 -0.23524839393327207 0.005713606201386981
00000000: 7785 5eee 2bfe dd3f 8764 a397 ce8a dbbf
00000010: 3de6 5b0c c25b d6bf f210 4957 a110 843f
00000020: 7274 83c9 f191 df3f dfd5 c67c 25a7 99bf
00000030: c773 e8ee 9cbe da3f acfb efbd c9be d7bf
00000040: 8a44 c79d b53c c3bf e7b7 0f31 790e dc3f
00000050: 0869 a598 04c3 d5bf 7293 5f7c 55c8 d3bf
00000060: 65d4 92f6 bf91 da3f 5986 e9e6 4f00 b03f
00000070: 7db0 cb63 040f d4bf 5895 c6d6 ef33 d6bf
00000080: 06fc b15f 1dfe c9bf 0b0d 57b0 1a38 d83f
00000090: cff3 b2d3 73d2 c1bf bfc5 d498 e30b d43f
000000a0: d3a7 6649 ac5f c9bf 287d fc6f 34d6 d5bf
000000b0: 548c 3662 dc7f b2bf b58d 5a1c eeca d7bf
000000c0: c046 a691 38fa c0bf 0d04 5c8f 5ca7 c0bf
000000d0: a1c7 0e75 c8e6 c2bf ee48 409e 40fe c8bf
000000e0: ca31 e4f4 f73d 943f 3d98 d46b f8b2 d6bf
000000f0: 3542 0857 6728 cbbf 164b 73bd e645 babf
00000100: 6814 a8dd 767f e13f 0eaa c4a2 9713 bfbf
00000110: 6f18 3718 c92b db3f 9252 d8ab 780c e0bf
00000120: a31e e420 1980 bbbf 0ddb 5746 2816 dabf
00000130: cb29 4206 8bc7 d7bf 79c1 dd39 cb18 debf
00000140: c51d 0c19 c9bb c2bf ca51 018f 01eb d8bf
00000150: 05f2 c370 b163 cdbf 7012 3113 e947 c03f
00000160: d6ef 5203 8e22 dc3f 08cd e77c adfd dc3f
00000170: 1689 581d d3f1 a6bf cd51 891e 0541 d93f
00000180: 2794 9f34 1f2a c5bf 8a16 e278 a7d7 e03f
00000190: eebb 0023 d70d dbbf 1362 9839 013d d9bf
000001a0: ae6b d75b b2ae dd3f 6bbb d203 aeae bf3f
000001b0: 4763 ae7d 24d8 dd3f e401 b281 e10b d3bf
000001c0: f5ab fcad c913 cabf f2d2 0a13 2b19 e03f
000001d0: 1945 b773 2552 8cbf f38a 59f0 0187 d6bf
000001e0: 594e 94ee faae d7bf 23b9 038f 92f5 c3bf
000001f0: 26b4 801c 7a4e d4bf a32a dba2 ddf6 d9bf
00000200: a1f1 a450 6b58 d2bf 12af 1a8d d5e9 d83f
00000210: 0ad2 3ab9 04c3 e03f 3063 2983 c101 cebf
00000220: ddf6 7419 a120 b5bf e298 53b9 3d46 d13f
00000230: 9aa8 5e4c 20b0 b73f 3022 03cb 621c e03f
00000240: 1564 a2af 8af4 d3bf 8553 efb0 1594 bfbf
00000250: 88b3 61a5 c6cb d0bf bf6f 5f20 0391 c6bf
00000260: efef 4e94 2612 c3bf 55d1 3e9c 7890 d83f
00000270: f073 218a 825e aa3f 3e3a ab86 70e0 e03f
00000280: 14a9 7af4 f661 ca3f 8647 3083 be61 8e3f
00000290: 46cb c54b b3e7 d4bf 8393 bb88 69b0 bebf
000002a0: b0b8 380c e97c d3bf abb3 5449 64f4 dabf
000002b0: 30fb c03b 06ab ba3f f741 d363 77a0 d33f
000002c0: 0322 6b20 0511 d13f 1fc5 128e 0456 d7bf
000002d0: b5d8 1ed6 fce3 d2bf 1ab7 9291 ea31 d23f
000002e0: d13a 1e1b 1e28 e43f 5c79 d8bb 99b3 bebf
000002f0: 08db ac78 9ea7 d9bf 836f 5daf 304d da3f
00000300: 7ea2 bb19 1a79 b13f eddc c63d dff1 b9bf
00000310: ee65 d143 a11c d63f ffc6 00a2 e818 bebf
00000320: 6bba a9ed dd4d d4bf a3e9 2f31 a612 e1bf
00000330: 9d4b 5a53 9261 d3bf 8dd0 8c3b f7e0 bfbf
00000340: 794a 6ce0 ee1a dd3f 082e 4e25 7d42 a33f
00000350: cf13 03d7 2c37 d13f 40f6 9937 be33 b53f
00000360: 1cec 2469 fd8d e33f 6d03 32fd db4e c3bf
00000370: 34d2 3448 ae49 633f 3bf3 7f29 18aa cf3f
00000380: 854b 12d2 6f6f d23f 44f0 0a4b cba0 dcbf
00000390: d272 0d16 5850 d0bf 0776 461f 4d12 c9bf
000003a0: 6c70 9352 65d3 e03f e0be eb02 6f0a d23f
000003b0: 8bee 0209 ec4a a53f a8ec 9dfb 148d d0bf
000003c0: ade7 bd59 8919 e13f acce 07b6 1133 d0bf
000003d0: e556 e2cd 80d4 e03f 1761 7030 bcfe d93f
000003e0: bfa7 b433 7417 c4bf f8e2 9807 9c0c d03f
000003f0: 0747 b289 8d96 cebf 0631 5d79 0c28 d33f
00000400: 2ad7 0173 bd03 db3f b441 b2cf 1cdf c1bf
00000410: ff56 e799 d5e6 dabf 4b80 b4fd ae38 d3bf
00000420: 39e3 08e4 08f3 df3f 42db 4e06 94a0 ccbf
00000430: 35ff 166d 0609 d93f 5c6f 0ec9 019f d6bf
00000440: 6030 bd4e bc28 b7bf 5194 559c 4a2d c73f
00000450: 2ac1 ca4b 30f5 d83f 3509 495e 1775 d5bf
00000460: e5e2 153c 967f cebf 9897 783d 65ed d23f
00000470: f259 0056 d9c8 d6bf 05fc bd76 5d47 d23f
00000480: ff2b 34dd df12 bfbf 5c5c 337e 4554 c1bf
00000490: 0727 020c 4a9c d73f ba78 a57f afd0 7e3f
000004a0: 120c 3064 359e d03f 277c 3cf8 2ec8 cfbf
000004b0: dc50 2389 885e d2bf cb75 3ac0 d200 d53f
000004c0: d2f8 196a 81c0 cebf 4c27 ed74 f04e 5d3f
000004d0: 12ae 9c77 0716 d5bf 8d92 65b9 ab00 cbbf
000004e0: 34cf 6921 9b8c d53f 5fbc 186b c693 d7bf
000004f0: 12bc 7683 86c8 c2bf 6e83 864a 68a7 d0bf
00000500: 44a6 7f01 4762 c3bf fb2f a1bd 5d9e d33f
00000510: 13e6 e0a7 3b99 d73f a233 e9c6 a39d d2bf
00000520: ce6f c8f9 9d3f d2bf 1f20 ef86 a25a d83f
00000530: 949b b2da a43c cebf 15ff f63b 525e dfbf
00000540: e989 1930 faf9 b03f 49f8 c3a8 7846 dbbf
00000550: 0a74 66fa 67a8 e23f 8c1d d588 7f05 d4bf
00000560: 91fd 3039 0aa8 d0bf a33d 461b edc3 dc3f
00000570: f89c 639b 9f08 c6bf 2856 3564 449a d4bf
00000580: 91fe d3f2 a661 c0bf 1d02 7f15 fc6a d3bf
00000590: fd85 039f 4b85 cabf 1522 c513 6cad d4bf
000005a0: 5675 28cd 0458 c0bf 7bad 8233 5311 e83f
000005b0: 7fba c6e0 cd62 babf 5f52 2e42 4e54 e23f
000005c0: eeaa 9cd1 75f8 a1bf 9c29 edf8 ab0c d63f
000005d0: f4cc c44a 6bb5 c1bf 3aa2 8fbe b569 d43f
000005e0: 36de 0645 8450 a03f 63dc ed8b 09db ba3f
000005f0: 5e10 f004 96b0 c4bf 5dd8 ccf4 c34d d53f
00000600: 21ff a9b4 55ac 913f 457d f407 8162 d53f
00000610: 3593 9077 4590 bd3f 64fd da45 1069 cbbf
00000620: 2ed6 9d35 c5df d73f 496a a9c1 3256 d6bf
00000630: e401 a496 096b dcbf cd59 8ad1 d7bc c0bf
00000640: f003 ea11 39ec c7bf 6f18 365f 9ef6 d03f
00000650: 99a9 278d ff0f da3f fb97 14fd c32b a5bf
00000660: 3257 bb88 fbc6 cbbf ae8d 1d61 2c3f de3f
00000670: f2b8 a64a 5231 d23f ebb2 83e3 919e dd3f
00000680: 6efe fb7b c8e3 8f3f 3fcf 4b98 b797 d93f
00000690: bc63 c823 d454 db3f 0a26 8939 3c89 cc3f
000006a0: 3ad6 72c3 5b52 d5bf 3af1 42af 7874 c43f
000006b0: a881 9ee0 94dd d93f 54b2 8e73 8c89 d43f
000006c0: 41b1 4322 5ca5 cabf 2ec1 4a75 b6e2 d5bf
000006d0: c6b6 a063 13bc 8bbf 6acb 50b2 f596 cbbf
000006e0: ac17 288a 908f ccbf 6612 099f e0dc c2bf
000006f0: e853 bdc1 f77c c9bf a261 b2de f5ee d9bf
00000700: 4987 fb1d 4fcd d93f 2959 c74b cacd e13f
00000710: e77b af4c c7d3 df3f 5521 7423 a25f d43f
00000720: 76bd ce09 5a3b df3f e9f4 027b a6ef dd3f
00000730: 4163 c21d 7565 b8bf 5ac3 8fcb 30bb bfbf
00000740: f1dc 7b4e dfd7 c7bf 1899 e837 177f cebf
00000750: 0670 bcb5 5d6f c7bf e2b4 9b02 d0d4 cabf
00000760: dfcb 1ad9 95b5 c13f 33bb b471 4e94 c2bf
00000770: fa56 64d7 de6c cfbf d382 49c9 18da cf3f
00000780: cb73 3b29 47fb d53f a50a 2b2c 491c c9bf
00000790: b6de ab7f 6cf1 abbf d26a d6b0 4831 d8bf
000007a0: 2494 1060 d3be d8bf a47f 2c4b 0aba c5bf
000007b0: 6ad4 f337 2704 d6bf b696 fc7e c378 bd3f
000007c0: 70c3 4eb4 65f9 d43f f388 f895 e781 b0bf
000007d0: bac5 aa43 d78a db3f f36a 8867 e70e d33f
000007e0: 04cd cace 590b d2bf 5ab1 c483 490d a83f
000007f0: 7ea1 308f 9e1c cebf 2a54 6f7c 2667 773f
