trained_models/mnist_mnist_lenet_15_epochs.model (torch_old, 199884 bytes, 8 tensors)

conv1_weight f8 [10, 1, 5, 5]
0.04832672156697764 0.07387197851420134 -0.003282441778306247 -0.5410582298218296 -0.7383336870059869 -0.423974726792161 -0.14605780151305114 0.8108843440767932
0.3289187972656096 -0.599568659077851 0.33039708822283204 0.32361067295962714 0.8000377306967899 0.5902971104237942 -0.40279089385192546 0.18015162054186243
-0.27562449963985486 -0.0347054487657307 0.5028742659293058 0.2168996132173366 -0.3380899411987351 -0.6511024115763162 -0.40317171331221663 0.3577652390709323
0.65397816214146 0.026823452666918796 -0.22637485306767033 -0.33476983404228755 -0.5022359291838572 -0.3685092522658141 0.20632073681087745 -0.47420673148312825
-0.7543876092928501 -0.5773809680561477 -0.7037641089742007 0.037766314394785006 -0.1688215327283786 -0.5467918855373146 -0.55087806377813 0.1948990200698708
0.20196866272282957 0.3197059951370574 0.4628558566485375 0.6470409873330139 0.7632770612790768 0.41433927483833854 0.5492095148977604 0.712237908156598
0.9066246982988031 0.40359475381075205 0.6120076564927953 0.5894470688892127 0.6708694546344608 0.5638386758537515 0.6314666343214761 -0.24058190233892632
-0.05679118134418024 -0.0327060443625926 -0.13267024158066926 0.10036486836501289 -0.5281233034115398 -0.5386316208215928 -0.556351859321266 -0.33156091081902195
-0.40352877879284094 -0.3973094410915001 -0.4825945547268386 -0.2522508686703374 -0.3842078838975084 -0.2018925127337402 0.2737021376636779 0.10627678009609633
-0.07627497877939901 0.058275046716976156 0.060544129960367274 0.09847020805436742 -0.0929189211898191 -0.316678242318579 -0.4639487770302182 -0.7230247815243628
-0.24067373938899084 -0.08474350975319019 -0.4062675993853422 -0.44909859053408885 -0.5833637030355011 -0.0002376402655900339 -0.42753923587717824 -0.4544491871053577
-0.4792705931422275 -0.1470785349339181 -0.04206910458449734 -0.25043412151280714 -0.41998966646124647 -0.3678640674404234 0.0686306898958463 -0.12554209892112372
-0.45305030906379734 -0.29473301839432103 -0.1993731910939295 0.5227992638741308 0.05031660672592294 0.08937788584381025 -0.20612227069975794 -0.2545791818933285
0.04838774182632606 -0.14630448291459147 -0.30334345834544596 -0.3164336834392411 -0.2632309637535249 0.3466603782697717 -0.28876048242774244 -0.3724827340119641
-0.0427431443387555 0.5365592355735322 0.18434272594173953 -0.4069320151685869 0.015674134626561507 0.39315177975554083 0.3281275663046847 -0.059438932897631365
0.11553580823786852 0.3608990585987436 0.5298921841568683 -0.056858343383701486 -0.20685831667572008 -0.1829602302558221 0.29710926457047543 0.210589158536199
0.14148697216199144 0.13694663623544726 -0.1289784305832334 0.4607389409588069 0.648399024238255 -0.11384422000082202 -0.03668803624351617 0.12635365791322484
0.5573824501746388 0.3810506637908282 -0.17445903058087292 -0.1388422474290393 0.15685980732482882 0.600825667977567 0.08528934308249378 -0.5052917101346142
-0.24307546809744923 0.3557435543464274 0.5390936051844549 0.15130249481907315 -0.13882221789481292 -0.370520088075773 0.618765917044125 0.6513007922343138
0.2198642183955378 -0.30834227159911953 -0.34147194790373747 0.9644222354243807 0.17030039903893102 -0.6315576672641082 -0.570678352074788 -0.1386481665453706
1.0053477361868417 -0.11639578981808656 -0.5534367842204538 -0.5447020808517268 0.0223715488219138 0.5164285667174353 -0.26205328798602484 -0.4054200334060242
-0.17770032764646515 -0.07290031524689525 0.3819568057780929 0.13709494609935402 -0.1368020747402788 -0.07021395381015305 0.13939344316844493 0.3621376496818685
0.7695682775738403 0.9049172989938351 0.7808366802273045 0.5099305586169592 0.033004455648022464 0.1361235338589582 0.03342770453493858 0.0399219077070546
-0.33697977773391224 -0.13597623267117256 -0.30408086795325007 -0.314709075126473 -0.5121563018982039 -0.5771591911814984 -0.2632732156290277 -0.4185912346207042
-0.3687139341019281 -0.22365771055282976 -0.28542032350288443 0.056725628716232004 -0.11547704639011815 -0.29691032248949556 -0.10412030093983889 -0.008141500609340989
-0.050157744814357225 0.03946503129468361 -0.2429684225168455 -0.33966336149542703 -0.2854790187160239 -0.15586340223920106 -0.2767066946908795 -0.26626687803227767
-0.3534789302350169 -0.2464276480904988 -0.1778478248920867 -0.26098162801782754 -0.33278479520086657 -0.46180730681906934 -0.0004734010311444742 -0.21141021067377158
-0.31381576374055115 -0.25501069738604665 -0.07746149596222643 0.23975017102053492 -0.3754543196978354 -0.2332040753962082 -0.27003676394904647 0.19125180174551012
0.35082143511191055 -0.25583782673642524 -0.0068758060090888615 0.307481989043228 0.5035129444628741 0.21072972676094207 -0.5337262330208193 -0.30016331022189174
-0.16225768554433623 0.553936176896939 0.45833162311230796 -0.6131422466896213 -0.11476078122362922 0.17234459387365106 0.46756050423455114 0.06186915003906038
-0.54671038843959 -0.025110207264769844 0.535467492674004 0.15691518591935721 -0.1798531262253298 -0.3076026988498403 0.07191443898710209 0.3075954992792219
-0.14044088988990094 -0.029849050215962906
00000000: c75e 4eb1 47be a83f e72e cf23 46e9 b23f
00000010: b9da d782 c7e3 6abf 0820 4a59 5950 e1bf
00000020: de39 e7f7 6da0 e7bf 91c8 79e4 6622 dbbf
00000030: d87f 69a4 05b2 c2bf 5ebe 54b9 c3f2 e93f
00000040: 9ce8 526d 010d d53f 2b45 ce9c aa2f e3bf
00000050: 8d15 27d4 3925 d53f b1e1 3f8a 09b6 d43f
00000060: a014 1dba e899 e93f 2031 06c4 b6e3 e23f
00000070: c21e 0e75 53c7 d9bf d53b 4653 350f c73f
00000080: 977d fbf0 d4a3 d1bf d435 e29e e9c4 a1bf
00000090: f352 c5c5 8b17 e03f 0f4a a4d4 5dc3 cb3f
000000a0: 4187 23fe 43a3 d5bf f224 82b9 d4d5 e4bf
000000b0: dd49 d6ba 90cd d9bf 3c23 5d2c a0e5 d63f
000000c0: a243 569c 63ed e43f 6881 e16f 9b77 9b3f
000000d0: 57fe 47e7 d9f9 ccbf c488 3974 de6c d5bf
000000e0: 1c11 5715 5112 e0bf 5253 b0d4 a795 d7bf
000000f0: 8f6f 8bc8 b768 ca3f 75d6 d030 6759 debf
00000100: 0e74 cd7b f123 e8bf 8649 e4a6 e779 e2bf
00000110: 9791 044f 3c85 e6bf d89e 6e3a 1b56 a33f
00000120: cfe8 f6a8 f19b c5bf ea3a 43b2 517f e1bf
00000130: 0d59 8008 cba0 e1bf 487c 9c7a 73f2 c83f
00000140: 650f 9bf0 1bda c93f 15b9 5c22 1076 d43f
00000150: 7552 c42b 6e9f dd3f fe89 f84c 8fb4 e43f
00000160: 4361 ff03 c46c e83f dc41 b8e0 8884 da3f
00000170: b969 24d5 1f93 e13f 1921 5027 a7ca e63f
00000180: 240e 9ecc 1103 ed3f 1814 1d17 7fd4 d93f
00000190: 9738 b114 9195 e33f 7345 7319 c0dc e23f
000001a0: ab4a f137 c377 e53f ba60 2068 f70a e23f
000001b0: 3aa1 dd83 f934 e43f 4d0f 4745 63cb cebf
000001c0: 8d1f 26d5 bb13 adbf de74 d6bd d8be a0bf
000001d0: fee5 5ea6 56fb c0bf 0f8a 4b13 83b1 b93f
000001e0: bc0e 8dd7 62e6 e0bf 97a5 8061 783c e1bf
000001f0: f050 1b6a a2cd e1bf 0661 2641 4b38 d5bf
00000200: 973e fa5e 6ad3 d9bf 7052 f893 846d d9bf
00000210: 93e2 7145 d4e2 debf 7ee8 d4d3 e024 d0bf
00000220: 6621 0daa dc96 d8bf acd4 bf25 9dd7 c9bf
00000230: 2017 87f8 5584 d13f 3940 d67e f434 bb3f
00000240: 1e51 5ccb c186 b3bf 8202 a517 3ad6 ad3f
00000250: 9e02 4ae4 a3ff ae3f 854c 39f3 5735 b93f
00000260: 9d9b b0cf 88c9 b7bf 603c 87d1 7444 d4bf
00000270: 804b 1736 56b1 ddbf a507 dbdd 0423 e7bf
00000280: 5843 d7a7 65ce cebf 752e f02a c0b1 b5bf
00000290: d434 32d1 4900 dabf c682 c103 08be dcbf
000002a0: f7bf 465b eaaa e2bf 13f0 7c56 e225 2fbf
000002b0: 1a5b f686 cd5c dbbf 47ec 130b b215 ddbf
000002c0: b1be de90 5eac debf 000d be2c 78d3 c2bf
000002d0: 158f b9e8 148a a5bf bfcc 6cd6 1c07 d0bf
000002e0: e2f9 8656 1ce1 dabf 17ee c1ba 158b d7bf
000002f0: 97c5 9ae8 c791 b13f 1697 9174 c311 c0bf
00000300: f7c9 37b9 c6fe dcbf b784 c3e0 e7dc d2bf
00000310: 7d4a b98b 0f85 c9bf e2ca 9685 c5ba e03f
00000320: cbc4 aa28 19c3 a93f 294e af18 78e1 b63f
00000330: f3fc d0ed 3662 cabf a05a 1e7b 064b d0bf
00000340: babc 5731 47c6 a83f 9a2c b0f4 1aba c2bf
00000350: 9026 43ae fa69 d3bf df5b 6e10 7340 d4bf
00000360: bd6b 27af c6d8 d0bf cc35 df02 af2f d63f
00000370: a6e0 193f 0d7b d2bf c4fc 39d2 c1d6 d7bf
00000380: d356 20ee 6de2 a5bf 6cf6 2446 7e2b e13f
00000390: fd6e 96dd 8a98 c73f 940b 3694 2c0b dabf
000003a0: 59ec 745e e10c 903f f482 1a15 6629 d93f
000003b0: d775 8cc3 0a00 d53f 1116 cfa1 c76e aebf
000003c0: dc08 e635 c193 bd3f c2ae 755d f818 d73f
000003d0: 2583 2b74 e0f4 e03f b7eb ac6a 891c adbf
000003e0: e88f 8354 557a cabf e46c b5a6 3d6b c7bf
000003f0: adcd aa93 d603 d33f a10e 67e6 95f4 ca3f
00000400: e376 1fbf 3e1c c23f 99d7 f6a5 7787 c13f
00000410: 4b48 9f7e 5d82 c0bf 1f5a da2e bf7c dd3f
00000420: 5d92 7b4f afbf e43f 2dfe bd11 e524 bdbf
00000430: d606 a437 c6c8 a2bf 94cf 3b4e 5b2c c03f
00000440: 5ba9 5bb8 13d6 e13f d871 c652 2263 d83f
00000450: 6a19 6b6b ac54 c6bf fd63 0130 95c5 c1bf
00000460: 172d 426f fb13 c43f c0f3 51c0 f639 e33f
00000470: 1694 3cbb 85d5 b53f 82fa 3e85 592b e0bf
00000480: aa1e f8d0 181d cfbf a990 eb9c 80c4 d63f
00000490: c1ff 773b 4140 e13f 628b 8651 e15d c33f
000004a0: 0a80 e82a edc4 c1bf 9bf9 32e3 99b6 d7bf
000004b0: d9af 322e eecc e33f 292b 50c2 74d7 e43f
000004c0: 4be3 c8bd 8224 cc3f 3c86 1f39 e1bb d3bf
000004d0: b6de 2f28 adda d5bf 8bda 1505 8cdc ee3f
000004e0: 4419 2f4a 67cc c53f 23ff cd6c b835 e4bf
000004f0: d048 563f ff42 e2bf ac3a 7b1e 39bf c1bf
00000500: 607b 0082 e715 f03f 5328 a94e 1dcc bdbf
00000510: 132b 140f c1b5 e1bf 3548 ea0e 336e e1bf
00000520: f635 343a 91e8 963f 72b0 9833 9586 e03f
00000530: 4b64 6d27 7bc5 d0bf 83d0 27de 66f2 d9bf
00000540: 5c72 dd63 e2be c6bf 527f da55 98a9 b2bf
00000550: 504c 53f5 fa71 d83f 28c8 f8c2 538c c13f
00000560: b368 84fa ba82 c1bf e863 56ab 8af9 b1bf
00000570: 18b8 d7f3 a4d7 c13f e92b 8264 432d d73f
00000580: 8bff 06a7 4da0 e83f ef6b 981f 15f5 ec3f
00000590: cffd a234 9dfc e83f 0db5 0fe4 5951 e03f
000005a0: 01d6 42c3 f5e5 a03f 3af1 11f7 7e6c c13f
000005b0: 0e0d 84a3 6f1d a13f 4ed0 fdef a470 a43f
000005c0: bff3 31a1 1391 d5bf 8590 2d50 ab67 c1bf
000005d0: 48b4 cc99 0f76 d3bf 050c 5b88 3124 d4bf
000005e0: 95fa e29c 9563 e0bf 2abb 568d 1678 e2bf
000005f0: 0686 c2e6 77d9 d0bf dda4 c5e3 32ca dabf
00000600: a406 2354 0299 d7bf 334c 29dc d0a0 ccbf
00000610: 93c0 c39a 5344 d2bf 72cd 5c40 240b ad3f
00000620: d929 af59 e78f bdbf 08fb 3b27 9400 d3bf
00000630: a5e3 62c7 a0a7 babf 5f20 dcb6 7dac 80bf
00000640: 74d0 3ca3 46ae a9bf c218 7eb5 c234 a43f
00000650: f5d4 55da 9619 cfbf 1d6d 5165 0bbd d5bf
00000660: 7016 45ca 4945 d2bf 5d5d a1fb 54f3 c3bf
00000670: 7a05 12ff 8fb5 d1bf 9c06 4a3b 840a d1bf
00000680: 3fce 4b17 669f d6bf 717f b0f0 f08a cfbf
00000690: 77c2 c9af b7c3 c6bf c660 4c49 ecb3 d0bf
000006a0: 169a ff98 584c d5bf 14df f53b 408e ddbf
000006b0: 0031 58f2 5906 3fbf 5e31 7162 7d0f cbbf
000006c0: 1709 8fb6 8e15 d4bf 68ce 5963 1852 d0bf
000006d0: 4264 db3f 84d4 b3bf 6e2e df33 22b0 ce3f
000006e0: da9f 0f8e 7107 d8bf e270 8f92 a1d9 cdbf
000006f0: b13e 7847 4848 d1bf 3b26 e664 f07a c83f
00000700: fca6 a2bf db73 d63f 0969 ba9e a55f d0bf
00000710: 6a34 151f ce29 7cbf 322e c3ef c8ad d33f
00000720: 2a95 b22d c71c e03f 89db 5d12 31f9 ca3f
00000730: 29ef 7a09 4914 e1bf 192d 372c e035 d3bf
00000740: 7e02 781e dcc4 c4bf f7fe 7a5c d8b9 e13f
00000750: 835b ff28 4e55 dd3f 0e7e 2a7d dc9e e3bf
00000760: b909 386a f660 bdbf b334 2a3d 630f c63f
00000770: b7ac a5e4 82ec dd3f 3421 1930 50ad af3f
00000780: 6968 d7c8 a67e e1bf 59eb fd7b 7db6 99bf
00000790: 1464 23b9 8c22 e13f aa7b e2fb cb15 c43f
000007a0: b14e 9c5f 6d05 c7bf 6f2b ee3a c3af d3bf
000007b0: 744e 8f13 fc68 b23f 6644 7308 a5af d33f
000007c0: d693 8c92 f7f9 c1bf 7115 fad9 bf90 9ebf

conv1_bias f8 [10]
0.2545309657356552 -0.021049711528760243 -0.18946468142389597 -1.5227742353977942 -0.24271669100319682 -0.08822348924479005 -0.09097700192902465 -0.2404604590299085
-1.2255629350317496 0.03881071698297435
00000000: 15da 693f 3c4a d03f 44cf 6c3a 0e8e 95bf
00000010: 7d39 3bf1 6040 c8bf 5299 4384 485d f8bf
00000020: 28aa 062d 5711 cfbf 179e 0b89 d095 b6bf
00000030: 8529 f9cf 444a b7bf 93de c187 68c7 cebf
00000040: 0f6b 52e1 e79b f3bf 2235 5a90 ffde a33f

conv2_weight f8 [20, 10, 5, 5]
0.006602362594032894 -0.12727305743483586 -0.00739490599788637 0.0786070093889656 -0.07856592598818415 0.01951578510667382 -0.013164892090088112 -0.08073294980058057
-0.002940177176353692 -0.006296722482192468 -0.10928477810442812 0.014175667944231148 0.04352390374506992 0.008150059586822044 -0.07186184394071281 -0.220393647615024
-0.14310201241752205 -0.11784477019365354 -0.32098973005820186 -0.408382285259087 -0.15539347228840641 -0.12777728061193264 -0.07925627761970523 -0.10769012567178081
-0.1282229562942262 0.010261235066300623 -0.1542803782555431 -0.08755258127488773 0.09511213738403469 0.32797516836715895 -0.0013378971662358792 -0.07802973566020746
0.10189884640879218 0.22440611805359395 0.15967210460555245 -0.21206566151862388 -0.2672288613006342 -0.06512529639950557 -0.07466153502150655 -0.20588176949649722
-0.12105717379463828 -0.04598256615732771 0.0912159470590103 0.12461320054273031 0.015122158462785223 -0.03221367099107219 -0.0150922661509998 0.03993326799873331
0.1565650596157942 0.06006392872313271 -0.2058591765085457 -0.20711034474367795 -0.2287719851894704 -0.11630616240307119 -0.08123850564844207 -0.2544519272054639
-0.22941209293851983 -0.1241411397923284 -0.0883602512605899 -0.07682502030520726 0.031583177803244517 0.03775961856073966 -0.024921687906359687 -0.0978538546762727
-0.010126101458542133 0.14250596865299664 0.20686410228094884 0.23097037004684073 0.26619847159157617 0.1948544881063445 0.04871612015146139 -0.00013363922804107519
0.027994194782962688 -0.0015927101422235097 0.050265844980288396 -0.08409231294295046 -0.07331354338434513 -0.07051580227878235 0.012054251426744673 0.17895029804990426
-0.26517936704412254 -0.14954005758052658 -0.06996988568766872 -0.25404143862502687 -0.34026993705042746 -0.21742243281229523 -0.21424422724009404 -0.27662231039610113
-0.17585178553047448 -0.25383700385401037 0.13097062825100597 0.08671966357374522 0.15169294449958318 0.16059780097826476 0.1950726938081393 0.19316348276076764
0.36200279022301696 0.27114191241822244 0.23861664554166123 0.19595984048659154 0.015428225428976457 0.0013480097949186822 -0.013437593231199417 0.02035962310879262
0.11012546016744768 -0.10554163050546848 -0.12459322755446194 -0.10950548472690765 0.044755714399411665 0.06276001179510525 -0.16839141554893855 -0.20413259094336547
-0.16235241811304602 -0.11026535989410137 -0.05147649184021278 -0.161393704226032 -0.060878067606485314 -0.0502081039752891 0.043343005398764504 0.047578276435627655
-0.09171622493713141 -0.02873551755389805 0.04249445539364314 0.08932660170083612 0.03501852808413069 0.07898472913660462 0.09689614398212634 0.07672607716944375
0.0018659211779568031 -0.03731292446814112 0.008534324809453509 0.008388961137050106 0.022267759985088634 0.010194008135453382 0.05070486878778863 -0.028016713705106874
-0.08261848711630533 -0.11727418103864347 -0.05483706212365962 0.01535413817716732 -0.10671519947272119 -0.18267013517029526 -0.2037657964279769 -0.1914640640868284
-0.20107728774236827 -0.03896416917163659 -0.146571646846807 -0.1272959718509674 -0.07577117335457419 -0.11617085753367605 0.12503349768667119 0.11642054313610398
0.0772769630065672 0.1342654426547952 -0.04181157811684362 0.0035835947369816084 -0.06454791487372538 0.053892115040931776 0.0398860075003226 -0.15973426852479236
-0.04301869657253626 -0.20428323326717285 -0.09377169916455984 -0.09922797353185545 0.14329377508064547 -0.05633474247625475 -0.20975063314646936 -0.2966466009246787
-0.11538991061408946 0.04211868751022402 -0.08735439239554163 -0.1501170931923542 -0.24315269951113125 -0.27931158903041237 -0.2196902752313656 -0.17952134676768197
-0.10831425269507731 -0.14892151414540208 -0.04681323442779169 -0.0744430276118749 -0.25361058777729534 -0.2287269072178748 -0.13302795204044474 -0.07903274699422512
0.06749102423674068 -0.009484861730163897 -0.04967831870736454 -0.12583157391310718 0.07886247916116516 0.14259721648648033 0.10118322979417328 0.20560298391555207
0.28111178798563086 0.26745742446469034 0.25680551650081246 -0.03697886861729127 -0.0328256700580693 0.024157099830148777 0.07644755440220015 -0.0031874729360791016
-0.16140294702727603 -0.06952659927014847 -0.028525012707274797 0.036142673919986115 0.1430032635649715 -0.21425969215172763 -0.2408166028724367 -0.15853035920156835
-0.2648965515066131 -0.18355642725711896 -0.13387498699988173 -0.21462814617317405 -0.14972687972466642 -0.12663928659542648 -0.1955429087720303 0.10985954996853733
0.0709078465469727 0.0869358005594658 0.1770532908815847 0.14082730439047303 0.0958842136515032 0.2207859405426249 0.27985440603816025 0.2203089646371537
0.16158060082026335 -0.03406583258496418 -0.10400792322095678 -0.021893907315581846 -0.026632949104528347 -0.04939555632359155 -0.08121530857118649 -0.031738753864047516
-0.054157593049100027 0.025568414323290687 -0.05569267954011127 -0.08062167745222906 -0.07962343469341442 0.023159052273036218 0.16487358130211394 0.02992988940178532
-0.21134831428390788 -0.08160351226042632 0.06175575336237952 -0.02330884182235845 -0.06999263031721016 -0.3009803982300611 -0.11919019755973784 -0.10041577101465342
-0.23820089590824664 -0.29242678059824134 0.061577486446555765 -0.1135630135264746 -0.20660672527055166 -0.21207095672576326 -0.08183080067270267 0.16054001074331326
00000000: 71eb ae36 140b 7b3f 341a acc9 7b4a c0bf
00000010: e7c8 aff6 1e4a 7ebf 69dd 8fc6 961f b43f
00000020: 42ff b282 e51c b4bf b9dc 272b f2fb 933f
00000030: cebe dbe7 31f6 8abf fa64 1a23 eaaa b4bf
00000040: 73eb 239a ff15 68bf 6cc9 2092 97ca 79bf
00000050: 1dbd e853 16fa bbbf a463 c1f1 2108 8d3f
00000060: c7d0 5bde c348 a63f 8c39 167b fab0 803f
00000070: ef3c 8ead 8965 b2bf b457 60ea db35 ccbf
00000080: 039b a9af 2a51 c2bf 3d83 fc29 132b bebf
00000090: 08eb 3c82 188b d4bf 7f06 dd73 ef22 dabf
000000a0: 95cb beec eee3 c3bf 5935 b384 015b c0bf
000000b0: d11b 61b0 234a b4bf 1fc8 dc7f 9491 bbbf
000000c0: 64a8 f01d 9c69 c0bf 47ec 35a8 d703 853f
000000d0: 19d3 829d 75bf c3bf d78a 4191 d869 b6bf
000000e0: e15f 84df 4459 b83f e35e 828f 8bfd d43f
000000f0: cbdf c224 8ceb 55bf 8aaf c6ba c1f9 b3bf
00000100: 7e6d d3f4 0a16 ba3f 0a00 08f5 56b9 cc3f
00000110: a7a2 aeb1 2270 c43f 42de 69b4 f724 cbbf
00000120: c958 f514 471a d1bf 669d 2d2a 0dac b0bf
00000130: 62c0 2fb3 041d b3bf 9a3f 6a75 555a cabf
00000140: a5e7 645a 9afd bebf 08ec a9e3 068b a7bf
00000150: 5bfb 7da5 ed59 b73f 521d fb94 a6e6 bf3f
00000160: 903a 57c0 5df8 8e3f 8f11 c86e 4f7e a0bf
00000170: 861d 54ac b1e8 8ebf b067 2720 2272 a43f
00000180: 1281 5fe9 520a c43f 90fc 1103 b3c0 ae3f
00000190: ddc4 57ef 9759 cabf 582f ab7e 9782 cabf
000001a0: 5c9c 5081 6648 cdbf 3d2e d89b 3dc6 bdbf
000001b0: ba9b eff4 0bcc b4bf df1a 70bc f048 d0bf
000001c0: 5c2a 3d1e 605d cdbf ed07 7fb7 b6c7 bfbf
000001d0: 413a 6e05 c79e b6bf e3b3 b9f5 cdaa b3bf
000001e0: 8491 8997 ab2b a03f e6d6 a78d 3a55 a33f
000001f0: 5263 132a 1285 99bf c643 9f41 f30c b9bf
00000200: 18a7 cd54 febc 84bf dab9 6cb5 a23d c23f
00000210: 6bac 01dd 857a ca3f 0c1d d9e4 6f90 cd3f
00000220: c8c8 6e50 6509 d13f 0fa2 f2ea fdf0 c83f
00000230: 3a54 adbd 51f1 a83f befb 503a 3084 21bf
00000240: f65f 489c 82aa 9c3f 084c 437e 4f18 5abf
00000250: 3ea0 97e0 71bc a93f 2d5a efe5 1287 b5bf
00000260: 378c 3027 adc4 b2bf 7c79 a3d8 520d b2bf
00000270: caba 3e3d e6af 883f e0ec dde6 d7e7 c63f
00000280: b9d2 41e1 b2f8 d0bf 700a 60ec 2024 c3bf
00000290: d1bf bbe2 8be9 b1bf 3f4a ae05 3742 d0bf
000002a0: 5d63 dc8e fbc6 d5bf 7c3b 2c8f 7fd4 cbbf
000002b0: fb2e add6 5a6c cbbf 9bb1 1f10 2eb4 d1bf
000002c0: caf6 e5b1 4f82 c6bf 9153 848f dd3e d0bf
000002d0: f28d 8942 a5c3 c03f dc27 f886 4233 b63f
000002e0: 816f d4a5 ac6a c33f d26d 81ff 778e c43f
000002f0: 78d1 1f5c 24f8 c83f 2396 9ebc 94b9 c83f
00000300: 0c64 44c0 0d2b d73f 7950 9a9b 635a d13f
00000310: fafa 7080 fd8a ce3f 9c11 1c49 3615 c93f
00000320: 31df 385d d598 8f3f 399e f77e f615 563f
00000330: ff38 b83b 2b85 8bbf 8c04 a52d 27d9 943f
00000340: 9c4a e0a1 2e31 bc3f 6733 63bb c604 bbbf
00000350: a345 a67d 57e5 bfbf 6d7b a22b 8d08 bcbf
00000360: 5726 4f93 38ea a63f bf13 2846 0a11 b03f
00000370: f0db 5a93 d98d c5bf d522 1349 0421 cabf
00000380: 286c 1ccb f6c7 c4bf 4978 a0c2 593a bcbf
00000390: 55dc ee71 205b aabf 6e2e b784 8ca8 c4bf
000003a0: 64ba d3fa 682b afbf 64d5 2269 e0b4 a9bf
000003b0: 2766 65ed 0d31 a63f e506 950a 2e5c a83f
000003c0: 5a18 9eea b67a b7bf 67b0 82f0 d76c 9dbf
000003d0: 6da3 5a50 d5c1 a53f e4c8 f7b0 1bde b63f
000003e0: 4734 c0d1 f2ed a13f 426f 86dc 5738 b43f
000003f0: 6201 8389 2fce b83f 2d71 31f8 51a4 b33f
00000400: e753 eb9b 3d92 5e3f fa18 9efc ad1a a3bf
00000410: cdb0 99af 717a 813f 372e d94d 3b2e 813f
00000420: 3485 9013 5ccd 963f d497 749c 98e0 843f
00000430: 590f 6212 fdf5 a93f 4c58 6bd4 69b0 9cbf
00000440: ada3 3534 7c26 b5bf 6de5 3944 ae05 bebf
00000450: c713 dc78 9a13 acbf ed32 a28a fd71 8f3f
00000460: 35b1 b8f3 af51 bbbf 9f93 4128 bc61 c7bf
00000470: 89cc d963 ff14 cabf c95b cefa e481 c8bf
00000480: 7e32 698b e6bc c9bf f0b0 9d90 1cf3 a3bf
00000490: c02b dd16 dcc2 c2bf af97 0102 3c4b c0bf
000004a0: d995 8957 bd65 b3bf 67fc da91 5fbd bdbf
000004b0: d1ff bbff 1801 c03f ca24 5a99 bccd bd3f
000004c0: baef d84c 6cc8 b33f 33b8 972a 9c2f c13f
000004d0: aa44 36c1 5368 a5bf 7c8a 51c6 575b 6d3f
000004e0: 425b 684f 3686 b0bf 88e4 394f bf97 ab3f
000004f0: b554 9053 f06b a43f cda6 ae29 2c72 c4bf
00000500: d78a caed 8b06 a6bf 7e77 00f7 f325 cabf
00000510: 1fbf 330d 6c01 b8bf 9aec 2a25 0167 b9bf
00000520: 558b d84e 7357 c23f 38d1 2049 e8d7 acbf
00000530: e8f5 d6d6 1bd9 cabf 4d3a 5c06 42fc d2bf
00000540: 8239 6074 318a bdbf 684f d0a2 9490 a53f
00000550: 9634 8082 db5c b6bf a376 ea72 0937 c3bf
00000560: 67ce 2aae a01f cfbf e9e1 11b7 3de0 d1bf
00000570: 1f19 af99 cf1e ccbf 7189 a634 8efa c6bf
00000580: ff1a 049d 7bba bbbf 5770 7634 dc0f c3bf
00000590: 4b52 c67d e7f7 a7bf 361b 02c1 b20e b3bf
000005a0: 7f0f 1be7 273b d0bf d8a5 1b5d ec46 cdbf
000005b0: 39d9 bb57 0f07 c1bf af3a a777 7d3b b4bf
000005c0: e7ce de7d 1747 b13f 674d 8197 cc6c 83bf
000005d0: f637 56c4 6f6f a9bf 8468 61bf 3f1b c0bf
000005e0: 8ff1 e0d8 5430 b43f 36b0 a726 a040 c23f
000005f0: e19f dee6 24e7 b93f b34b f0d5 3251 ca3f
00000600: 94c6 fa4b bcfd d13f b07c c9be 051e d13f
00000610: 8b6a b367 806f d03f f06c b5ee e4ee a2bf
00000620: 78c5 bcb6 86ce a0bf 7a60 f286 a3bc 983f
00000630: e541 0422 1192 b33f c416 8e80 9d1c 6abf
00000640: e2e6 7a0d daa8 c4bf 2740 11c6 7ecc b1bf
00000650: 5c6d c832 a935 9dbf dae1 f3e4 4a81 a23f
00000660: 14cd 1d52 ee4d c23f ee43 5291 dc6c cbbf
00000670: 35e1 d514 14d3 cebf b1d0 180a b94a c4bf
00000680: 41d2 62aa 10f4 d0bf 641c 05ea c67e c7bf
00000690: 8b5d 75c9 d022 c1bf b8b4 4e62 ef78 cbbf
000006a0: d6f1 df19 402a c3bf e176 2855 b735 c0bf
000006b0: 94fe 11cf 8c07 c9bf 32a5 4466 c11f bc3f
000006c0: e9f3 f241 0427 b23f df25 41b4 6c41 b63f
000006d0: 8727 fea6 aea9 c63f 6ed6 5e0d a106 c23f
000006e0: 6dfc d529 de8b b83f d009 06b5 b642 cc3f
000006f0: 68d3 6474 22e9 d13f c9eb 108b 1533 cc3f
00000700: b774 1852 acae c43f cc13 baa9 1371 a1bf
00000710: 8246 c264 43a0 babf a5ba 9b3f 5b6b 96bf
00000720: d094 99f5 aa45 9bbf a881 f4d5 5f4a a9bf
00000730: 756f 3fc6 86ca b4bf 0948 b9db 0f40 a0bf
00000740: 3bb1 f345 8bba abbf 9902 513d 9b2e 9a3f
00000750: b2b5 803a c083 acbf 3288 014c 9fa3 b4bf
00000760: 43df 0090 3362 b4bf f0e6 79b0 01b7 973f
00000770: 7c5f d5d7 931a c53f 2240 9de0 f0a5 9e3f
00000780: b001 f528 760d cbbf 3bb3 65c0 f7e3 b4bf
00000790: 9501 103a 739e af3f d6b2 56e5 45de 97bf
000007a0: 4966 2c7a 09eb b1bf 9ba6 c849 4343 d3bf
000007b0: b2d9 85b0 3f83 bebf 23b4 8214 d9b4 b9bf
000007c0: 8fe3 e6f0 5d7d cebf 8637 c9d0 1eb7 d2bf
000007d0: 0a6a ea94 1587 af3f 5aa4 2135 7712 bdbf
000007e0: b7d8 15d4 1672 cabf 60c7 c81f 2425 cbbf
000007f0: 51db b104 ddf2 b4bf 48c7 eb37 938c c43f

conv2_bias f8 [20]
-0.11389730856258926 -0.08516896096326183 -0.03915561954046487 -0.01792554702730582 -0.021855663340815373 0.028388852851659124 -0.0023588270338503942 -0.02997231400554078
-0.03582160788822941 0.04342058645975103 -0.06169289893335579 0.07312044795916382 0.08051659077955206 0.07009255816213675 0.060075321580531735 -0.06021034322722392
-0.13390082617055385 -0.03801519757382926 -0.10948590524496052 -0.02381966300744023
00000000: 36f5 60bf 5f28 bdbf e5b4 f80d a2cd b5bf
00000010: 5007 c392 340c a4bf b312 fb18 135b 92bf
00000020: c8ef 1fbd 5461 96bf f87b 46aa f711 9d3f
00000030: 2d30 f49e d152 63bf 3dc8 c1f1 0fb1 9ebf
00000040: 407b bdb4 3557 a2bf e5b2 a21d 393b a63f
00000050: 5ade a02e 3696 afbf 5f4a a78c 05b8 b23f
00000060: d6ff 2e3c bc9c b43f bed5 fffc 95f1 b13f
00000070: ae5a f84a 31c2 ae3f ea6e 15de e3d3 aebf
00000080: 1fab a78a a923 c1bf 2841 a95c ba76 a3bf
00000090: 5a6a 66ae 4407 bcbf a78b 7986 2e64 98bf

fc1_weight f8 [50, 320]
-0.015141287293851205 0.11123545342072212 -0.009500666517274882 -0.03704183321880758 0.0746092682827881 0.1464588253840348 -0.007073166055275605 -0.09950906373314763
0.04707016005970665 -0.08059884838111152 0.02274835034381088 -0.01933108061551647 -0.03234606932095534 -0.037256685897167324 -0.2072868580943466 -0.20750766203017762
0.010193138317132165 -0.14262897201745542 -0.1495549269734928 -0.10004890071159729 -0.009229752311285734 -0.01477227157586087 -0.06774350277740698 -0.005076094654093159
-0.05496939252474908 0.07998803123082406 0.020363486802984526 -0.09708361002542445 0.028683914863896393 -0.04598150383337179 0.05662353472178201 -0.14917747494540548
0.07484920849278269 0.1039673468191659 0.20141023624125895 0.06000349000688551 0.09076924332859605 0.11025497596877443 -0.16588858109314855 -0.004420542780092037
0.0425744550162157 -0.20697429931132125 -0.20452857517871956 0.03151526156273454 -0.035146669928723485 -0.032766948474113496 -0.08472795368172302 -0.11431161811141112
-0.0006477856418042045 0.003761820241851178 -0.1079905757900507 -0.11104496781566717 0.11654322895987321 0.03914730491697386 -0.08378908450446286 -0.08215919678014517
-0.009593656156364603 -0.1767697060652833 0.01273492276354888 -0.03538699262395213 -0.07361280182664823 0.23240384205941522 0.1153783045981236 -0.12087411182705851
-0.05980760140425286 -0.12798609975804143 -0.059376763517608684 -0.02489938752564249 -0.03602196193632405 0.0114993306524075 -0.017886607981299756 -0.03467583853138224
0.057610830636110756 -0.25297983799977214 -0.06984726216563988 -0.04648229920781397 -0.31611193207588706 -0.1463890677646248 0.024600828182571217 0.048017975256449824
-0.07538668335182534 -0.01813649783374791 -0.020152071202839034 0.013651245085434865 0.010122528504445318 0.11870324569907305 0.008786275831991545 -0.03315349946825283
-0.10552314402995741 -0.1349211638295783 0.05013489544425385 0.025540265745773484 -0.0842752337757948 -0.07260072245843553 -0.05766080288242803 -0.18406529635252572
0.0690035128923013 -0.08191316777488133 -0.2252082260689503 -0.19794731078696312 -0.02837514904262845 -0.18530418980595925 -0.00489078079623274 -0.0022857891291477015
-0.11005179652150918 -0.06802409061575734 0.12508188829965503 0.0410707646630492 0.1752764591756203 0.4487774937389014 0.16818767885822986 0.03722367145998844
-0.03600354074001803 0.011941327782031882 -0.019419209588155708 -0.13000577723214707 -0.11968317144478949 -0.04995764292019939 -0.09364845234924637 -0.0347016766192788
-0.12818742185471557 -0.16645209195244473 -0.001884882313630112 0.08518563326037902 -0.06912097024784321 -0.10209913472667084 -0.001981830172928377 -0.11399548900389359
0.030457911358648046 0.04447646454666363 -0.037706417153313423 -0.0029902277805165865 -0.010972214664799996 -0.010492736450684905 -0.05136641053781869 -0.03724325659003244
0.006235257639526055 -0.050904368391682234 0.00607279187880179 0.0033573118999161724 -0.03631537498956633 0.002782860360511199 -0.00578634084078727 -0.03148216478698969
-0.0654811170917697 -0.0605970517493887 -0.05020464371878985 0.009251231361836717 0.1043173027369984 0.06958459594965609 0.2409758420598926 -0.08257118461556116
0.05862593074909087 0.09758513726608181 0.06664697479068853 -0.16580625500242396 0.055722390399023415 0.09044666237307297 -0.1351576315381016 -0.10238981134351244
-0.06805440803507615 -0.05309424116695633 -0.022530749355695018 0.017707967807949608 -0.10251897971798403 0.12262983166940962 -0.1410361784063935 -0.10255239761947182
-0.08551890346659456 -0.06386462356792443 0.09600778513110739 -0.2668801444182457 0.027507604262043805 0.24477256265449368 0.1660130375120292 -0.024245994446196056
-0.0963329064989775 -0.05096154812304723 -0.3099849906164614 -0.1170219796122213 0.0888500722665807 0.028638065863821165 -0.08006814844486485 0.01005676066300702
0.011041824982883733 -0.1488117692439464 0.07507117298846888 0.11986066666034112 -0.29947563489264745 -0.1731088573191088 0.2965043963497437 0.13387414087925795
0.03612513383287293 -0.0358295467296864 0.14555514367366693 0.0011159143115424023 0.020978903288386964 0.03290111908135089 0.05789165227686258 0.07159459302373074
-0.18808761842439503 -0.0241703390672275 -0.12515181865939315 -0.02160814938461612 -0.10169130613184284 -0.07553954357796919 -0.27175007130397627 -0.08805768523831635
0.046062704874843756 0.15273274951599186 0.22103015472142173 0.059971641303958365 -0.11146357185983577 -0.04580492099723125 -0.07439339663742953 -0.03637151640196713
-0.1590955005771711 -0.0020721714318242836 0.011953792594204973 -0.04408411937168484 -0.06707338584746958 -0.23112436453924842 -0.2676298271524312 -0.11425445782774118
0.042633435541949996 -0.02974077872403057 0.1419692973272014 0.03708011404809669 0.07046026855261374 0.10506191433877471 0.08888033097447195 -0.005248657487887332
-0.001822830126609237 0.16888437563452505 0.04094827747666118 -0.04998844536484137 -0.0014135701620806595 0.14810951598221667 -0.028288649121797696 -0.05812613778730972
-0.015904697860183302 -0.1163388338295599 -0.02100401227640263 0.040084467391776936 -0.019286277765037944 0.010839591562372122 0.001114905267356319 -0.07131420266720441
0.037704190708370604 -0.15215222317976496 0.005821139733153709 -0.03570362150718052 -0.09973135686166604 -0.2943396251740496 -0.16976186403728002 -0.04089728313872978
00000000: f5b0 f82d 6502 8fbf 0505 993a ed79 bc3f
00000010: 41ed dadf 1575 83bf bc6f 84ac 25f7 a2bf
00000020: dec8 40cf 9719 b33f 9d14 9eac 29bf c23f
00000030: db74 2f8e c0f8 7cbf eab2 630e 6d79 b9bf
00000040: 8fd9 257c 9419 a83f 0f63 e449 20a2 b4bf
00000050: 0bf8 0ef3 574b 973f 40f1 28dc 86cb 93bf
00000060: 567a c6fb a98f a0bf ccaa f8ee 4e13 a3bf
00000070: a2f1 3332 6088 cabf 7665 0b6f 9c8f cabf
00000080: 2cba b9dd 23e0 843f 0977 2389 aa41 c2bf
00000090: df45 27a8 9d24 c3bf 959b 8e04 ce9c b9bf
000000a0: 3402 9e62 0ce7 82bf 6497 72ba ec40 8ebf
000000b0: e408 f260 a357 b1bf 51df 7dc8 abca 74bf
000000c0: 507d 59be f224 acbf 6d33 357a 187a b43f
000000d0: 48c7 6777 2ada 943f c26c 09b2 78da b8bf
000000e0: b5f6 0bf1 505f 9d3f 87d6 5e3e e38a a7bf
000000f0: 3ac1 a08b c2fd ac3f 3d5e 185c 3f18 c3bf
00000100: 0ba5 9b56 5129 b33f 6bb1 70a2 9a9d ba3f
00000110: 0b30 de84 cfc7 c93f 5c6c 7306 c7b8 ae3f
00000120: 7138 9433 a73c b73f b8d4 018c ab39 bc3f
00000130: e196 4947 d63b c5bf d6ad bc6a 461b 72bf
00000140: 5f1c e1a7 51cc a53f 3fcb 5343 227e cabf
00000150: dfba be0a fe2d cabf e041 79b3 c422 a03f
00000160: 1d79 d08b befe a1bf b90c 2c58 d4c6 a0bf
00000170: 87b8 1e2e bbb0 b5bf d962 57b5 8643 bdbf
00000180: fc2a bc12 053a 45bf 8297 30dd 1bd1 6e3f
00000190: da62 4b37 45a5 bbbf 7656 2769 716d bcbf
000001a0: f6f0 f3ec c6d5 bd3f 559c b094 1d0b a43f
000001b0: df5c b591 3373 b5bf 9181 3c97 6208 b5bf
000001c0: 2576 86bb d6a5 83bf 90a9 3cc5 63a0 c6bf
000001d0: 64cf 4a66 c414 8a3f 2a1e 0c70 3e1e a2bf
000001e0: f291 69e0 49d8 b2bf 7012 8eba 68bf cd3f
000001f0: d0b7 eabc 6e89 bd3f 86f2 3a15 9bf1 bebf
00000200: 8bbc 2a18 1a9f aebf 34d5 6638 d961 c0bf
00000210: 11a2 e692 a166 aebf 46c7 739c 397f 99bf
00000220: e695 e878 7871 a2bf 45b4 9f08 f68c 873f
00000230: eea3 43f1 dd50 92bf 9146 e810 08c1 a1bf
00000240: a579 f4b2 2a7f ad3f d968 b058 d230 d0bf
00000250: 9270 b79a 82e1 b1bf 5d82 e125 87cc a7bf
00000260: 320b 898a 2d3b d4bf 343f 4581 e0bc c2bf
00000270: 55a0 fea1 f530 993f 2474 b1e2 cf95 a83f
00000280: a3cc 8cab 8a4c b3bf 395c 3dc4 5f92 92bf
00000290: 652a 0d9b bea2 94bf e371 8819 2ff5 8b3f
000002a0: 940d 09c7 1ebb 843f dde1 34fe 5563 be3f
000002b0: c2f9 d0fa 89fe 813f 6c9e edd7 7ef9 a0bf
000002c0: 766b 9494 9003 bbbf 94d8 17c1 1845 c1bf
000002d0: 0d95 a4f0 47ab a93f 3ade 6f38 3a27 9a3f
000002e0: ee06 eecc 0f93 b5bf f1fc 9f00 f695 b2bf
000002f0: 5042 487d b785 adbf 96d1 149e 738f c7bf
00000300: f679 2ed7 36aa b13f c872 b4e8 42f8 b4bf
00000310: f8ce e086 9fd3 ccbf b7a0 1465 5656 c9bf
00000320: f2fc a004 600e 9dbf aea1 8335 0cb8 c7bf
00000330: 8cc8 25f9 5a08 74bf 3d8a c4b1 a5b9 62bf
00000340: a609 edc2 5a2c bcbf dae9 88dc 066a b1bf
00000350: 23d3 c8ed ae02 c03f 3759 192e 3a07 a53f
00000360: fc7f f581 756f c63f f685 b23c c5b8 dc3f
00000370: c5a3 2482 2c87 c53f b78a 1d27 fb0e a33f
00000380: 7583 095c 0e6f a2bf de6d 5be2 b174 883f
00000390: e795 6118 a1e2 93bf aa66 c080 07a4 c0bf
000003a0: 92a7 3c6b 8ea3 bebf c914 0e55 0c94 a9bf
000003b0: 1a39 2950 58f9 b7bf 6f70 640c 6bc4 a1bf
000003c0: 8df1 4f08 7268 c0bf 2dad a459 4d4e c5bf
000003d0: 3ed7 34f9 c4e1 5ebf ab3f f1c4 b9ce b53f
000003e0: 9da9 ae72 e9b1 b1bf ced7 993c 2b23 babf
000003f0: b02f edf8 323c 60bf caca 29f1 ce2e bdbf
00000400: bc6a c2d4 5b30 9f3f edd8 5681 9ec5 a63f
00000410: 5aae 0b69 414e a3bf cf0e cc50 f67e 68bf
00000420: 2d37 33b9 9978 86bf aebc 353f 377d 85bf
00000430: 05e5 beba b24c aabf bcf8 1952 8c11 a3bf
00000440: 9468 4d3a 248a 793f d27e ee2a 2310 aabf
00000450: 51e6 3ca8 c8df 783f 03ea 001a cb80 6b3f
00000460: d825 d8c7 ed97 a2bf b87c 9bc7 14cc 663f
00000470: 3b88 cb0a 6bb3 77bf eab5 5528 6e1e a0bf
00000480: 9d29 6ad8 5ec3 b0bf 34cb fea6 9306 afbf
00000490: 4f52 c24d 6cb4 a9bf 0baf 2c41 4ff2 823f
000004a0: 138f a9eb 89b4 ba3f dbbd e8cb 4bd0 b13f
000004b0: 7efb 62e0 4bd8 ce3f 5b0c 8499 6223 b5bf
000004c0: c5a1 87ce 3704 ae3f 8c2c 22ed 56fb b83f
000004d0: bb74 1ab1 c60f b13f 3094 5aad 2339 c5bf
000004e0: 6566 d628 a587 ac3f 48b9 ec30 8327 b73f
000004f0: 4967 a163 d84c c1bf a0fb 29fb 3736 babf
00000500: 8afa db80 036c b1bf f905 d61a 2b2f abbf
00000510: 885f 8cfe 4c12 97bf a67e 749a 0922 923f
00000520: c5a7 1b11 af3e babf bdba 882c ab64 bf3f
00000530: c475 e736 790d c2bf c4ea e6b9 df40 babf
00000540: 8b2c 941d 91e4 b5bf 5778 9895 6e59 b0bf
00000550: 1eac 4c59 f793 b83f 8e99 0e75 9014 d1bf
00000560: e382 c912 f42a 9c3f 9992 c713 b554 cf3f
00000570: d771 694b ea3f c53f eb56 d224 f1d3 98bf
00000580: 7e15 f1fa 45a9 b8bf 6383 15cd a117 aabf
00000590: 59b5 3c49 cbd6 d3bf da00 5907 27f5 bdbf
000005a0: e8d7 a1da e0be b63f 2e25 3911 4c53 9d3f
000005b0: ae9f 059f 587f b4bf 57e4 3591 a398 843f
000005c0: b562 84a9 189d 863f aad1 1499 430c c3bf
000005d0: e89a db48 dd37 b33f 3807 624b 30af be3f
000005e0: 3704 74da 9b2a d3bf 36b0 6a58 6e28 c6bf
000005f0: ce4f 5c93 edf9 d23f 1ba2 6db0 c922 c13f
00000600: 7a6a c058 fe7e a23f ae77 de16 4058 a2bf
00000610: cbe6 eb0a 8da1 c23f 111f 49de 7b48 523f
00000620: 4d47 1e5e 7e7b 953f 8693 e95c 6ad8 a03f
00000630: 9526 7b82 f9a3 ad3f 817b 9bf3 0554 b23f
00000640: ac28 f54c 4113 c8bf 14d2 4eff 1bc0 98bf
00000650: 77a8 168c f904 c0bf cb6c bc5b 7220 96bf
00000660: a7b0 1f02 7108 babf 76de 383d 8f56 b3bf
00000670: 75eb 3b69 5a64 d1bf 5f91 42ce f28a b6bf
00000680: ef68 01e6 8795 a73f 2284 192a bf8c c33f
00000690: 70aa fa52 b74a cc3f fe06 2d5c 9ab4 ae3f
000006a0: ce55 d56b e088 bcbf 35a2 5b1b be73 a7bf
000006b0: 129b 9815 720b b3bf e29d e792 499f a2bf
000006c0: b2b8 f5c9 3d5d c4bf 4327 0191 a8f9 60bf
000006d0: dbce 0ae2 3a7b 883f 8add f295 3192 a6bf
000006e0: 5899 a5ae b82b b1bf 0f9f 80b1 7b95 cdbf
000006f0: de71 c3da d820 d1bf 14d8 cab7 c73f bdbf
00000700: 42d3 bcb6 0cd4 a53f 1dbd e8df 5d74 9ebf
00000710: 1b39 87c8 0c2c c23f f848 562a 2afc a23f
00000720: 85d1 1925 af09 b23f 8ce3 236e 56e5 ba3f
00000730: e402 cb82 dcc0 b63f c154 22c4 9d7f 75bf
00000740: 4cb4 eaf1 80dd 5dbf cfec 13d3 009e c53f
00000750: 5ff9 2d31 2cf7 a43f 402d 0ae4 1598 a9bf
00000760: 0aa2 7867 f128 57bf 7c5c afab 40f5 c23f
00000770: b4f7 4d1b b3f7 9cbf c5b6 ad89 b5c2 adbf
00000780: 7624 a634 5249 90bf 4080 8dbe 61c8 bdbf
00000790: 0d6b 3f67 1382 95bf edee 0c89 f385 a43f
000007a0: 31b5 0c31 c8bf 93bf bb5d 195a 1133 863f
000007b0: 49ed 546a 4044 523f 5d2a 32c8 a541 b2bf
000007c0: 7f79 07b4 f64d a33f 700f 495b b979 c3bf
000007d0: a22e 784c e8d7 773f 6db7 71bd be47 a2bf
000007e0: 9247 1b84 fe87 b9bf 3586 02de 75d6 d2bf
000007f0: 79f5 12bb c1ba c5bf 23f6 261b 7df0 a4bf

fc1_bias f8 [50]
-0.08716889902881436 0.030730878627600267 0.009845506377411278 -0.016381548852613538 0.04793963609749044 -0.057130018744730726 0.039227692675509344 0.04021332606725464
-0.04388326675116405 0.008278830309255079 -0.02413284937082576 -0.019750306056286245 -0.03383447978290903 -0.02251645407909071 0.007734613491211511 -0.010386123696257455
0.008392907009947447 -0.07898079306143484 -0.002919943619564478 0.02876940741985976 0.013282450114725093 0.029885045259525414 0.0025256335754185633 -0.0016119763249907919
-0.052241228540448215 -0.013490668624868708 0.04013250559448939 -0.03962181370531642 -0.020279109132783385 -0.029724049291055415 0.031636740004432784 0.0550326116646626
0.058169661382021426 0.04362062304586844 0.0014824119097044904 -0.05921643341011504 -0.06603810770490001 0.07494965822141512 -0.0037945067096273612 -0.015435822248049626
-0.021877496789467616 0.02624410737818101 0.00820828498041548 -0.005814443870674304 -0.03522211091333153 0.006758795057169136 0.025132904678286768 0.017077236065862197
0.04325803289133985 -0.031321433204518134
00000000: 0c9d 8e72 b350 b6bf 2047 bb5a ea77 9f3f
00000010: a373 3a7f e129 843f 7ab7 5122 53c6 90bf
00000020: e414 7142 8b8b a83f d8c8 4154 2540 adbf
00000030: 8717 47f2 a615 a43f 08fd a450 d796 a43f
00000040: d066 1317 de77 a6bf 5f48 6bcb 7df4 803f
00000050: cd5b 3a1b 48b6 98bf ff15 649a 6c39 94bf
00000060: f61e 4ac0 c052 a1bf 74fa 90a7 8d0e 97bf
00000070: f90a df7f 54ae 7f3f 7a70 dcec 5145 85bf
00000080: 463d 02e9 4c30 813f 8304 36d3 1538 b4bf
00000090: e22a 45cb 90eb 67bf 9971 f93f ba75 9d3f
000000a0: 91f5 d346 d433 8b3f 44d7 1d70 2f9a 9e3f
000000b0: e992 7533 a3b0 643f 5eba 4166 1e69 5abf
000000c0: 700d 2bc0 5cbf aabf c720 5ce4 fea0 8bbf
000000d0: 58da 116e 3f8c a43f c823 2574 4f49 a4bf
000000e0: 38bc 11fa 0bc4 94bf db68 702e fb6f 9ebf
000000f0: 9899 57d7 b032 a03f f65a a006 3c2d ac3f
00000100: 74a6 82f2 69c8 ad3f 3f88 d33a 7155 a63f
00000110: eaea f7aa af49 583f 7cb0 c3c9 9d51 aebf
00000120: 86dc e198 dfe7 b0bf 7348 e89a e62f b33f
00000130: 4319 1d47 a815 6fbf c11c f0fd d09c 8fbf
00000140: 659b eaf4 0d67 96bf d2a5 9b3b bcdf 9a3f
00000150: ff86 605c 81cf 803f 76b7 4de4 e2d0 77bf
00000160: 450c f0ec a108 a2bf 79cc b13b 1caf 7b3f
00000170: 9f3f 96ae 70bc 993f bfc3 a2e9 b17c 913f
00000180: 5a7d 1db9 ea25 a63f 38f4 8de6 5c09 a0bf

fc2_weight f8 [10, 50]
-0.33728978708999274 -0.3212673640640721 0.3894691131598711 -0.27597375828728415 0.0021683806917849545 -0.07674156654698149 -0.1659485974396011 -0.3871354800932487
0.37677221194660154 0.10245508657033649 -0.19173912000753995 -0.05746018142046618 0.4935162400340082 -0.11871482219953561 0.7977860726280992 -0.3203362500869372
-0.20539599138562467 -0.5094337950793246 -0.12688104261605374 -0.260329758666405 -0.2740917266304733 0.3916503792675999 0.44376332321139517 -0.12602468594230448
-0.2281486481829421 -0.14975976845178712 0.5617857284495893 -0.2816968665510214 -0.2563120865869834 -0.1447646505535875 0.5518961886969042 -0.04537439902161637
0.5717008874789195 -0.361215648544074 0.6937546638724089 -0.3420851707086963 0.7350479316856652 0.0603466856765308 -0.33214652227487873 -0.31388825732892583
-0.1594377537840982 -0.3733802520077044 -0.3981489126813572 0.5331066020511513 -0.15354059266419537 0.3789602117784443 0.5335050092968154 -0.198287051197774
0.026358471564068547 -0.1569065500143519 -0.37361288296714196 0.6406103410613496 -0.12801205625616208 -0.2818040528964648 0.3681190412620617 -0.18359130635327434
-0.06292903519815099 0.6307023247580288 -0.22441770730948912 -0.08221851388347123 -0.08514927345693109 0.4768730711450372 -0.028705799845145555 -0.13383546244384278
-0.1523561296418371 0.5362805587854295 -0.19416915320180136 -0.19073110720263764 -0.2510009350448581 0.03982369568844683 0.7127979046500529 -0.469146992148007
-0.19757159319863743 0.7700399637202893 -0.09544855678825322 -0.49295885638956405 0.0053255090806213655 0.5363991512345345 -0.1740503665199807 0.05820668640660706
0.04560491299298977 0.7796820092077421 -0.09477301584630941 0.4059350290814077 -0.05878790667573582 -0.13106561797154684 -0.13371479712633277 -0.30056570203989874
0.5794332860869357 -0.3319622235589882 0.09809381336124634 0.38275002319090595 -0.218590789630458 -0.0523010268161012 0.06502039698416326 -0.4669664219714682
-0.3788504491064712 0.18608677374582436 -0.26689620753196946 0.7638692230783917 -0.145536788329917 0.0024606045518786104 -0.25734755578848034 -0.14688862824548043
0.3776922404128648 0.6791134354650272 0.5495344301141954 -0.1033116386237473 -0.2500033232533549 -0.46313102362152 -0.26357081136088545 -0.18715473516710748
0.23271708820538772 0.04540710804844031 -0.15791075204768745 0.034593492075347745 -0.173668622964018 -0.3452878796757959 -0.04942619890613477 0.15116852586541632
-0.3798284665647698 0.2815612414720046 0.02102561703950626 -0.2413911445718155 0.49166492582847676 -0.5107713947123932 0.630123211886207 0.6248700549218846
-0.3023318382262096 0.6553473002479479 -0.13450081689017748 -0.043393905112231915 -0.18780238960821366 -0.11318461458447747 0.7738839784202693 0.23126502470387167
-0.07484688517804498 -0.3006698826395046 0.5124247716098369 -0.3168012344763551 0.3858296888230004 -0.3999622134670706 -0.370462425953876 0.6001961354902621
-0.15390917979631638 -0.3392089476275996 -0.36628028267813334 0.3869394649892922 -0.5547906507145882 -0.13871001575980613 -0.12242737219648625 0.6635041469348825
-0.4273338658770735 -0.17141693001619013 0.2927826643556728 0.14640432540264892 0.03706397062358203 0.5547346338190962 -0.12401561439311538 0.4948666696706266
0.48856098230295564 -0.40187608214969456 -0.35169052969750036 -0.07105259696879883 -0.08906466097366758 -0.3181892674782437 0.027655927435292466 -0.2383685878590623
-0.291467909839409 0.1747197849135425 0.6186906028957391 0.03589400745188942 0.43463787935319564 -0.2606551160584079 0.5994489954259139 0.4818837866090359
-0.16383766538851113 -0.25725626503494803 0.714024584586333 0.5619119287974123 -0.2149621162953023 -0.22232729435881218 -0.00012360150651221155 -0.44568229686876515
-0.14068613414361114 -0.3236741020721265 -0.11751183332970676 -0.2647323815143872 -0.1478393728112164 0.5142348034179791 0.40715129303286157 -0.25744948246161037
0.6137067258680328 0.46499345135778425 -0.0883471159424663 -0.5924933149259441 0.36244593533613667 -0.29020967373510076 -0.3117107776281531 -0.3233927745323616
0.06886809990201881 -0.28546780400027 -0.2228905051059135 0.08025380338983866 -0.6318311120471106 -0.21313546971905054 -0.4416072203332894 -0.2881693935172643
0.3667324297812896 -0.5567523746624251 -0.11647645128086255 0.48965707302597233 -0.2529590836287347 -0.09662842696229046 -0.03133715467721699 0.7455622131466534
-0.09403312033189229 0.6378390851267741 0.8045828397297915 0.38994026084729577 -0.182651471327685 0.3676857090076633 -0.2641317299965716 -0.1261678448796732
-0.10316319373587005 -0.46058779602583194 -0.16629456971233006 -0.30510917894671363 -0.2958224158549867 -0.17289689751285833 -0.31785814244879146 -0.22904242455383733
-0.4697339712323613 0.49212472938778795 -0.22051410043650296 0.5374044751099588 -0.07836080072413096 -0.2113373858201748 -0.30101656619442324 -0.18044111439623725
0.46405062979931505 0.406174062816742 -0.20991555658588174 -0.3310897094140174 -0.0998580776913059 0.4803058863760886 -0.4616817463042665 0.5102632828995218
0.17744816876687566 0.18035386978646809 -0.1777548448650876 -0.10778097938323683 0.38831250504354037 0.3981575486297905 -0.5025444908563071 -0.004005265032651974
00000000: 75e2 34e7 2796 d5bf 2259 7bfd a48f d4bf
00000010: a4b8 f4db 0fed d83f 617a 99d6 8da9 d1bf
00000020: 3300 0285 6cc3 613f df26 90d6 55a5 b3bf
00000030: e0fa 68bb cd3d c5bf f4ca 87e4 d3c6 d8bf
00000040: 018b 1632 091d d83f b5e1 201e 7f3a ba3f
00000050: fee9 e550 e88a c8bf 93d7 0bc0 6b6b adbf
00000060: be6b bf23 c595 df3f f4bf e536 1864 bebf
00000070: fe8a 64a8 7687 e93f e22f 769d 6380 d4bf
00000080: 6789 dd74 6a4a cabf c0f8 2a1a 484d e0bf
00000090: bd58 4254 a33d c0bf 4375 e925 3ea9 d0bf
000000a0: fed9 7e06 b88a d1bf d1e6 9ac0 cc10 d93f
000000b0: b1dc 1648 9e66 dc3f f230 4eb0 9321 c0bf
000000c0: a342 4993 f933 cdbf 02e4 e0fd 532b c3bf
000000d0: e29d 6110 26fa e13f 613a 4e4b 5207 d2bf
000000e0: b37a 5dcf 6a67 d0bf a64c dfe7 a587 c2bf
000000f0: 1db0 2732 22a9 e13f f63a bf2f 503b a7bf
00000100: c71d daa8 5f4b e23f ef36 533d 281e d7bf
00000110: 69f1 18fb 3c33 e63f c5fc 2833 b9e4 d5bf
00000120: cfa2 723d 8385 e73f 922d cec2 c2e5 ae3f
00000130: b8a5 a97c e341 d5bf f3df f4c5 be16 d4bf
00000140: 2c0d 20d1 7468 c4bf de19 d648 76e5 d7bf
00000150: 82e1 b993 457b d9bf 99ec a293 350f e13f
00000160: 5bf3 0cd8 37a7 c3bf b8b6 0455 e240 d83f
00000170: eed2 e518 7912 e13f 0caf 0e58 7861 c9bf
00000180: bb62 5c15 b7fd 9a3f 8a7f 6b8a 8315 c4bf
00000190: 5552 6d02 46e9 d7bf 19d0 0a42 e17f e43f
000001a0: 3495 8ef5 b262 c0bf 3a84 c4dd 1309 d2bf
000001b0: f558 d02a 438f d73f 6701 4f80 eb7f c7bf
000001c0: 9a17 2504 1e1c b0bf d819 4ba4 b62e e43f
000001d0: a2ce c42c b8b9 ccbf d056 41c4 450c b5bf
000001e0: f592 c6c0 57cc b5bf 164e 3aa1 1685 de3f
000001f0: 6464 299e 0d65 9dbf 43e4 1e3b 8521 c1bf
00000200: e412 14d9 6780 c3bf 4bd9 aed8 3529 e13f
00000210: 6b66 72e9 88da c8bf 08f2 e17d e069 c8bf
00000220: 141e d239 6610 d0bf a5eb 2c7d c563 a43f
00000230: 4123 248d 3dcf e63f a5b7 121b 8106 debf
00000240: d610 b4a5 064a c9bf 5a55 99d9 2aa4 e83f
00000250: 4d1f db0d 516f b8bf 0adf 9d4d a38c dfbf
00000260: 9384 5f75 33d0 753f 88f1 848d 2e2a e13f
00000270: 5bb2 074c 4847 c6bf 5cc0 0c4d 44cd ad3f
00000280: 9402 aff3 8659 a73f 5675 5aaf 27f3 e83f
00000290: 936a 9a5b 0b43 b8bf 2d26 8dea d6fa d93f
000002a0: eb29 25d1 7219 aebf 71ae 6817 c2c6 c0bf
000002b0: 4e0e 5304 911d c1bf 9ee1 23ed 773c d3bf
000002c0: 63a1 beac b78a e23f f25e 6c7b de3e d5bf
000002d0: 4094 5318 ad1c b93f d37b 09f4 f97e d83f
000002e0: 89b6 5572 c8fa cbbf f6da 713f 33c7 aabf
000002f0: f6b2 9e3e 2da5 b03f 58a5 ac21 c7e2 ddbf
00000300: 632e 3ff4 153f d8bf 836d baff b0d1 c73f
00000310: e1ad b1d4 d314 d1bf 265d 71de 9d71 e83f
00000320: 88f5 1e11 f3a0 c2bf 50c5 8402 4328 643f
00000330: b04a f4e1 6178 d0bf 68fc 3b1f 3fcd c2bf
00000340: a7ad 2113 1c2c d83f 8416 7319 4cbb e53f
00000350: 19ba ab3a c995 e13f fb66 2fad a172 babf
00000360: 2bed 50f0 0d00 d0bf 67ea 0d4e f0a3 ddbf
00000370: 7c69 be1b 58de d0bf 49c9 6ab5 aff4 c7bf
00000380: 98ff 876d acc9 cd3f f4e1 25b8 993f a73f
00000390: 80a4 dd65 6b36 c4bf 8a71 3cfa 3cb6 a13f
000003a0: 5564 fcff c53a c6bf 1c6a ba55 3219 d6bf
000003b0: 1221 bc07 644e a9bf 2164 6381 7d59 c33f
000003c0: b112 7f0e 1c4f d8bf f960 fc70 1905 d23f
000003d0: c968 4046 bd87 953f 2f6f bdaf e7e5 cebf
000003e0: 3a82 412a 7077 df3f 85b4 8040 3d58 e0bf
000003f0: 3c0e 7027 f829 e43f 7a74 447c effe e33f
00000400: 0b27 6ea3 6759 d3bf 4dc7 c2e6 9af8 e43f
00000410: 750f eaa0 5237 c1bf ca03 9bd6 b937 a6bf
00000420: be2c bda0 e809 c8bf 5ffa 0cba aaf9 bcbf
00000430: 64d4 4655 a8c3 e83f c8e7 e7a2 179a cd3f
00000440: 5b13 0c5c 2a29 b3bf 8f0b 35e4 2c3e d3bf
00000450: 422f 77a2 c865 e03f c822 5aaf 7846 d4bf
00000460: 6c85 d401 6fb1 d83f 8884 9e1c fb98 d9bf
00000470: 1899 f708 a8b5 d7bf 68b8 a386 ce34 e33f
00000480: 29c2 e3c6 4bb3 c3bf 2f8d 2472 99b5 d5bf
00000490: 056c d1da 2271 d7bf ae49 eabe 9dc3 d83f
000004a0: 4d43 9e52 d8c0 e1bf 1473 a8f2 3fc1 c1bf
000004b0: c818 b877 6657 bfbf f70f 7b0c 6d3b e53f
000004c0: f793 9a24 7059 dbbf a23b 336e fdf0 c5bf
000004d0: 3493 0f80 f3bc d23f f474 cc7e 60bd c23f
000004e0: 615a 607b 0cfa a23f 0cc5 c6d8 62c0 e13f
000004f0: d903 03c0 7cbf bfbf e168 8740 e5ab df3f
00000500: eaf0 4548 9544 df3f bd29 7875 56b8 d9bf
00000510: 8c46 d7fe 1882 d6bf 47e0 46c4 8030 b2bf
00000520: 8e79 1c0e f1cc b6bf d676 7084 365d d4bf
00000530: 2822 80df d551 9c3f c2ca 9fa4 dc82 cebf
00000540: cfff 2505 69a7 d2bf 1a7b 15c9 375d c63f
00000550: 7cf3 383c 50cc e33f 60a9 4108 b360 a23f
00000560: 6a2f 5b65 1bd1 db3f 6d61 c0cb 92ae d0bf
00000570: e82d dfa8 af2e e33f 4757 fd17 2fd7 de3f
00000580: b62b 59f3 a1f8 c4bf 9609 41fb e276 d0bf
00000590: 3dd3 ea15 4ad9 e63f 6d59 adb9 2efb e13f
000005a0: c502 afed e083 cbbf e9be 2385 3875 ccbf
000005b0: 7eda 3ddb 6033 20bf d647 5d0a 0f86 dcbf
000005c0: 96e0 92d4 0002 c2bf 9390 bd94 13b7 d4bf
000005d0: b349 0b69 4115 bebf a9f9 3216 60f1 d0bf
000005e0: 9085 a48b 66ec c2bf 8ea5 e48b 9c74 e03f
000005f0: 8c6a 064c c40e da3f 0edd e264 0d7a d0bf
00000600: af07 9e49 7ca3 e33f f8e4 9be4 73c2 dd3f
00000610: 5437 aba5 ea9d b6bf f093 568a b4f5 e2bf
00000620: c08e b56f 5032 d73f a434 6b98 cb92 d2bf
00000630: 3750 eec2 11f3 d3bf ba44 989b 77b2 d4bf
00000640: e01b d1fc 56a1 b13f 877e 8fc0 1a45 d2bf
00000650: ad68 0213 ad87 ccbf 6760 f064 838b b43f
00000660: 0bce 5ae1 f537 e4bf 3dcc 07e8 0548 cbbf
00000670: 8b92 40ee 4a43 dcbf f558 370a 5e71 d2bf
00000680: b2c4 124c 8b78 d73f 91a7 245b ead0 e1bf
00000690: a564 0195 66d1 bdbf 63b4 b99e 8a56 df3f
000006a0: bf56 da4b 7b30 d0bf 08be aafd a3bc b8bf
000006b0: c107 fa6c 6c0b a0bf ed24 5349 a5db e73f
000006c0: b2f9 90f8 8d12 b8bf 9c5c 5783 2d69 e43f
000006d0: 11fe f182 24bf e93f ede6 eefe c7f4 d83f
000006e0: 9897 f597 1f61 c7bf 443f d9a3 2988 d73f
000006f0: 91f4 8ac5 88e7 d0bf d651 c897 4426 c0bf
00000700: ea18 3f2f e768 babf db87 373c 457a ddbf
00000710: 555b 35f5 2349 c5bf 6646 52a6 e886 d3bf
00000720: 1856 6124 c1ee d2bf 3de4 324c 7c21 c6bf
00000730: 7d6e a5ad c957 d4bf c679 6d1d 4351 cdbf
00000740: 37d8 1013 1f10 debf 607f 91b8 f87e df3f
00000750: f73f d758 ce39 ccbf 3f48 aade 6a32 e13f
00000760: 1e05 6614 740f b4bf 5088 427c 1a0d cbbf
00000770: 3bfe d6fc da43 d3bf d9c2 97c6 b118 c7bf
00000780: dd47 ab69 01b3 dd3f bf01 127f c1fe d93f
00000790: ba9f 3a51 83de cabf 1a6c 7ee4 9230 d5bf
000007a0: 35f3 ec89 4c90 b9bf 22f1 83e6 54bd de3f
000007b0: 1a5e 6298 318c ddbf b9e5 0caa 1354 e03f
000007c0: 715e cb20 9fb6 c63f 654f 38ea d515 c73f
000007d0: 6757 b3b6 abc0 c6bf 48f4 94c5 8897 bbbf
000007e0: c18c 72b1 1cda d83f 8b4f 81cc 697b d93f
000007f0: f168 202f d814 e0bf 829b 3b25 d367 70bf
