trained_models/svhn_svhn_lenet_250_epochs.model (torch_old, 519322 bytes, 8 tensors)

layer0_weight f8 [6, 3, 5, 5]
0	0x3f88ab9b03aa4750	0.012046061562873384
1	0xbfd0bbbd75a46578	-0.2614587448930119
2	0xbfd3f822a364bf6e	-0.3120199771537874
3	0xbfb630a83a3ba367	-0.0866799490137403
4	0x3fd2f9733493bbc7	0.2964752210090719
5	0xbfb80c6d8203c4bf	-0.09393963264644166
6	0xbfd8c5fb0a4a3807	-0.38708377842783687
7	0xbfc783c608849e65	-0.18370891014022842
8	0x3fc56b5db3353499	0.16733905077345382
9	0x3fd6b06f6ef35513	0.3545187552930013
10	0xbfd9a0c38d0887ad	-0.4004372479704397
11	0xbfdfe242b4b09e84	-0.49818484921932105
12	0xbfad5a564cb47e8a	-0.0573298424371816
13	0x3fd60190901ae83d	0.3438455016399791
14	0x3fdee70005938251	0.48284912628699767
15	0xbfd35eb07123e12e	-0.30265437172740206
16	0xbfd367e82448a398	-0.30321696799597353
17	0x3fce11590040b60c	0.23490440857260386
18	0x3fe14e192ae729a0	0.5407834852169806
19	0x3fcdd12fe541522a	0.2329463834199868
20	0xbfd79f579a0bdd61	-0.3691004757269721
21	0xbfb0a2c32bee45e5	-0.06498355696228193
22	0x3fd3acc52f26a5d5	0.3074200592478438
23	0x3fd6aa61e38c1121	0.35414931508445774
24	0xbfa09889db9404be	-0.032413776449183626
25	0xbfc2ff733fa7bf9f	-0.14842072113196722
26	0xbfd40540dcb0a64f	-0.3128206401039266
27	0xbfd81e9397feb066	-0.3768662437748901
28	0xbfc44c2f34488338	-0.15857496312039543
29	0x3fd19937553c271e	0.27497657130935405
30	0xbfd90771dfbce280	-0.3910793957652814
31	0xbfd954f145e11846	-0.3958094770827113
32	0xbfcc0581720b1062	-0.2189180189944891
33	0x3fd5514c2e643c64	0.33308701067375623
34	0x3fd1b334a8ee9cfe	0.27656284806512577
35	0xbfe17bfa66046c5f	-0.5463840477490399
36	0xbfe1b0f30d776c67	-0.5528502715127502
37	0x3fa2fd6910243dd1	0.03708961793938282
38	0x3fdf85c621848438	0.4925399138756492
39	0x3fe0125fd8daad02	0.5022429690774575
40	0xbfe3ba4a8b138123	-0.6164906231242963
41	0xbfd2a4d362cfbfcd	-0.29131016397059
42	0x3fc0692543659a0d	0.12820878783095715
43	0x3fe2da1c873cfe36	0.5891249314663074
44	0x3fd4ef1ef8a5d962	0.32709478647247725
45	0xbfdfede8c7ca150c	-0.4988958312099647
46	0xbfc2f454aa5d62f7	-0.1480813819751103
47	0x3fd3fd57c36c03c3	0.31233781894848905
48	0x3fdb910d087e2af9	0.4307282050073549
49	0x3fbfc451a67b7e99	0.12408933939468127
50	0x3fb6b6b1fdee338c	0.08872520875429596
51	0xbfab788583d6cc92	-0.053653881400714046
52	0xbfd461e819d38362	-0.3184757473191465
53	0x3f64c71fc278dba6	0.002536356001452816
54	0x3fc0c5becfa8a3d5	0.13103470935428044
55	0x3f5b47175fd78e3c	0.0016648987069566431
56	0xbfc4e059c9b53569	-0.16309664105430535
57	0xbfa9f16cf523dfbb	-0.05067005627091655
58	0x3fbeae19ebfa6e5d	0.11984407435596141
59	0x3fd5e2b68aaedcde	0.3419624666525588
60	0xbfd04c7c1f5cbfa7	-0.254668264987226
61	0xbfd8c570cb46cb5e	-0.38705081797814056
62	0xbfa39c6a944ed0b0	-0.03830273685835672
63	0x3fd6f9d31a55d02c	0.35899808475301387
64	0x3fd1bb3f0d305ab4	0.2770536068723388
65	0xbfd26f9972ad7484	-0.28806148718815217
66	0xbfc83806dcee9538	-0.18920980251020025
67	0x3fc961d46cec0a6c	0.19829802816828435
68	0x3fd16061d5afb822	0.2715077006131442
69	0x3fce95626c1b9d95	0.2389338519926524
70	0xbfc99c4ea3204693	-0.2000826164735839
71	0xbf89a35833fc5839	-0.012518586241224582
72	0x3fd830bb50edd65f	0.37797434714534534
73	0x3fd659e448dfc7af	0.3492365562116175
74	0xbfaf2621ee99eec0	-0.06083780324567334
75	0x3f82852bd61f83b6	0.009043066474932231
76	0x3fb158c6d100f637	0.06776087381964478
77	0x3fa502bbcee8d83f	0.04103648091079081
78	0xbfcbae782d8f7d10	-0.21626188492425813
79	0xbfbefc0efc52556d	-0.12103360805698112
80	0x3fd2b1e9ba0bcd92	0.29210894745411864
81	0x3fd7543931df08d9	0.36451558943020995
82	0x3fc8b11dca803e0b	0.1929051626943735
83	0xbfcd73b1464baa81	-0.2300931542625513
84	0xbfda680a2c36db34	-0.4126000816135502
85	0x3fd5b775b88bb68d	0.33932250043913187
86	0x3fd73971f0ea51d1	0.3628811695755561
87	0x3fba25f61b8f8ce4	0.10214174435491291
88	0xbfd19c992634119f	-0.2751829979972857
89	0xbfdaa2c5ef39db52	-0.41618488656915986
90	0x3fd8ea42fc6a8459	0.38929819726951603
91	0x3fc9385c081e99af	0.19703245541059064
92	0xbfba3ce111c60e0d	-0.10249144252707527
93	0xbfd715897e3608e0	-0.3606895191698083
94	0xbfd961bb3ba6069f	-0.39659004998257247
95	0x3fd1a372d90b86ce	0.2756011123256997
96	0x3fc00d731f782f66	0.12541045223803876
97	0xbf8d562900d4f201	-0.01432449373043543
98	0xbfd0e9a783de5228	-0.26426113012101604
99	0xbfc7b5dd067bb86d	-0.18523752991262957
100	0x3fa78b85da1e8569	0.045986349941140876
101	0x3fc7f8b2bc3025a9	0.18727716626044114
102	0xbfc0d76ae8cbf4f6	-0.13157402388598144
103	0xbfd37859e2c1a767	-0.30422064918695074
104	0xbfc7efb9c70ce101	-0.1870033475804647
105	0x3fd354ee1c29ff6e	0.30205872297664527
106	0x3fd8c9bcb41e4259	0.38731305684726675
107	0x3f9c418547e24514	0.027593691360896136
108	0xbfc84924782683b3	-0.18973213068696068
109	0xbfd0ffd7a89f4379	-0.26561538187984685
110	0x3fd2a1edfeec230b	0.291133402774492
111	0x3fd89838650a865f	0.38429078929229904
112	0x3fb7a05b2c8b1812	0.09229059064372816
113	0xbfdc6616fef39a2d	-0.443731068588394
114	0xbfdcfd117fdc89b0	-0.4529460667273737
115	0x3fd6b699bf9e45eb	0.35489505493850854
116	0x3fca60be01c6eae2	0.20607733809250478
117	0xbfca1780a4067ae3	-0.20384223946617572
118	0xbfd46ec92355bc52	-0.3192618222300939
119	0xbfd84a53f06f6577	-0.3795366142272409
120	0x3fd0cf66b39a56f2	0.2626587633070435
121	0x3fa81b1be7357c7d	0.047081825231310305
122	0xbfc681aed343b364	-0.1758326083721854
123	0xbfd89cda9680143d	-0.3845735997895792
124	0xbfcca8b3f3f83e11	-0.22389840519507279
125	0x3fbcb6e4834e8bdd	0.11216572004063559
126	0x3fd0b59885f231eb	0.2610837276522761
127	0x3fbafb90e558d637	0.10540109252254913
128	0x3fa3d9b7be445bc3	0.03877042958827517
129	0xbfb05e8305637432	-0.06394213563494658
130	0x3fc539ef3cd076b4	0.1658305212921981
131	0x3fd0ce4e3f4a8768	0.2625918977811268
132	0x3fd029846b3239de	0.2525340124929282
133	0xbf980a6275126d00	-0.02347711410093911
134	0xbfcbaeb015a0941a	-0.2162685494996886
135	0x3fd14ae956ea8cc4	0.2701972340384595
136	0x3fd6e25fbf27c888	0.3575667731048573
137	0x3fb5b921bdb2cf50	0.08485613709745832
138	0xbfd1503965d97d51	-0.2705214972138111
139	0xbfd55a9956be757e	-0.3336547228917296
140	0x3fd74d5a566f01fb	0.36409624520095435
141	0x3fd049815aaafa9a	0.2544864068440035
142	0x3fbd0a55d1d050b9	0.11343895313649711
143	0xbfc507774c871da8	-0.16429034458836367
144	0xbfd093ed208761c4	-0.25902870346683593
145	0x3fc3a0f6d76648d6	0.1533497382884607
146	0xbf877eab28f15ab1	-0.01147206991860847
147	0xbfc73d63f1d91cca	-0.18156098660458603
148	0xbfc54be9d719312c	-0.16637919428684123
149	0x3f95f77ecf67bd4a	0.02145193234349322
150	0xbfb847d2a9d01030	-0.09484593053645152
151	0xbfc207714133304c	-0.14085212405768954
152	0x3fd033c7faec4dc8	0.2531604719563032
153	0x3fdd9bb52a349b7a	0.46262864228849987
154	0x3fac84e1452cdd01	0.0557012936537209
155	0xbfc2b0d27c9afa0c	-0.14602118572470635
156	0x3f973e6315132d03	0.0226989251721479
157	0x3fde66544d22c390	0.47499568493645317
158	0x3fd1c66cd2e179ec	0.2777359065420615
159	0xbfc51c25e485bf6e	-0.16492150934527267
160	0xbfbff9fde3f6caf5	-0.12490832152870353
161	0x3fd1ef225f1a957b	0.28022059714779574
162	0x3fd9332b80f36a4c	0.39374816506248034
163	0x3facecb9468a82fe	0.056493558751077075
164	0xbfd7dc6efbddd400	-0.3728291949876734
165	0xbfa10d50fb0191bb	-0.03330472053565666
166	0x3fcafa8cd0c40774	0.21077118104590975
167	0x3fbda36ec0576ae0	0.11577503391110211
168	0xbfcd5b1bd0b6ddeb	-0.22934291545037352
169	0xbfd85049b1363094	-0.3799003820975113
170	0x3fa26949342807b6	0.03595951806711588
171	0x3fa4b8d24ae0a761	0.04047257579834596
172	0xbfd07a85ed8b32a7	-0.25747821996336956
173	0xbfdb7ecf96d61010	-0.42961492281051594
174	0xbfc8f19671424675	-0.194872670461837
175	0xbfb1ced49db5106f	-0.06956223345065536
176	0xbfb1033851d47d7c	-0.06645538327983574
177	0x3fd43916a26c87a9	0.3159844003840769
178	0x3fd86e3363f145c9	0.38172611961371367
179	0xbfc01a45633aebce	-0.12580172867987333
180	0xbfa4e3518c6a04b9	-0.04079680289306382
181	0x3fd08f23df911783	0.25873658020679374
182	0x3fd5bb4a1ecceb02	0.3395562458787681
183	0x3fd95c9b670dd24a	0.39627728523126804
184	0xbfbb8bbc22204401	-0.10760093529849259
185	0xbf99ef179cb20a73	-0.02532612699406873
186	0x3fdae7c8dd9b6d50	0.42039701119729944
187	0x3fd2840933301315	0.2893088340645574
188	0x3fc3f4b41348c28a	0.15590525571453312
189	0xbfcfa029cb435dde	-0.24707529473265216
190	0x3fd050855ba00fda	0.25491460750367667
191	0x3fdcef9c7e90054b	0.4521247135126784
192	0x3fca082959b5397e	0.20337406997937174
193	0xbfa6022e2daa2401	-0.04298538501195282
194	0xbfd6772ff33f3b63	-0.35102461580839
195	0x3fc9c7f820a8145c	0.20141507715757967
196	0x3fc3eb969cb75d3d	0.155627085229506
197	0xbfce7a7c56a17677	-0.23811296682372404
198	0xbfdb0ec947306642	-0.42277748062187837
199	0xbfb4199616e3190f	-0.07851541575209729
200	0xbfc40b27cb90cc48	-0.15659043731429478
201	0xbfcd15e8d853da85	-0.22723112643116763
202	0x3fcdae3a05dc4197	0.2318794754614941
203	0x3fb719e930f05d89	0.0902391190032771
204	0xbfcd1e660a46e1d2	-0.22749019147683086
205	0xbfcffa4e9ea4e7bc	-0.2498262667302792
206	0x3f82c055fbcf7313	0.009155914065496462
207	0x3fbe171a49138321	0.11754001888358491
208	0x3fcbbfc516cf8ef2	0.21678985227401132
209	0xbfc8d2d04d1892e9	-0.1939335228390953
210	0x3f710c0373f35b4a	0.004161847579971243
211	0x3fc7f02ea5501c8c	0.18701727935715373
212	0x3fbb94e226c7f92f	0.10774053046040842
213	0xbf7aaecfbe37b7c0	-0.006514369484177551
214	0xbfe069c6a27e2020	-0.5129120992360221
215	0x3f99e6df7dd3a3c1	0.02529477315411888
216	0x3fcb40a101407282	0.2129098182785079
217	0xbfbcd962511fe9ee	-0.11269201737005805
218	0xbfd0819d8c8012e7	-0.2579110977242593
219	0xbfddd017282dc65f	-0.4658258335467504
220	0x3fbbd71e74883494	0.1087512049200135
221	0x3fb5808b731f5760	0.08399268684965255
222	0xbfd24f55b758dcdb	-0.28609221367828547
223	0xbfdab2a844267e91	-0.41715437560376595
224	0xbfd22d8286ff68a4	-0.28402770217292983
225	0x3fd7c43424b27484	0.371350322567942
226	0x3fe1c038f5f096a4	0.5547146609794322
227	0x3fe942b43879d4f0	0.7893925765080478
228	0x3fe218c5ffbb575e	0.5655241007577663
229	0x3fe18aabcd8e9a7b	0.5481776251588849
230	0x3f9415156f1e4f91	0.019611678034905437
231	0x3fafd01fa65bd5ff	0.062134732301199584
232	0x3fd3dfe7d772f127	0.31054111518803257
233	0x3fd70e9ad81a35d2	0.36026640990971004
234	0x3fdb9ca945e582e9	0.4314368422110833
235	0xbfcc9e13978a5a10	-0.22357411288676632
236	0xbfded8fb408c1845	-0.4819934969276612
237	0xbfcbe4770c61f68f	-0.21790969948408587
238	0x3f9ea46fa542f2f3	0.029924148999941513
239	0x3fb37a2df9b48412	0.07608306261364842
240	0xbfcbacc88163ce26	-0.21621042554726094
241	0xbfdb5aa78620e549	-0.4274081048821086
242	0xbfe444cd7e49febd	-0.6333987680991054
243	0xbfdf50104668114d	-0.4892616927684415
244	0xbfc38212fad254a4	-0.15240704772137292
245	0xbf9bf4824c393ece	-0.02729991522056601
246	0xbfd418fc78df0f72	-0.3140250378021313
247	0xbfd6f91fdde891c1	-0.3589553515505735
248	0xbfdd62842910a222	-0.45913795480967867
249	0xbfc9d29e48455f33	-0.2017400601277984
250	0x3fda64ee483cf777	0.41241032652384696
251	0x3fe3c74c8ef7cff3	0.6180784981102064
252	0x3fe92bf24795c11a	0.7866145513671967
253	0x3fe7e8dd62188c76	0.7471758762298026
254	0x3fe1c61039ee7f03	0.5554276591755926
255	0x3fad59e6c53ddce9	0.057326518609380823

layer2_weight f8 [16, 6, 5, 5]
0	0x3fb1498d4de64768	0.06752856399387286
1	0x3fd3e1ef47a64ae0	0.3106649589255266
2	0x3fe12600333864cf	0.5358887672802214
3	0xbfae6d31dbfeb410	-0.05942683992848441
4	0xbff1a108ffb7a3a0	-1.1018152226408588
5	0x3fc2501e05a3d604	0.1430699851550089
6	0x3fc87438cf24614f	0.19104681124077635
7	0x3fe0e75b0084d042	0.5282416353352419
8	0xbfc57b9f32127d3b	-0.16783513970310956
9	0xbfd834697f9ec5b6	-0.37819898093138293
10	0xbfb0e5b0201f3d88	-0.0660047605917865
11	0x3fd2c7159afb2484	0.2934011472212392
12	0x3fa30832b15535a6	0.03717192091663017
13	0xbfaeee2db9f73567	-0.06041090865219694
14	0x3fcbc02ab19a1e80	0.21680196449255007
15	0xbfa6607c599e2c8e	-0.04370487779586894
16	0x3fce4c18f654a475	0.23669731166708954
17	0xbfc0413fa4f3dbc6	-0.12699122957539383
18	0xbfb010453f5dad2c	-0.06274826809901829
19	0xbfb04654addd6142	-0.06357316250558134
20	0x3fb9cabdfd3a4095	0.10074984962762053
21	0x3fd0724782dbd010	0.256975057403225
22	0xbfb752a5e47c90f6	-0.09110485866819204
23	0xbfc95c74a4eda8f9	-0.19813402226584012
24	0xbfdf1d4b21b90e0e	-0.4861629323315534
25	0xbfb9eaba3f873b58	-0.10123790789587639
26	0xbfe3e46fbc68b017	-0.621635311113553
27	0xbfee6c441508f1b5	-0.9507160578573833
28	0xbfbfad8fa470ba23	-0.12374208225876564
29	0xbfbbdb120e8964b3	-0.108811501072881
30	0x3f9af087f6d8fc46	0.026308178368932532
31	0x3fa5bc41bf0e3135	0.04245191056461054
32	0xbfc072634d93e61a	-0.12849084175086106
33	0x3fd424d2b8606517	0.3147475052406476
34	0x3faa7146e0fc73a1	0.05164548393643221
35	0x3fd24907c7ce8c87	0.2857074214209167
36	0xbfe1e278fde75eb1	-0.5588955840166446
37	0x3fd6b11412efa322	0.35455800866343357
38	0x3fca0fd06c955822	0.20360760976717623
39	0x3f3181956923fb37	0.0002671232006292048
40	0x3fc52a994f58f436	0.16536251425159926
41	0xbfd9e6dace521959	-0.404715253338869
42	0x3fd6e9baa490fd22	0.3580156905263313
43	0x3fb301ab99da803b	0.07424423700513298
44	0x3fa6aad86e5de0bb	0.04427219722032435
45	0xbf9b2f84c06b7210	-0.02654845642506315
46	0xbfd92b0721e29f17	-0.3932512122068927
47	0x3fdd8009bad330fa	0.4609398197615203
48	0x3f97ebf309e702e7	0.023361012915986825
49	0x3fba6ce1b17d8b8a	0.10322390158903097
50	0xbfd09c63081f5cd3	-0.2595450953790081
51	0xbfe6d9f78f443d1c	-0.7141073034453345
52	0xbfe170e561f76e4f	-0.5450312531861047
53	0xbfa7d7f7fcae077b	-0.04656958541364894
54	0xbfaa6d82ee554210	-0.05161675605143412
55	0xbf8c25952940f7a2	-0.013743558236565982
56	0xbfde2454dfe25ccb	-0.47096750129408055
57	0x3fd6c731fc87e26b	0.3559079137917595
58	0x3fc5fa0f891aa375	0.17169374651464478
59	0x3f88f05756940dba	0.0121771643921481
60	0xbfb0d6ae40335456	-0.06577576701541096
61	0xbfd6805deb14d451	-0.35158489186443825
62	0x3fdfc77ebccd864f	0.4965512126710551
63	0x3f4b6d89aa5bf5ae	0.0008370325274140078
64	0xbfcb0e6049003362	-0.21137622417918595
65	0xbfd5bfdb8d58ce88	-0.3398350601521334
66	0x3fcbe7cdcd6f2d0a	0.21801159411402465
67	0x3fce6be6fd3118b4	0.23766791689758338
68	0xbfdce97ea2049ba4	-0.4517513830382376
69	0xbfbaee39451aff37	-0.10519750535149518
70	0xbfdac582586689be	-0.41830500252595104
71	0x3fc8e417e07e821e	0.19446085416440523
72	0x3fcd275ab3576979	0.2277634978953065
73	0xbfd9baff1e407544	-0.4020383639743452
74	0xbfb366e267dc97a0	-0.07578864131627805
75	0x3fb80a32bbdf9c78	0.09390561186556734
76	0x3faf5a64603d19b1	0.06123651194370739
77	0xbf99435c943f5bb8	-0.02467102675276653
78	0xbf95d4b1c23fcddf	-0.02131917713263742
79	0xbf9b508ef008da60	-0.02667449321799109
80	0xbfdffaeed0fa73b9	-0.4996907273105609
81	0xbfd812f4e4d377e1	-0.3761570200566649
82	0xbfdb31ecbb8cc5a4	-0.4249221641103651
83	0xbf78a7e7d27810a9	-0.006019502215625896
84	0x3fd54738cd8b2b07	0.332472038961598
85	0xbfcf2b3ff7436e9c	-0.24350738118561288
86	0xbfd79f367064e0ee	-0.36909256912214417
87	0xbfd9377ae81d3817	-0.39401123683353617
88	0x3fcb5b58e113c72a	0.21372519483662106
89	0x3fcd7a2a1872d072	0.2302906627061279
90	0xbfdbfaadaed8e21e	-0.4371751983158293
91	0xbfdf470d19c974f1	-0.48871161955123826
92	0xbfcaf48f8669327d	-0.2105883985808709
93	0x3fc8f3cd31474b0a	0.19494023233581742
94	0x3fc3af7f81aa2c5b	0.15379327613149738
95	0xbfd860b04e74e6ad	-0.38090140973836634
96	0xbfde0cdef795ce8a	-0.4695355813812304
97	0xbfcbe5e5eb3ad31b	-0.21795343385533603
98	0x3fc5af3e0efea03f	0.1694104741302471
99	0x3fcc7c95aa2accd9	0.222552021111915
100	0x3fb8850ab7e30580	0.09578005780624288
101	0x3fd4098d72b2bac9	0.31308304024689143
102	0x3fd68448037feb17	0.3518238100220272
103	0xbfb0fce2fbf8903d	-0.06635874416002792
104	0xbfc90c654e298f01	-0.1956907874729197
105	0x3fbb29314b6a6fbd	0.10609729853825818
106	0x3fd8735236d35a1c	0.3820386443525494
107	0x3fcdec029b79f76a	0.23376495925543433
108	0xbfe155dbeef858fc	-0.5417308490166586
109	0xbfc509a10130948a	-0.1643563514527709
110	0x3fa0301b3c18581b	0.03161702259619422
111	0x3fc6f094f358a0c1	0.17921697504175962
112	0xbfbd410ffc5c05f1	-0.11427402411575095
113	0xbfd7ad7e42cc630e	-0.36996418498306205
114	0x3fe10657d147418b	0.5320242965190557
115	0xbfda3c61c2b9a680	-0.4099354173291445
116	0xbfbd89501eb5a2bf	-0.11537647962326057
117	0xbfd4962e3b39181c	-0.321666295847878
118	0xbfb61ce4935ec877	-0.0863783702650681
119	0xbf754b5bffe6f289	-0.005198821424013852
120	0xbf979fcacc0dd087	-0.023070496277299426
121	0x3fc96f56a8de7d53	0.19871028180657876
122	0xbfc5c129df1dca9f	-0.16995738405565405
123	0x3fb23a8e401451eb	0.07120598854482522
124	0x3fca1a5e43bb437b	0.20392969424440452
125	0xbf58c6deac44df4f	-0.001512258008984763
126	0xbfdcd1cba23fc12c	-0.4503048977340025
127	0x3fc5565c8fd5beb4	0.16669804595175253
128	0x3fc50adea6d8ae26	0.16439421793744308
129	0xbfd47ccd8aecf0fd	-0.32011736456821877
130	0x3f9679dc1ce70325	0.02194923330694389
131	0xbfd2275e6f96eaf4	-0.28365288636602703
132	0x3fa72b17e846c99f	0.045250651458803796
133	0xbfdb84e3ae2ab5c7	-0.42998592384796236
134	0xbfddc2233554ff83	-0.46497421463208627
135	0xbfcbe81c22ea325b	-0.2180209322435925
136	0xbfbf1cc4604f182b	-0.12153270102780371
137	0xbfba18233f97c3aa	-0.10193081190642653
138	0xbfe009bad73999fe	-0.5011877254117392
139	0xbfd310e6f59d98f4	-0.2979066275205604
140	0xbfd4a793bfdd07f8	-0.32272809731159624
141	0x3fbf361b0a7b7e70	0.12191933637540742
142	0x3fb936c36e6941f2	0.09849187322220823
143	0xbfbaa79e4a819ba0	-0.10412015265465735
144	0xbfcd3729fe359d5a	-0.22824597275323805
145	0xbf8bb5a1134d08f2	-0.013530023957745805
146	0x3fdcfef74301c233	0.4530618814815483
147	0x3fd6e0d7670485d7	0.3574732309371859
148	0x3fd0f39ba983d579	0.2648686557216347
149	0x3fd0c4a2bbd432d0	0.2620016893641095
150	0xbfb950120e1d92c6	-0.09887802929513176
151	0xbfd6a256d0242200	-0.35365839315684866
152	0x3fb3e7b26694240c	0.07775416378366645
153	0xbfbb7a8529afe10c	-0.10733825938939762
154	0xbfb6f447c74113ad	-0.0896649228535142
155	0xbfd637970a8d50a2	-0.34714294462652096
156	0xbfcff6bf0f7f9013	-0.24971760041000887
157	0x3fd1ddd0484ced16	0.2791634279307841
158	0xbf93785f352b1690	-0.01901386987699155
159	0x3fb47905bee15985	0.07997165594256302
160	0xbfd7bb77ef079e59	-0.3708171686434745
161	0x3fac93a0cfb324e4	0.055813813547112706
162	0x3fd0b9fb0d6b233d	0.26135135946656246
163	0xbfd08bd9c99e7442	-0.2585358113227053
164	0x3fb1878a94adea2c	0.0684744465815263
165	0xbfc6978fdcdc9203	-0.1765003040719791
166	0x3fcf0aaf8a415d47	0.24251360178707612
167	0x3fbf229aba9218df	0.12162177138279472
168	0xbfdad002ba1a9433	-0.41894596265985057
169	0x3fc93bf8000bdd28	0.1971426010347639
170	0x3fd538d3ee0a38f2	0.3315934967621522
171	0x3fd09e65599dcb65	0.2596677184257515
172	0xbfd0d234460879d2	-0.2628298458020285
173	0x3f86a08c124bd701	0.011048406895024511
174	0xbfbff619b84e0bad	-0.12484894513731488
175	0xbf8ea042dc581483	-0.014954111432425648
176	0x3fd93061207f5a91	0.3935778443678056
177	0x3fa9ade75d37e363	0.05015490544241776
178	0xbfd8a8cca8172c90	-0.38530270018663604
179	0x3faf95301b2655aa	0.06168508845727712
180	0x3fb85463570f1334	0.0950376594110594
181	0x3fd4c1dd38acacf8	0.324332528444486
182	0xbfdefba3695b1851	-0.4841087845674155
183	0xbfd37a4af0428e5e	-0.3043391557969012
184	0x3fc0be41be2888ff	0.13080617699694838
185	0x3fc7c713f1a69751	0.18576287555077411
186	0xbfd71b226e8f349a	-0.36103115841690114
187	0xbfe4a1d3036e4ca6	-0.6447539393433501
188	0x3fc780d090e8ff39	0.18361861301127094
189	0x3fb3b92aed5f75c9	0.07704418463932607
190	0xbfcf619f33137918	-0.24516668313931045
191	0xbff2714e8b3042e6	-1.1526627957393258
192	0x3fc2343f70955602	0.14221947667344642
193	0x3fd434b3687819ab	0.31571660234512916
194	0x3fbdefcd733c935d	0.1169403463687337
195	0xbfe5f43d343202c5	-0.6860643405380747
196	0xbfdd0ab5681cd59f	-0.4537786022877643
197	0x3fdedafe726c1ced	0.4821163289456781
198	0x3fc60780aa694e10	0.1721039611899049
199	0x3f4428d039069292	0.000615216895358888
200	0xbf6dc0eec52c69cd	-0.0036320365410464684
201	0x3fc7d27e12dc0a23	0.18611122055888626
202	0xbfc390b587615bf5	-0.15285367117277784
203	0x3fb362b1ec127ce7	0.0757247163150968
204	0x3facd81a1db60334	0.05633622753794612
205	0x3fc6d305ac77355f	0.17831488534140313
206	0x3fd8c3f5593d9e20	0.3869603511325028
207	0xbfde088921be1e29	-0.46927097602062645
208	0x3fa7265fd050d76c	0.045214647463963725
209	0x3fabd04ad45da902	0.05432351915699664
210	0x3fdc44d31952ccf7	0.4417007205294818
211	0xbfd5c18ae8838c88	-0.3399379034655756
212	0xbfb75ac42313a480	-0.09122873169293833
213	0x3fc53c3f3675f09e	0.16590109023298266
214	0xbf90e4c4ca395533	-0.01649768337513997
215	0xbfba48aa0a3d64ae	-0.10267126798625512
216	0xbfeb4544f786fcd7	-0.8522057375447741
217	0x3fd7700d41d6d8bc	0.3662140982591031
218	0x3fc506cb13833b85	0.1642698140408038
219	0x3fa0ddce0db60552	0.03294223706599077
220	0xbff03a34fadd6a0c	-1.014210681859029
221	0x3fc2d8252d75abc4	0.14722122878751354
222	0x3fd7affa58e9f495	0.37011583979603674
223	0xbfc2d8e963fda982	-0.14724461920134152
224	0x3fb234c6c19c9d62	0.07111780382967006
225	0x3fd3c5f1ae154403	0.3089565467863055
226	0xbfb78faee31c0ca1	-0.09203618092219525
227	0x3f6d76d801b77a0b	0.0035967081910108826
228	0x3fac417d4ac6b0fb	0.05518714463991788
229	0x3fd21b12c784480e	0.28290242656760334
230	0xbf97de862b9274cc	-0.023309799584798438
231	0xbfb57254240447f4	-0.08377576712908291
232	0x3fbed0a05d480d9f	0.12037088658694593
233	0xbfb7bd6af18af7de	-0.09273403546373468
234	0xbfb2dcc9ce4fb57c	-0.07368146216295729
235	0x3fb614d5ddd04461	0.08625542321557723
236	0xbfd18a7b404b3842	-0.27407723692602215
237	0xbfeb67bb2f374f73	-0.8564124986828417
238	0xbfe3345654cc6bc2	-0.600138822195156
239	0x3fadb69422466f0a	0.05803358953855138
240	0x3fca1649afe350ff	0.2038051709010986
241	0xbfd7e7891417296e	-0.37350680314980067
242	0xbfe74944e2e9d358	-0.7276939803983664
243	0xbfd6e6962e0f4df7	-0.3578238916208813
244	0xbf932a4e4407dc7b	-0.018716071035637754
245	0xbfc224e1bccfe2b5	-0.1417505428251126
246	0xbfea145e4e4d1a28	-0.8149863747901849
247	0xbfe190c2358abf1c	-0.5489207311383981
248	0x3fc200a7241a4dff	0.14064492476300924
249	0x3fb53f2084123b80	0.08299449180979757
250	0x3faa5867c1404051	0.051455728855331125
251	0xbfc6bb0cde67e956	-0.17758332118666925
252	0x3fa6361bc71c2664	0.04338156514684213
253	0x3fd3c6004170ac4f	0.30896002188336963
254	0x3f5b2df260175103	0.0016589037844499395
255	0xbfb4848bbac5baea	-0.08014748868820801

layer4_weight f8 [120, 400]
0	0x3fbe4232227b2d91	0.11819756833863539
1	0x3fe1fa4e4e50447a	0.5618049172936843
2	0x3fc42e3ab2611fe3	0.15766080579692163
3	0x3fc3932048048afb	0.15292743221751678
4	0x3fd9cc347fe5f3a7	0.4030886887556399
5	0xbf995ef45b4e36bb	-0.02477628524098095
6	0x3fcc66b59a8bb31c	0.2218844418161091
7	0xbfd12ad0f640d696	-0.2682382969681866
8	0xbfa2f32aa950a2ab	-0.037011464279492166
9	0xbfe084d29e3222ba	-0.5162137117159411
10	0x3fb2d1bda93eb4a7	0.0735128915973343
11	0xbfd396e5a01a02d3	-0.3060850203983538
12	0xbfc9b84bef2f423f	-0.20093678645072718
13	0xbfc5253367d68b57	-0.16519777841775848
14	0x3fd1e444cc40e37c	0.2795574183142475
15	0xbfc918835078d03e	-0.19606057576459252
16	0xbfd101d306425f04	-0.26573634730583273
17	0x3fa16d6be27011d8	0.034037944213227866
18	0x3fb21a331e0cedab	0.07071227534918616
19	0x3fd5d1d206539823	0.340931421449911
20	0xbfc4cda5474b8a48	-0.16252580624775903
21	0xbfdfb0999b354441	-0.4951538100913844
22	0xbfd1a2a78d4b8788	-0.2755526428064674
23	0xbfca5883edb419cb	-0.2058262739812576
24	0xbfd464a02af0211e	-0.3186417025867899
25	0xbfb40d3a97b6dc7b	-0.078326856650948
26	0x3fc33a0245a81c62	0.15020779038624982
27	0xbfc9d19a0d158578	-0.20170903815145969
28	0xbfad4630f0880629	-0.05717614113019593
29	0xbfd62e77e7044f03	-0.34658620414960256
30	0x3fb938926d474456	0.09851946990899427
31	0x3f8683f990c0b971	0.010993909578328883
32	0xbff20b4fdd710a56	-1.127761712080106
33	0xbfdfeeb31467ba0f	-0.49894406311696654
34	0x3fa76783eedfc8ee	0.045711634549563715
35	0x3fa02ff6260a9f1a	0.03161591734288845
36	0xbfa0d6f9434021d5	-0.03289011903695253
37	0xbfdb112f91fd6243	-0.4229239392930461
38	0xbfbe51bf3771f521	-0.11843485931054377
39	0x3fbf9819e049f274	0.12341462827493804
40	0x3fc42e1fd818d0bb	0.157657604709703
41	0xbfcbc6f093d689af	-0.21700865954069345
42	0x3fa77713d7846e07	0.04583036428286041
43	0xbfdc14019537fcb4	-0.4387210805143227
44	0xbfc2c34a58469910	-0.14658479032841187
45	0x3fd6d73f603892f6	0.3568876685770158
46	0x3fb25fcfed669d03	0.07177447839659483
47	0x3fe0d43757f01068	0.5259052960905253
48	0x3fb5b0b9d4115078	0.0847278731101272
49	0xbfd1e876b543672c	-0.27981345845693073
50	0xbf98d437b2e34ca8	-0.024247045796823713
51	0xbfc26fd35579a8b2	-0.144037644134476
52	0x3fbaf9327e015efc	0.10536494804670932
53	0x3fc93947bbabbe41	0.19706055320374286
54	0x3fb9368e8ea26461	0.09848872167857926
55	0xbfd37b4938ee563a	-0.3043997817961529
56	0xbfd11e6f32e7cb5f	-0.2674825665591722
57	0x3fbaa025bc267df6	0.104006155429026
58	0x3fcc630e0934d759	0.22177291345149788
59	0xbf94d2bea6a389f8	-0.020335177346064243
60	0xbfd8910ec51d2a3e	-0.3838536190930063
61	0xbfd3a9554d95347f	-0.30721027924011673
62	0x3fe363fa9d1aa525	0.6059544628562078
63	0x3fbc53f8f3797b3e	0.11065631813242491
64	0xbfc16005d0df0af7	-0.13574288080970806
65	0xbfcfdd967f9bdf1f	-0.24894982558156983
66	0xbf994116f1825cfd	-0.024662359705499338
67	0x3fd00c6d3fda8e80	0.2507584689685487
68	0xbfad8c048eaa1bb9	-0.057708876051996545
69	0xbfd76ab97dac7222	-0.3658889510423099
70	0x3fd234af18d13b36	0.2844655744892636
71	0x3fdb04e512827907	0.42217375571807775
72	0xbfd0cec8ee2c60c7	-0.2626211477195394
73	0xbfe2f7373bcbcbb3	-0.5926777046100739
74	0xbfdcbdcd932c3af1	-0.44908465740529296
75	0xbfc052f0804e3868	-0.12753111138266893
76	0xbfd8a72d303cf818	-0.3852036448550975
77	0xbfd3087949066543	-0.2973921979078861
78	0xbfb537264fd6afc5	-0.08287276696381614
79	0x3fd32c59a8963140	0.2995819231371293
80	0xbfb534f866158eec	-0.0828395127514871
81	0xbfcabd1418fb5155	-0.20889521808443115
82	0x3fa410d786c27c33	0.03919099349990809
83	0x3fadc6f21deebc28	0.05815846076381376
84	0x3fd1bad812452bfd	0.27702905449103793
85	0xbfa93a0f51ffe769	-0.049271086463661025
86	0x3fc06c84965449ab	0.12831170406623235
87	0x3fde73aa429a74f1	0.47580963615639776
88	0x3fe0c7f7f6cdceb1	0.5244102306737287
89	0x3fc73fe922c7946d	0.18163789938185762
90	0x3fa7fd6c10886ea6	0.04685533239191146
91	0x3fc93c52008a08c4	0.19715333010032599
92	0x3fd69dc0ea65e20e	0.35337851419856825
93	0x3fca4c7028122e4f	0.20545770603745203
94	0x3f86b421b6f6ef5f	0.011085761448036356
95	0xbfc7bc224ead1a58	-0.1854288944397975
96	0xbfc2806687a22cc4	-0.14454347250680233
97	0xbfdffa886f66d649	-0.4996663177401826
98	0xbfbcb5efadb157a7	-0.11215112677140714
99	0x3f6f52b49bdfbb6a	0.0038236167447317964
100	0xbfe11c266a424f06	-0.5346862864848567
101	0xbfdb8c80a9593f51	-0.43045059717132
102	0xbfe170ff6ce73e5f	-0.5450436713235368
103	0xbfd930bc6285e4ea	-0.39359960194958765
104	0xbfb3a5d8d47163c8	-0.07674937426180783
105	0xbfcf85749f5ab7b7	-0.246260240373372
106	0xbfc77940e82f2372	-0.18338786446681926
107	0xbf9643a17189a250	-0.021742365412509124
108	0x3fc1f0ddfc1a4627	0.1401631813974273
109	0x3fd35a9e34008dcc	0.302405882628787
110	0xbfd40398f9b0dbaa	-0.3127195776355004
111	0xbfc9ea9b678e1bcf	-0.20247213894273705
112	0xbfc255ec2e2a7e10	-0.14324714903067148
113	0x3fe09ea0fa7bec05	0.5193638698832507
114	0x3fcb171b171279f8	0.21164263369151093
115	0xbf81cf44304193c1	-0.0086961104609119
116	0x3fbe70d846cd339c	0.11890937546304631
117	0xbfd431ee743a5585	-0.3155475745237129
118	0x3fb7d4f70237a6e8	0.09309333614478599
119	0x3fb9efad241046a8	0.10131342058618975
120	0x3fd1e31a1d736a9c	0.2794862067800439
121	0x3fd77494ad211279	0.36649052531382825
122	0xbfacfe99a5862404	-0.05662994523579104
123	0xbfd0cc976b8b7af8	-0.26248727323938637
124	0x3fcbea54ec781fd7	0.21808873697614103
125	0x3fb05dbd71062d5a	0.06393035897615587
126	0xbfa5efe08f3673f1	-0.042845742685336925
127	0x3fa53cef83ed7baf	0.04148052678532765
128	0x3fd3b98d4057e4ea	0.3082001808503053
129	0x3fc78695aa38cf6b	0.1837946969186491
130	0x3f9127434ae85c88	0.016751338431359147
131	0x3fdcd1f63b561a21	0.4503150538879784
132	0x3fd31e8c35e0b72f	0.2987394834661811
133	0xbfb7bf1d841190d7	-0.09275993799525693
134	0x3fbaf23250f416c4	0.10525812603381285
135	0x3fd7f4a022ec9b2a	0.3743057576233918
136	0x3f9292386faee956	0.01813591176662873
137	0x3fc4755d9b73c6b8	0.15983171549264852
138	0x3fc2234d52c24556	0.14170233288727258
139	0xbfc805d23e25f81e	-0.18767765078149606
140	0xbfd11e355e28b272	-0.2674687785645694
141	0xbfccaaf7d2ba1da2	-0.22396753110318196
142	0xbfbe668f7657bd2d	-0.11875244750239196
143	0xbfb7e3f7358e8133	-0.09332222993407839
144	0xbfc0c5689eb96972	-0.13102443456848395
145	0xbfc50566fe4093bb	-0.16422736563359117
146	0xbfc530d23b3ce04b	-0.16555240528555468
147	0xbfd85a15e6fae23b	-0.3804983859695629
148	0xbfd6be71e547cd3c	-0.3553738345210211
149	0xbfc8f0d980d83eae	-0.19485014716382437
150	0xbfc413a8289f2470	-0.15684988006094924
151	0x3f6513cb6424e186	0.0025729153141151343
152	0x3fae6c043c0d6aa3	0.059417850809685
153	0xbfa2761644c52237	-0.03605718221166792
154	0x3fc15c91185d846f	0.13563741388046277
155	0x3fc6db2ca3efe2e5	0.17856367115725572
156	0x3fcfb3b435465f94	0.24767162896455075
157	0x3fd5a0b0685a9463	0.33793268385699643
158	0x3fac70f133304acd	0.05554918050633759
159	0x3fdb1aa7f9603e1f	0.4235019622146598
160	0x3fd00840af94ea22	0.25050370356226115
161	0x3fc195ae125ca2d5	0.13738037010741402
162	0xbfb043d95f2a075a	-0.0635352952322398
163	0x3fbd562849c3ed31	0.11459590721999714
164	0x3fcbf18df9239bc5	0.21830916085238364
165	0x3fb0c97736844bb4	0.06557412224746778
166	0xbfbe6831ee3b77fc	-0.11877739015787364
167	0xbfc5a97b1dba8b23	-0.16923464728923773
168	0xbfb42a2802866ccb	-0.0787682539143361
169	0x3fc4e6b621473824	0.16329075455581787
170	0x3fd6c0e139be888d	0.3555224479588411
171	0xbfaad04a55ceff5b	-0.0523703794237906
172	0xbfb598713108375d	-0.0843573326785338
173	0xbfd68997a840b7dd	-0.35214797430933037
174	0xbfbe7076afe437c3	-0.11890355867600903
175	0x3fb3b46952b8f925	0.07697160977929636
176	0x3fe43b777e9163e5	0.632259127810468
177	0x3fc749125adc0d04	0.18191747128012292
178	0x3fb348e8b977a6b6	0.07533125427257911
179	0x3fd25a7dfdd85123	0.2867732027964555
180	0x3fcc5a8fc7ec1334	0.22151372205566988
181	0x3f75b6a4cffc170f	0.005301135824770999
182	0x3f8e990d98b49f84	0.014940363142684772
183	0xbfe0cfbb04f169e4	-0.52535773244318
184	0x3fba8b340c8e9340	0.10368657404485493
185	0xbfb683e49a7701e0	-0.08795002719035194
186	0xbfe8722eace54d30	-0.7639382721776311
187	0xbfddc5882ff217ee	-0.46518139536089975
188	0xbfe9348edf61f1f1	-0.7876657832089774
189	0xbfd0276d6edb7946	-0.25240646196279604
190	0x3fc6118968ea9d5e	0.17241017935632902
191	0x3f936b0e13604db0	0.01896306985152102
192	0xbfc76dc0fb63c519	-0.18303692126168228
193	0xbfa8e3e358d91dc4	-0.04861364802905713
194	0x3fc533fdaf1f127e	0.1656491379818767
195	0x3fcb4514a6b5a746	0.21304567470661534
196	0x3fad306b1861a6a5	0.05701002762436972
197	0x3fd9ed4a63ac433c	0.4051080678337262
198	0x3fc458d80f3defd7	0.1589613031791248
199	0x3fc6380eba9d29cb	0.17358574020393144
200	0x3fd598ba0822e329	0.3374466971832129
201	0xbfc3ad032b4818fc	-0.15371741879807377
202	0xbfe0a63b91051627	-0.52029207538789
203	0xbfc287560017e2e0	-0.14475512508922517
204	0x3fd3603448abb606	0.30274684044601974
205	0xbfc1fac7316a90f4	-0.14046564019111651
206	0xbfcf7ad7d2de9163	-0.24593637272222243
207	0xbfd8f4759a80f1c2	-0.38992061699152825
208	0xbfd17c333c556170	-0.2732055749125015
209	0x3fcfb320b4777c77	0.24765404521801646
210	0xbfafb7c9dc56d05d	-0.06194907011686788
211	0x3fc76bdac36c2567	0.1829789594851647
212	0x3fbf4b408288b079	0.12224200426925504
213	0x3fc419a51cbf01c7	0.15703262237185653
214	0xbfc2d3f02504bb2a	-0.14709283645194066
215	0x3fa6a48603496093	0.044223964596939024
216	0x3fe15c8086c0ada9	0.5425417549026196
217	0x3fcdab027be0fbdf	0.23178130196353572
218	0x3fbf285ba9dad48d	0.12170956513257832
219	0xbfd13a4bfa7909a9	-0.269183153726909
220	0xbfc6aef048fcb914	-0.17721370281055526
221	0x3fbfe331f285de12	0.124560472211549
222	0xbfc49e88097fbdc8	-0.16108799423044062
223	0xbfb1c95d75dcec99	-0.06947883727564132
224	0x3fc3374aa23f453e	0.15012486383651863
225	0x3fcf1e6229342904	0.24311472904111764
226	0x3fc821a18c0244a4	0.1885263379704486
227	0xbfe0b0bfde939f63	-0.5215758654785357
228	0xbfd2dbd7cb0c2d64	-0.29466814831604027
229	0x3fada1a9f513fa8b	0.05787402264285387
230	0x3fc3f2c83a93df54	0.1558466230414931
231	0x3fd17c8ae8e287a6	0.2732264780298642
232	0x3fb09c24bd42efd0	0.0648825609268322
233	0x3f946ecdf24756dd	0.01995393553973811
234	0xbfcf994632237ab5	-0.24686505745099444
235	0xbfcb69499da77f09	-0.21415062139475818
236	0xbfcf3d989f437c4f	-0.24406726624053696
237	0xbfd44d4bdb04701c	-0.31721779240047154
238	0x3fd60e62c6d9529d	0.34462804240073713
239	0xbfb59481d03b495c	-0.08429728826312072
240	0xbf9748cd9b95de52	-0.022738659497433318
241	0x3fb24263ccef68e7	0.07132552865315099
242	0x3fc79f0778ba1d6f	0.1845406856047975
243	0x3fb1f53fe9b1f5fa	0.07014846282432777
244	0x3fb6ec573607f45f	0.08954377240293486
245	0x3fde62a7f7318eab	0.4747714914321743
246	0x3fd1002ba531c3e8	0.26563540584817114
247	0x3fcabe6019eba6a3	0.2089347960057256
248	0xbfc8839d80b3958d	-0.19151657852414097
249	0xbfb754af5c8101c7	-0.09113594063183604
250	0xbfb9adf40abcc623	-0.10031056654113306
251	0x3fbed40afa14ac79	0.12042301755416131
252	0x3fd3404a658e1f5c	0.3007989875554722
253	0x3fc467dae7058298	0.1594194057497773
254	0x3fc3a60b67463f65	0.15350477736182735
255	0x3fb14b87675af14d	0.06755872987100027

layer4_bias f8 [120]
0	0x3fbbcb994693c865	0.10857542012289086
1	0x3fe0a9c816338c07	0.5207252915973876
2	0x3fa87e619b823ebb	0.04783921263981258
3	0x3fca7d89a689e833	0.20695610648891857
4	0xbfddf4addfce80c1	-0.46805903297537205
5	0xbfaff39b8a377d69	-0.06240545332161213
6	0xbfaa1a9e03c861f5	-0.0509843234651192
7	0xbfa60d5d595dad1f	-0.04307071414845098
8	0xbfa16a1d696146c8	-0.03401271735550676
9	0xbf62905217ba102b	-0.002266083085318745
10	0x3f7bfd0ef962450e	0.00683313226012784
11	0xbfd6e4e385b59491	-0.3577202611689439
12	0x3fc8499db4ab2854	0.18974658319194992
13	0xbf9d3b37c295ead5	-0.028546210528911004
14	0x3fe0ff55f5e1dabe	0.5311689188373163
15	0x3fe6797e9940475d	0.702330874746831
16	0x3fbd4f39a3efd99e	0.11449012997022698
17	0x3fe101a82e41123c	0.5314522651102105
18	0x3fd2df0a99ffba36	0.29486336745222574
19	0x3fb883228a360d60	0.09575096010489892
20	0x3fe262b1be61e4bd	0.5745476454168493
21	0xbf804183695ac1a5	-0.007937456753411018
22	0xbf98a46a6e1dce49	-0.024064696284268803
23	0x3fe30a9c99fd2b8a	0.5950453765484423
24	0xbf9c84f7f7c89c96	-0.027850985048783437
25	0x3fcf912df6379b1f	0.24661802789997808
26	0xbf944ac5ebcb0ea4	-0.019816486851381612
27	0xbf875ae888854069	-0.011403862634921507
28	0xbfd505417e1c5f6c	-0.32844579043875544
29	0xbfa9b611ba7b995a	-0.05021720315362428
30	0xbfc082e9b0e57f78	-0.1289951432945562
31	0xbfd6cead5517149e	-0.3563645678480699
32	0x3fca06eb2e2f78bc	0.20333614115856402
33	0x3f930db5d19607f0	0.018606987874143444
34	0x3fdc11164d12c55f	0.4385429146451169
35	0x3fba63a4869a000d	0.10308292661829928
36	0x3fd1a130bf7d6b0d	0.27546328258692726
37	0x3fd447cf663ae33e	0.3168829439487587
38	0xbfd47678b6016d3a	-0.31973092817289095
39	0x3f853fb88fac41a0	0.010375444302128056
40	0xbfcafec737e4fa50	-0.21090021352024957
41	0xbfe16b5700d3e5c9	-0.5443530098120216
42	0xbfc33736ab71968e	-0.15012248393320643
43	0x3fe022d3a3ea3b28	0.5042513085807956
44	0x3fce2c40568a6c5a	0.23572544313069238
45	0x3fc994f7515e293a	0.19985858414686125
46	0x3fc94a9957b0ce06	0.19758908063668928
47	0xbfca9ed40e9e16ad	-0.20797205651995423
48	0xbfa4c98abf569c6b	-0.04060014329598335
49	0x3fd0131e09563d6d	0.2511668292217653
50	0x3fb10e9ebdd0546a	0.06662933477521596
51	0x3fcc06546116f3d0	0.2189431642599673
52	0xbfe20b9187147423	-0.5639121664313546
53	0x3fdc894c0ce93a29	0.4458799482426082
54	0xbfa28a370f432153	-0.03621074734980092
55	0xbf84362e2660e62c	-0.009868965669841044
56	0x3fcb51e6ca172a96	0.21343693607044106
57	0xbfc587ca1a3628e6	-0.16820646552907376
58	0xbf749b939c637276	-0.005031181912468532
59	0xbf9a4bcc2e3446b3	-0.025679769821244047
60	0x3fc72559dd75097f	0.18082736314142875
61	0x3fb97043723d6a44	0.09936925448475004
62	0xbfe4cdfc4f274ca9	-0.6501447244612751
63	0x3fcc281ae51f3391	0.2199739092597182
64	0xbf6b4c1f8094dafb	-0.003332196739076363
65	0xbf921bf5fc84ddb0	-0.01768478730920514
66	0xbfb50e45b2610124	-0.08224902729944411
67	0xbfaee75568ebb3e5	-0.06035868554850036
68	0xbfd28a1c6d77c8bb	-0.2896796292326475
69	0xbfae7bd90072f4b7	-0.05953863268357778
70	0xbfb649254c28ed0b	-0.08705361470577004
71	0xbfc6b551dc6c47de	-0.17740844023552332
72	0xbfaa734b821de2d9	-0.0516608806928553
73	0x3fad492d17997fbc	0.057198914652644345
74	0xbf5e3d599923c1e4	-0.0018456816656532366
75	0xbf9b349bc4a7affc	-0.026567872884626795
76	0x3fcde2f553495c6b	0.23348871771551968
77	0x3f6822903fafdd8b	0.0029461686476641206
78	0x3fb191575d53ddc6	0.06862398174768378
79	0xbfd3bf022cf6c098	-0.3085332335567812
80	0x3fcc5ced4295c717	0.22158590079521254
81	0x3fd1eafcc6d5817a	0.2799674932230328
82	0x3fd1e9dc5edfce74	0.2798987318521775
83	0x3fd73b3d422a098d	0.36299067937229595
84	0xbf9a2b34992de49c	-0.025555440759010936
85	0x3fbcd0d5db03468b	0.11256157490722722
86	0xbfaaa4705b2362b0	-0.05203581917311817
87	0x3fc1a678d892c23f	0.1378928239332868
88	0xbfe81f344cc6d35d	-0.7538091182274048
89	0x3fb338d729c64b5d	0.0750860669125308
90	0x3fdc9f9763bb62e8	0.4472406839318368
91	0x3fda9992eb96a21a	0.4156234074276043
92	0x3fe1f23259dfcff0	0.5608150248867769
93	0xbf84bfb76f7f009a	-0.0101312952900801
94	0xbfa9d7f98b48ca34	-0.050475881817324014
95	0x3fdc728676fef30f	0.4444900667256641
96	0x3fc9555564888928	0.19791667374472266
97	0xbf9bf1428a90272b	-0.027287521083088222
98	0x3fd8efa48c73c528	0.3896266337970524
99	0xbfbb3a4e1b219017	-0.1063584152448701
100	0x3fdbc049142173e1	0.43361117330442595
101	0x3facd8cb5042fbbf	0.056341508433880964
102	0xbfb6cf5e88a5c062	-0.08910170398826403
103	0xbfc60f99e5db5410	-0.17235110972856704
104	0x3fc2bf8d8732ff06	0.14647072888873697
105	0x3fb45f9da9657d33	0.07958398233084978
106	0x3fd1697154c4ce10	0.2720607116527569
107	0xbfdb6b47d4e210c7	-0.42842288770067366
108	0xbfb4e6fc52c54d47	-0.08164956112641618
109	0x3fc606c2eb0ef215	0.17208134152851132
110	0xbfc2fb25fc745781	-0.1482894404113573
111	0xbfebcec84f49646e	-0.8689919994896067
112	0x3f834d8459963189	0.00942519567868129
113	0x3fd054209cd12fba	0.2551347285668687
114	0x3fd905610800c414	0.3909533098367899
115	0xbfabfc8c2a49dc6f	-0.05466115967004092
116	0xbf915ccaab868729	-0.016955534667096792
117	0x3fd861f84ff4f861	0.3809796124295471
118	0xbf7d4730069b5148	-0.007147967911539439
119	0xbf9dba7a61d9f0d7	-0.029031669828769004

layer5_weight f8 [84, 120]
0	0xbfa1930908d82b93	-0.034324915246620645
1	0x3f99f17335f5f4cc	0.02533512131548292
2	0xbfc39372f54f11a8	-0.1529372880742248
3	0xbfd6bfec798818e7	-0.3554640948135685
4	0x3fc213b291be695d	0.14122612110515834
5	0x3fb569113952f22a	0.08363444947730928
6	0x3fb76bef392518ac	0.09149069924487446
7	0x3fb71d55de5b989a	0.09029137304932747
8	0xbfad3d191578e88e	-0.05710676562417048
9	0x3fd44cc7401c6536	0.3171861768801877
10	0xbfa24ac8cae4c2c8	-0.035726809279713445
11	0xbfb3c8d2944b0129	-0.07728305931505432
12	0x3fdd9b932cf07a5d	0.462620538602925
13	0x3fa7db2779c28578	0.046593888867628885
14	0x3fa48f635058c753	0.040156463201482716
15	0x3fd80ca6d8105b58	0.3757722005843127
16	0x3fa8d7a2be99e916	0.04852016998934709
17	0x3fd008f25b90e501	0.25054606382362016
18	0x3fcb34c289002477	0.2125476044605283
19	0xbfc1b5f68209b6ba	-0.1383655676794911
20	0xbfc553056aeabaae	-0.16659610481788917
21	0xbfa8191573dbb818	-0.04706637419973009
22	0x3fad1a5c3d75f0d4	0.056841738226440036
23	0x3fd00ae7dbffb062	0.25066563114410745
24	0xbfddb2308ef78997	-0.4640008350526385
25	0x3fbb9d86158847ad	0.10787237191860184
26	0xbfaa58a4fddbe71f	-0.05145755385269823
27	0x3fa321300e54085c	0.03736257719903399
28	0xbfe238f9e3b823fa	-0.5694550941126402
29	0x3fa8324bf1b2c038	0.047258733038120615
30	0xbfddec664d0ed89b	-0.46755368733591646
31	0xbfd9412d2c3f636e	-0.3946030552011085
32	0xbfe8554ffaebd4cd	-0.7604141140751836
33	0xbfb3db8e4f458c01	-0.07756890712111898
34	0xbfb1f9090312df7c	-0.07020622563402229
35	0xbfb62440f0ec22f7	-0.08649068719763507
36	0xbfc2b990926334d5	-0.1462879862578236
37	0x3fd39baa54f0fd03	0.30637605948500396
38	0x3f7cb77b6594c252	0.007010919588808466
39	0xbf9b7ead9928f6bc	-0.026850426171441497
40	0x3fc71bfb80339407	0.18054145583951728
41	0xbfd02e1aa1ab8780	-0.2528139666375111
42	0x3fb4e284996838f8	0.08158138985911367
43	0xbfd13364492dc2ff	-0.2687617029796882
44	0xbfc43749dad2b520	-0.15793727097244759
45	0x3fc0c4b2003b1bf7	0.13100266467355912
46	0xbfc49b5c4cc09172	-0.16099122760455092
47	0x3fc1c2ea7f877b35	0.13876086451542738
48	0xbf73daf2a1c81c6b	-0.004847476750462136
49	0x3fca67f81532bc1c	0.2062978843218567
50	0xbf9c74b5f7117159	-0.027788966374246857
51	0xbf97bbcc26cbccd0	-0.0231773279837853
52	0xbfd334a9dad8e720	-0.30008932468227734
53	0x3fd84471a2b99f4e	0.3791774834739855
54	0x3f9cce37055fa5d0	0.028130397513370486
55	0xbfa483461329050d	-0.04006403907670562
56	0xbfd38aa211923663	-0.305336491736716
57	0x3fc1858ed7f549c0	0.1368883661730944
58	0x3f92f75bb7b44944	0.018521721923272297
59	0xbfb548d7d33768fd	-0.08314274698878772
60	0xbfc1908d39c76395	-0.1372238666652065
61	0x3fc25b8bc9cc130a	0.14341876366975043
62	0x3fd6d0772fb4d5a2	0.3564737287409462
63	0x3fcec6e821d276d9	0.2404451527735805
64	0x3fb0d6430fa7850e	0.06576937801539293
65	0x3fadea7fe78429ac	0.058429715167295754
66	0xbfc1975b92bcab3f	-0.13743157067195885
67	0x3fa0c0323304cfa7	0.03271633980548865
68	0x3fd341eea513ad6e	0.30089918251788716
69	0x3fb01f5f76cb8f6a	0.06297871256134405
70	0x3fd18c69b4262e86	0.2741951236027734
71	0xbfd02068bef62937	-0.2519780983790442
72	0xbfc3c0d185adf30d	-0.15432185199087947
73	0xbfd4070fa2f9b511	-0.31293097415512344
74	0x3fae0ba13ac8d049	0.058682478357156294
75	0xbfa83d0a1590855c	-0.0473406936000724
76	0xbfd1102dc1a8523e	-0.26661247169366564
77	0xbfc240d6b2f78c91	-0.14260371912596218
78	0xbfd81a5288c5e43c	-0.3766065917657817
79	0x3fb868000769a387	0.09533691578839242
80	0xbf8c4257990589de	-0.013798412663793277
81	0x3fb6c94dd33aae23	0.08900915533984537
82	0x3f72649a5ee42454	0.0044904737571949856
83	0x3fb57605451bd6b4	0.08383210122323242
84	0x3f932b97734dd9f8	0.01872097626934452
85	0x3fbfe667be95bad9	0.12460945513678769
86	0x3f8e24b465b9a652	0.014718446115881498
87	0xbfc8ee49bd406aa9	-0.1947719739990437
88	0xbfc9aa5e3178ad5e	-0.20051171699138143
89	0x3fd071f65e941c62	0.2569557117098552
90	0xbfd60e15e03feb83	-0.34460970782645733
91	0x3fdb0846fadaf1af	0.4223802041776947
92	0xbfcfa91a6ef2f8a1	-0.24734812180935697
93	0x3fb93aff2793ca81	0.09855646816485299
94	0x3f8a3beceacb97a0	0.012809611239798901
95	0x3f867153a633ed14	0.010958341130836526
96	0xbfd436bdde731e65	-0.31584116672136126
97	0xbfb3ebc2cf9576a4	-0.07781617706265337
98	0xbfa3ebc6b6795f70	-0.03890820481745905
99	0x3fc12d39a75f1c6e	0.13419266388357037
100	0x3f9f766bd77d1935	0.030725178744682686
101	0xbfb5917b1f049ba6	-0.08425111300731078
102	0xbfbbd0a9a6eb504e	-0.10865269017387044
103	0xbfadbcdd263804f5	-0.05808154193437957
104	0x3fd8d047308a33d0	0.38771228542537717
105	0xbfd74b3304f0b46d	-0.3639648006672534
106	0x3fcc8023286de444	0.22266044115147754
107	0xbfc2f394c891dc88	-0.1480585078568064
108	0x3fcba4f0d9931b67	0.21597109435807768
109	0xbfd5c249f466a0d6	-0.3399834524848421
110	0xbfdc1e17ced56623	-0.43933673094361064
111	0x3fad9d20e7f62d51	0.057839420619610345
112	0xbfb4557aa97ff022	-0.07942930830171283
113	0x3fd679c683173c1a	0.351182582872697
114	0x3fb40da092d85372	0.07833293519099785
115	0xbfb272b9069fa092	-0.07206303035457243
116	0xbfc677f7933cfff8	-0.1755361050545614
117	0x3fbe6c317644f8d9	0.11883839738308967
118	0xbfb2573a96472e34	-0.07164350670716929
119	0x3f912af938f9e74c	0.016765493490744007
120	0xbfbaced7583279cf	-0.10471864608050584
121	0x3fc9aed3ea81a214	0.2006478209543877
122	0xbfd70e98c8bfc56e	-0.36026591877369796
123	0xbfe3fad0dc06b653	-0.6243671700846768
124	0x3fb83daae0875b57	0.09469097119959478
125	0xbfa96bec376ab63f	-0.0496515100142969
126	0xbfc8bd5b55a66967	-0.1932787101948847
127	0x3fb2daba9f7750f4	0.07365003960814304
128	0x3f8f162f13f35a1f	0.015179031177848632
129	0x3fb5b48995e5c22c	0.08478603276831426
130	0xbfa567ef0b336350	-0.04180857669570648
131	0xbfe4f8876bfe338b	-0.6553380116689466
132	0xbfc284f524dec1fc	-0.14468254375744027
133	0x3fb17c346203ca13	0.0683014621061278
134	0x3fc8a548eb72e66f	0.1925440930988773
135	0x3fa99cc1f2960c1a	0.05002409063583731
136	0xbfb79f7ae15a4dd1	-0.0922772216966259
137	0x3f67909a91b761d2	0.0028765696458601187
138	0x3fcfa0b37061a16d	0.24709170329448274
139	0xbfd1cd68aabcdfec	-0.2781621615754364
140	0xbfc221ff11a64e9f	-0.1416624866657132
141	0x3fa873faaf2793e7	0.04775985134236987
142	0x3fa1373dcac76556	0.03362458324745414
143	0x3fe8517299d9964e	0.7599423413163977
144	0xbfd1ed097f2c60ba	-0.2800925962378745
145	0xbfbcf39e2fe9c0c6	-0.1130923144316994
146	0xbfa5c4b2a981ecfb	-0.04251631087478277
147	0x3fb5d0235599c739	0.08520718421803232
148	0x3fdac7746ea2cb7d	0.4184237556866533
149	0x3fb1c574ecccffce	0.06941920071858407
150	0x3fd0c527f1ae9d76	0.2620334491898214
151	0x3fd7added14c5c44	0.3699872058800262
152	0x3fed1bdc055997ce	0.9096508125774052
153	0x3faecc51e1cdecb6	0.060152586759579504
154	0x3fd529f62ebd8453	0.33068613590700585
155	0x3fe7703cd35d7f7c	0.7324508789279061
156	0x3fd703c02ce3e66b	0.3596039236432264
157	0x3fd00f0d12afb72c	0.250918644188334
158	0xbfda1d7d6b523c57	-0.4080499218043249
159	0x3fb3a33e61265f95	0.07670965072463638
160	0xbfd293fbe4fcd9d4	-0.2902822242935177
161	0x3fd4481de93c9744	0.3169016626073822
162	0xbfe8745f52a4f010	-0.7642056097170116
163	0xbfbd8ca8053bad58	-0.11542749526750151
164	0xbfe36ab39f71c644	-0.6067751039647153
165	0xbfc539319e41212a	-0.16580791690126634
166	0x3fa06abde88bb564	0.032064375531130535
167	0x3fc4d64e24b5cc08	0.16279007713782812
168	0xbf9f312d23353f9c	-0.03046103026764478
169	0x3fe7ddacf0c8e88c	0.7458100035503477
170	0xbfd1decb892dbabf	-0.2792233314166132
171	0xbfc0a20cb9095b7d	-0.12994536433208373
172	0x3fc3873b9635f503	0.15256447634229894
173	0xbfac25f3668d7448	-0.05497704150068522
174	0xbfa1ebf7bdc25737	-0.03500341597934525
175	0x3fb184f8b8faeeea	0.0684352351772152
176	0x3fd3706532829468	0.3037350648176642
177	0x3fd4291b568d3089	0.3150089593152719
178	0x3fa065fcd75bc0e3	0.03202810410391679
179	0xbfabd7cc10f9f1ed	-0.054380776474292826
180	0x3fd0496ed3856503	0.25448198944430106
181	0xbfcc2ae9a2ddf285	-0.22005958988656374
182	0x3fbb807dad9fe3ad	0.1074293660057168
183	0xbfd1596fd30a7942	-0.2710837899156965
184	0xbfab5acf5f428a24	-0.05342720067826104
185	0xbf976b53608b4f81	-0.022870352523411967
186	0x3fc33ea40eb0e709	0.1503491470082781
187	0x3fac36094543e829	0.05509976358912667
188	0x3fbc6a14a1342fc8	0.11099366126671761
189	0xbfb24cb94dbfa4ec	-0.07148321293029242
190	0x3fd09e44f9c3a0ee	0.2596599997618928
191	0x3fd70df456356164	0.3602267114524891
192	0x3fd2655e1d374829	0.2874369893371545
193	0xbf919e90e8305b97	-0.01720644395035328
194	0x3f68523b51a39d16	0.0029688986370392063
195	0x3f90bc0054daa3dd	0.016342168025094018
196	0xbfc8082c3ac40430	-0.18774941319864658
197	0x3fba94a9d66be635	0.10383092389010858
198	0x3fdc234b5c6b2ee3	0.4396541979337895
199	0x3fbe986b4988db48	0.11951323075559828
200	0x3fc6b7b905b8e6c1	0.177481773180082
201	0xbfd3add4d33fef94	-0.30748482351168005
202	0xbfe3957ff91976b5	-0.6119994988655068
203	0x3fb5f09eaa97e887	0.08570281662824374
204	0x3f605b8c40855c97	0.001996778421169031
205	0xbfdfa58b9fc7f73f	-0.49447908977150584
206	0x3fadb5dd85a7fa51	0.05802814728302919
207	0x3fd0f0d9d374989a	0.2647003712649024
208	0x3fba03d620a93077	0.10162103936562682
209	0x3fd4a2c1a76d8804	0.32243386602760915
210	0x3fdf7d8af178c5dc	0.4920375211832757
211	0x3fe7c759a014bf71	0.7430847288687642
212	0xbfdb6976c4ffbe37	-0.4283120082681963
213	0xbfd6f43bb580cd1d	-0.3586568138591291
214	0xbf9bedf337df4aa8	-0.027274894986315218
215	0xbfcc00409cfeff08	-0.21875770250152748
216	0xbfd37511e3966c91	-0.3040203783545588
217	0xbfaea95e69b52f10	-0.059885931400087355
218	0xbfb8b6bfb307774a	-0.09653852578000258
219	0xbfc7c10288b748da	-0.18557769466003188
220	0xbfe7d0394b898386	-0.7441679454169481
221	0xbfb46d301b755594	-0.07979107542390401
222	0x3fcf10008e310dcb	0.24267584746313128
223	0x3fd38c5e67794452	0.30544242958882706
224	0xbfc3932d9a0f2c28	-0.15292902014184162
225	0x3fc6ec63c69bc313	0.17908904264142986
226	0x3fc1cc92addf7054	0.1390555714596099
227	0xbfa11d82466301c6	-0.033428259937412316
228	0xbfdd26761f3449d2	-0.45547249839105775
229	0x3fc9bf69c9510f52	0.20115396814264358
230	0x3fc64decc692c6b2	0.17425307937587814
231	0xbfd3b7644eb5c3d7	-0.3080683487560782
232	0xbf9a94acd9959ee9	-0.025957775860120078
233	0x3fdb54ab4e439528	0.4270427955910514
234	0x3ff01d33f37ef188	1.00712962260795
235	0xbf8de0d947e2fc4a	-0.014589021211916759
236	0x3fdeaf19a7dbb4bf	0.4794372691383834
237	0xbfb397f321b2d341	-0.07653731892316974
238	0x3f78296f3a42f974	0.005898890002013924
239	0x3fad7c603b3ba76c	0.0575895378404557
240	0xbfc2c70ed87d92e6	-0.14669976778818422
241	0x3fe0daf73ece49af	0.5267292238880169
242	0xbfb4f57827281702	-0.08187056499454218
243	0xbfe231569625cfeb	-0.5685227329799977
244	0x3faf662154c2e218	0.06132606658633594
245	0x3fa5aa340f8c4930	0.042314173601101124
246	0xbfd1baa4492c7005	-0.27701670785768356
247	0x3f951228b3d1e2dc	0.020577083564122897
248	0x3f74156fd466e1a9	0.004903256258721824
249	0xbfb844628aa43b9f	-0.09479347119143576
250	0x3f8c008ecffef92e	0.013672939035924783
251	0xbfe13a7ee57ac468	-0.5383905870459218
252	0x3fd2c02ade67d591	0.2929789707116806
253	0x3fb667e681df5589	0.08752289458001007
254	0x3fdeb27768ec278f	0.479642727340086
255	0x3fe5ea68acbc00b5	0.6848643659323189
