trained_models/svhn_svhn_lenet_200_epochs.model (torch_old, 519417 bytes, 8 tensors)

layer0_weight f8 [6, 3, 5, 5]
0	0xbfc788eca3fdc430	-0.18386610038172213
1	0x3fd1786008e7631a	0.27297211522595577
2	0x3fe5606738d3a24c	0.6680179700752631
3	0x3fdeb4872f07dbf4	0.4797685584339313
4	0xbfb35176d6da13e1	-0.07546179528624421
5	0xbfc9d0ba7f0ddc12	-0.2016823883420505
6	0x3fdd25a41e58ac86	0.45542242969049374
7	0x3fe381c1f417cb9c	0.6095895545425836
8	0xbfa09419be4aa5da	-0.032379917601541755
9	0xbfd969910a5cec85	-0.39706827175150067
10	0xbfa6510ecd2d4650	-0.04358717207527418
11	0x3fdee805e6924d28	0.48291156307932903
12	0x3fccf7f50233a226	0.2263170490980581
13	0xbfd263f01fee27ff	-0.2873497306651415
14	0xbfe488632aed74ec	-0.6416488493374835
15	0x3fb9bf9a885c1c13	0.1005798895749737
16	0x3fc83cb4fb23a7cb	0.18935262930545912
17	0x3faf4716388da749	0.061089224246485836
18	0xbfd8e75fd5683595	-0.3891219696095843
19	0xbfe0b1126c2d6104	-0.5216152298771992
20	0x3fcb0b8572b7f847	0.21128910161491118
21	0xbfa70e32f2515702	-0.04503020484905386
22	0xbfde8873c9e66b2d	-0.47707838742069236
23	0xbfe24887c1459810	-0.5713537955132342
24	0xbfdb2503a5eccb5c	-0.424134170566665
25	0xbfc0b809a528a496	-0.1306163841666474
26	0x3fe16f4b7b2b7cd3	0.5448357968961325
27	0x3fe559997a69d0c6	0.6671874419103225
28	0x3fdb89e7d22d3e66	0.4302920868403589
29	0xbfc3e62ae8572fb7	-0.1554616579509209
30	0xbf75231f76740076	-0.005160448933793407
31	0x3fddf2777f03093d	0.4679239979124253
32	0x3fe066c9869e5950	0.5125472668903885
33	0x3fc39c53dbcec320	0.1532082389144529
34	0xbfdb953c7cd9c76c	-0.4309836596722707
35	0x3fd12d456bf0f238	0.26838813344128054
36	0x3fe0f6d825b82e63	0.530132363959137
37	0x3fd8c3d4d3f8866a	0.38695259762071166
38	0xbfd2ca233a56bdb4	-0.2935875005450399
39	0xbfe1fdbf4d3f1e58	-0.562225008842641
40	0x3fd6558b39bb01fa	0.348971182229462
41	0x3fd9594c11f7985d	0.39607526545149147
42	0x3fa032a1fc1fef47	0.03163629725165023
43	0xbfdd0374bf40b0d1	-0.4533359401418809
44	0xbfe4c98f7bf160c7	-0.6496045513877328
45	0x3fd4ec4a7a0c71d2	0.32692205351648085
46	0x3f976215e8875ffc	0.02283510429137435
47	0xbfcf5ea6d3859325	-0.24507603958331817
48	0xbfe2f6f427286b8b	-0.5926457180788572
49	0xbfe25edafea1251f	-0.5740790341598404
50	0xbfbd3454596a220e	-0.11407973463986584
51	0x3fd4a63b63ea5677	0.32264599568711766
52	0x3fe6d6a250203387	0.713700443740536
53	0x3fdaea84fef2edfa	0.4205639352546481
54	0xbfb0d65d03c06c80	-0.0657709249648395
55	0xbfb7436a1cbd425a	-0.09087241365092194
56	0x3fd8d9e853e377ad	0.38830002014389714
57	0x3fe102f93026715b	0.5316129627640679
58	0x3f78a5d16d5b9238	0.006017511439243388
59	0xbfe10c5f215d003a	-0.5327602054239897
60	0x3fc6d792e8df8c27	0.17845379229319855
61	0x3fdc6244ed054302	0.4434978785184712
62	0x3fc7d161217acaa2	0.1860772527193904
63	0xbfd242b892a30473	-0.28532232589720435
64	0xbfe0262ca5c7ad2a	-0.5046599614992477
65	0x3fbdc1c4c96085e5	0.11623792568618503
66	0x3fd467dc7f4b11ef	0.3188391917322226
67	0x3fb15f029e4d48b8	0.06785599102775819
68	0xbfe061b0055d5f43	-0.511924753644941
69	0xbfe2d8dfec5631bb	-0.5889739623976803
70	0x3fc8bac4ee42f57c	0.1931997455011859
71	0xbfb466c81f81b96b	-0.07969332474906358
72	0xbfd9d99a093e40b2	-0.4039063539758089
73	0xbfe2fc168eb7e308	-0.5932724750010445
74	0xbfe3e1035476d0f1	-0.6212174081506686
75	0x3fdda0b675a52532	0.4629341267469328
76	0xbfd0cdad5257f0cb	-0.2625535301338117
77	0xbfd4baad6ddc6fdd	-0.3238938877927902
78	0x3f8ad0a9c6fd943c	0.01309330595513291
79	0x3fc1876b646bf4cd	0.13694517520335694
80	0x3fd33cc2fe968bce	0.3005835996829632
81	0xbfd3984f123410b5	-0.3061711957709677
82	0xbfd1e2b23e65ad9e	-0.2794614419314828
83	0x3f7ff715c1891882	0.007803997978561241
84	0x3fa50d39c223c296	0.041116528462116594
85	0x3fc60930dcb39958	0.17215548302119532
86	0xbfda5589aaf2074c	-0.41147081083191916
87	0xbfd3bdb68756f7c6	-0.3084541627575813
88	0xbfc841bd08e288d5	-0.18950617727120425
89	0x3fb3f606f22dc1a3	0.07797282612387461
90	0x3fc7048fa6d13225	0.17982669492120454
91	0xbfd822de2cd4c6b0	-0.37712816598932886
92	0xbfd90fe96e7fe05d	-0.3915961817833756
93	0xbfb9b2a799d8b826	-0.10038230424899605
94	0x3f87088b645237e0	0.011246766089495652
95	0x3fc4439a7bfbf6da	0.15831309369962449
96	0xbfd1cd17cf9f0b14	-0.27814288402093834
97	0xbfd146c6dd47899e	-0.26994487389870325
98	0xbfa2df5039db3ee0	-0.03685999590163447
99	0xbfb9622ddacf8221	-0.09915434448294792
100	0x3fd1547f2bb30478	0.2707822729826783
101	0xbfd6b3613f50a43e	-0.3546984785376174
102	0xbfd8f773f75b5e51	-0.390103332099419
103	0xbfa21b8b43523acf	-0.03536639401237595
104	0x3fc7db49a928949e	0.18637963065808533
105	0x3fd12a1852a1449d	0.2681942755635392
106	0xbfdcffcaced4dcda	-0.4531123180235689
107	0xbfe0bc1cae975981	-0.5229628953918991
108	0xbfc345dd457207b0	-0.15056959048166396
109	0x3fd4cf3d301236dc	0.325148865646822
110	0x3fb79769d0c1b6c3	0.09215413424109457
111	0xbfdde3dff748ab2d	-0.4670333781129326
112	0xbfdc19f156c9a52b	-0.4390834186111358
113	0xbfcb7d9a0d51f2e8	-0.21477056169887665
114	0x3f842df10f138b37	0.009853251717179752
115	0x3fc28c8f94a74f11	0.14491457708810931
116	0xbfe2e36b70e398d5	-0.5902611927856706
117	0xbfda07ccbe9edc9b	-0.40672606101311154
118	0xbfc869f3403795ca	-0.19073334346391696
119	0x3f42b53c3eebfe10	0.0005709213417901
120	0x3fc99c68027f7858	0.2000856411168026
121	0xbfd48b435b91d6df	-0.3209999460444645
122	0xbfd3d83c74249f36	-0.3100730070313945
123	0xbfc399fecbedf633	-0.15313706357476206
124	0x3f713cb4c4b4c419	0.004208284498688841
125	0x3fe07807a5e6e59c	0.5146520843765532
126	0xbfbf920630ad3138	-0.12332190216438199
127	0xbfb60132b7335a8c	-0.08595578167601498
128	0x3fcc60ea8e5408bc	0.22170764875051485
129	0x3fd29d762f76f9cb	0.29086069712857626
130	0x3fce590e1f11acec	0.23709274785083012
131	0xbfd27f6421248640	-0.28902533756818016
132	0xbfcf16e2fa011795	-0.24288594443549685
133	0x3fc6833f64a99c26	0.17588035979426414
134	0x3fd1d97778bccd21	0.2788981131627271
135	0x3fd35e341974fe8b	0.30262472616230046
136	0xbfce774951a1769d	-0.23801533208727657
137	0xbfce88570cbddae1	-0.2385357677664706
138	0xbfa1064953407e18	-0.03325108662852133
139	0x3fbeef4dcb6038c7	0.12083898749571907
140	0x3fbd1d8d5f508fce	0.11373218132990745
141	0xbfd05e41ff14e7cb	-0.2557530394584517
142	0xbfb6f6a2563b5934	-0.08970083813924107
143	0x3fc0c4037f44429c	0.1309818622035167
144	0x3fae0f8b7eeeb499	0.058712348217661865
145	0x3fc62cf1c432c092	0.17324659423821182
146	0xbf4f6a80769cbc33	-0.0009587409269665781
147	0x3fab4bd3cf85944e	0.05331289203858401
148	0x3fb8a1eca39f755d	0.09622076983165102
149	0x3fa3f687e8c6c21a	0.03899025646694927
150	0xbfd112af46d79d7b	-0.26676542204082637
151	0xbfe2bc3fc505971d	-0.5854796264727359
152	0xbfed5bcebdbb4d70	-0.917456980294828
153	0xbfe5cf33256eb6eb	-0.6815429431059931
154	0xbfdacb37ca39b43b	-0.4186534380776867
155	0xbfd21db47f84ed14	-0.28306305363703754
156	0xbfe245e544f7a502	-0.57103217573345
157	0xbfe14f01f127ba54	-0.5408944807111973
158	0xbfdfe6630ab6832d	-0.49843669935403306
159	0xbfa436c31b2805c2	-0.03948030191896691
160	0xbfc18c58ab27042f	-0.1370955310540309
161	0xbfcfad1bda28c28b	-0.2474703612547454
162	0xbfbdddeff9d9d47c	-0.11666774606585933
163	0x3fa2488bcf36d68c	0.03570973305197098
164	0x3fc41e5e57e35041	0.1571767739429806
165	0x3fc4a4ed8864e7b1	0.16128319892760382
166	0x3fb3673abad05a63	0.07579390583883021
167	0x3fdb5250a2a91f7b	0.426899107788351
168	0x3fe719aadaa2ce20	0.7218832273706006
169	0x3fd56d831d9805df	0.3348090924265232
170	0x3fd04808a9d9177d	0.2543965967819231
171	0x3fdef4ca728b000c	0.48369084535443174
172	0x3fe94c1908ca19d1	0.7905392810505935
173	0x3fe8e92802869e73	0.7784614610036001
174	0x3fdcb6075f994307	0.4486101564007616
175	0xbfd29f1834119b62	-0.2909603603824761
176	0xbfe4ef18fa57878b	-0.6541867150774449
177	0xbfec19d80d48463b	-0.8781547793789238
178	0xbfe8d20c49040ee9	-0.7756406236735219
179	0xbfd117d283195df1	-0.26707899859090306
180	0xbfd5d9c34dff8d1a	-0.3414161931707028
181	0xbfe1cf296c535a03	-0.5565383067831252
182	0xbfe0bfd187083f3e	-0.5234153401706647
183	0xbfdccf9033dbeadf	-0.450168657916647
184	0xbf9eb9aac3c2db08	-0.03000513858634249
185	0xbfc3196eb56eb910	-0.14921363696107237
186	0xbfd13cd377b69575	-0.26933752718681286
187	0xbfb94f0ea1ae2eb1	-0.09886256644511594
188	0x3fcf4f88c3960bd3	0.24461469221213736
189	0x3fbedac2a5fd43ce	0.12052551796411068
190	0x3fb2132c8adcfd2b	0.07060507192817471
191	0x3fc7be1953765baa	0.18548885894116768
192	0x3fe0b7577bc1ad52	0.5223805825348029
193	0x3fe69f03c5ed1a69	0.7069109788652216
194	0x3fdf9e871a9f7734	0.49405076599019826
195	0x3fc8ae8d0d055a84	0.1928268731669115
196	0x3fe44cefe8bf8129	0.634391741357864
197	0x3fea2abd335271f8	0.8177171709426707
198	0x3fe805a401847cba	0.7506885556830618
199	0x3fd61cacdf223b66	0.345500200180075
200	0xbfb82dde04e21c3b	-0.09444987887592131
201	0xbfe1b2ab721486e5	-0.5530602672699528
202	0xbfe4a4d917cf62bd	-0.645123049263098
203	0xbfd7668efaf31521	-0.3656346750907052
204	0xbfd71583c5b43c68	-0.3606881552413541
205	0xbfc33d1bcdb7fcc4	-0.15030238671167784
206	0xbfdf24fa112adf6a	-0.4866318862582292
207	0xbfd985a4e5bd4660	-0.3987819903896703
208	0xbfd71cfa657ebf76	-0.3611436835444616
209	0xbfb92df717b74200	-0.09835762337684884
210	0xbfca55f5975aba6e	-0.20574827089645303
211	0xbfc7d900c84b587f	-0.18630990772243547
212	0x3fb41f3a69ec8acf	0.07860150419268595
213	0x3fccda2473e35271	0.22540717753021824
214	0x3fd216ca4777fd9a	0.2826410005509047
215	0x3f8972f79c6107a2	0.01242631383877663
216	0x3fbb0694f93fea2a	0.10556918225476211
217	0x3fe241868cc80f73	0.5704987287176507
218	0x3fe62e7f61db379f	0.6931759749656868
219	0x3fd35b2662d0f1ed	0.30243835115450574
220	0x3fc3ee68b6d7e8aa	0.15571316650295347
221	0x3fd814bdc04fd73e	0.3762659433408436
222	0x3fe606e419e42326	0.6883411889731164
223	0x3fe56f90899369ff	0.669868725493245
224	0x3fccb23eec3899f7	0.22418962988122335
225	0x3fd9db152a25ab74	0.403996745261501
226	0x3fec18da66753b53	0.8780338288432666
227	0x3feeeb5549473209	0.9662271910870582
228	0x3fea059a7747cfaa	0.8131840066621312
229	0x3fd117511af5eedc	0.26704814560774337
230	0x3fd8ba8786c05671	0.38638485106762405
231	0x3fe5009f915b360a	0.656326087855349
232	0x3fe972a32642bcd3	0.7952438113478827
233	0x3fe57edfb5aa9230	0.671737532441119
234	0x3fd64135a248f184	0.3477300724805661
235	0xbfaa938b40993f35	-0.05190692103917486
236	0xbfb695fff16480de	-0.08822631495832264
237	0x3fc117c51d8ed0c3	0.13353790229087367
238	0xbfa0460e22db7621	-0.03178447890762138
239	0x3fa5b25a30c1ea74	0.04237634511169555
240	0xbfe1dd27a6216b05	-0.558246445153913
241	0xbfe97989b2b76358	-0.7960861673883342
242	0xbfe707256a9de3ae	-0.7196223337515357
243	0xbfe49cddc0090225	-0.6441487074553761
244	0xbfc9f6106dc54829	-0.20282178268331677
245	0xbfddfd019caccc6a	-0.468567278864788
246	0xbfee4a2b8cc5ab00	-0.9465539693313474
247	0xbff183d9426b6411	-1.094689616633563
248	0xbfe885c600ad55b4	-0.7663297665810007
249	0xbfc9302bbf61f61c	-0.19678255886894724
250	0x3fe5a0e8790575a0	0.6758921016404891
251	0x3ff1823acb5437b0	1.0942943518198085
252	0x3ff3a619bcde0731	1.2280518891934202
253	0x3fe8952a3ca51a51	0.7682086166831344
254	0x3fdb2dcdace96533	0.42467061887653584
255	0x3fd7b0cd3b3cc71f	0.37016611847785613

layer2_weight f8 [16, 6, 5, 5]
0	0xbfbf00172722345d	-0.12109513001833379
1	0xbf96c9a6456411fc	-0.022253606782230748
2	0xbf9856eb79dd8712	-0.023769072831220824
3	0x3faac87f56857b4b	0.052310923873611324
4	0xbf74b802241e60e5	-0.005058296550395113
5	0xbfcbcf5843e791ed	-0.21726516070988514
6	0xbfc3802555b60da6	-0.15234820065607585
7	0x3f99802e4f649908	0.024903033824693416
8	0x3fc81433fe6541e3	0.18811654969842015
9	0x3fa22f9a613ed103	0.03551943242146829
10	0xbfd3e85e54c55918	-0.31105764654547974
11	0xbfdd9dea335a1c82	-0.4627633573040343
12	0xbfc63acb8cf25f13	-0.17366928465048
13	0x3fbaaf006cdc20cd	0.10423281343185238
14	0x3fa0a90754f9d4e2	0.032539586184535244
15	0xbfdfa272b89c3b6e	-0.49429004696224055
16	0xbfe0f6d65b6225b6	-0.5301315102416797
17	0xbfc7fa86a9a04ec8	-0.18733294756440544
18	0x3f9aa305259b2569	0.026012497349062445
19	0x3fb5e363d07318f8	0.08550094451047474
20	0xbfd5d3515d0f65f2	-0.3410228165426751
21	0xbfe022e9d974069a	-0.5042618987210574
22	0xbfca677f25fc8bf2	-0.20628346781549528
23	0xbfafe69ba8bcf215	-0.062306274745854186
24	0xbfab82cde88e45d2	-0.05373233283820479
25	0x3fc854c3327107fc	0.1900867458626293
26	0x3f81434ad9c78019	0.008429131289574386
27	0xbfc53d1848066d31	-0.1659269668278767
28	0xbfd61e190d5dd734	-0.34558702760056126
29	0xbfcfcb576143d3ac	-0.2483929848600871
30	0x3fc36cc98ed72255	0.15175742601992917
31	0x3fa4a215241ecd2d	0.04029909196779111
32	0xbfcb812864edb452	-0.2148790829482175
33	0xbfd5c6e4b7d4501f	-0.3402644915779564
34	0xbfc6e426787df066	-0.17883759387393922
35	0x3fd2d5dbc4f31c32	0.2943028853737274
36	0x3fa15b06908cea6d	0.03389759554416547
37	0xbfae756a7006ecc3	-0.05948956124799445
38	0xbfcb2a6e59389bad	-0.2122323928499247
39	0xbfb07035b0c5c5b2	-0.06421218457923919
40	0x3fd3e90c4a58ba21	0.3110991216698569
41	0x3fc74810b21dc4f6	0.18188675591549214
42	0xbfaf98721c077666	-0.06170994369652476
43	0xbfc10c529eec166e	-0.13318856010316743
44	0x3fa5f0a817c5a626	0.0428516892450939
45	0x3fe19168da68742b	0.5490001931935969
46	0x3fcb84bbe85d81d4	0.21498822065315315
47	0xbfb5e02a3b6cb907	-0.08545173598097132
48	0xbfb5f214af7805fa	-0.08572510990054374
49	0x3f8176710ad6e1ac	0.008526690619746834
50	0x3f4f7bd668bce0e6	0.0009608075065221904
51	0x3fab8fdc5440cebe	0.053831944737252155
52	0x3fc0ef363c2ecb90	0.1323001664983079
53	0x3fb07436bf9f74d1	0.06427328279774548
54	0x3fc6070ae653a6fd	0.17208992239402923
55	0x3fc4ba75a52bdf24	0.1619402939320419
56	0x3fa214c1287c7036	0.035314594452046696
57	0xbfc061b40ed48bf3	-0.12798166965612232
58	0xbfc49fd74e202f0f	-0.16112796129925086
59	0xbfc00baff6563081	-0.1253566696945008
60	0xbfc1247038a0a9ad	-0.1339245106222057
61	0xbfcbd412bd6fbbe6	-0.21740946054293814
62	0xbfc8f81dd5f350ae	-0.19507191607283886
63	0xbfd18182e2d9d489	-0.2735297408428968
64	0xbfc40e846c107aaf	-0.15669303204136528
65	0xbfd8d4645f9c87f4	-0.38796338402801145
66	0xbfd203087bd6a15f	-0.2814351281508802
67	0xbfba3e9bbd108c06	-0.10251782766185621
68	0xbfa5f59acffbd78c	-0.042889440430300046
69	0xbf9e05292645b317	-0.029316561661676035
70	0xbfb971ac7902f77d	-0.09939077333817
71	0xbfbe6bd5a15e9b2c	-0.11883292379080207
72	0xbf810dd7631bd32a	-0.008327181541497437
73	0xbfc915d9e41f1f52	-0.19597934378384224
74	0xbfc1aa569247dd95	-0.138010808397422
75	0xbfcc5f9c83bae6fd	-0.22166782791264686
76	0xbfb4946e7b0c5e96	-0.08038988594159444
77	0x3fb46ab06afd2bd5	0.07975294696841158
78	0xbf9c9b68af838732	-0.027936588013182724
79	0xbfc243710261ea23	-0.14268314949352243
80	0x3fc1358a44f43d46	0.13444641463181933
81	0x3fc148057dd42a61	0.13501042026503554
82	0x3fcce09efd1f0eaf	0.22560489043654772
83	0xbfb269b76e56ded6	-0.07192560619193542
84	0xbfac151b402bb768	-0.054848529418321246
85	0x3fd863fe1b795385	0.38110306437493363
86	0x3fda8845da819ff9	0.4145674356318519
87	0x3fc58dabbb988dc2	0.16838595066029255
88	0xbfc475cbf8d017f1	-0.15984487198892297
89	0xbfc4583aef15883b	-0.15894257234600837
90	0x3fddcb0921b224b8	0.4655173138676889
91	0x3fde99b274fca59d	0.4781309263658729
92	0x3f5390c58b55e4b4	0.0011941842215874967
93	0xbfc7a71fc77820f9	-0.18478772391996026
94	0xbfc46b58d68d8d5f	-0.15952597118585296
95	0x3fd16c2f6b90bbe5	0.27222810272627235
96	0x3fd77ed9915cc154	0.36711730189837977
97	0x3fb6b8dc16b57e71	0.0887582354966925
98	0xbfd59bb23e0420e4	-0.337627945482849
99	0xbfddc5629ebbf981	-0.46517243863481644
100	0xbfac6776ee312f9b	-0.05547687203997428
101	0x3fa3e2998ce682d9	0.038838194322357196
102	0x3fbf964aaa3518f0	0.12338701873258962
103	0x3fa32a124a3afc6a	0.03743035465367302
104	0x3f861514bef833e1	0.010782396390846162
105	0xbfad8b941d2eec98	-0.057705524980940115
106	0x3f8624da0b6c1158	0.010812476609779395
107	0x3fc6ae7df17c9bd7	0.17720007220597608
108	0x3f7349487a0807d6	0.004708560096789291
109	0x3f97b45f55b9b1d2	0.02314900360799916
110	0xbfabf54ab06b0065	-0.05460580256976825
111	0x3faf6d46c268043a	0.061380587798347055
112	0x3fbfa59fdf3caa2a	0.12362097931023955
113	0x3f8b3c6e5155cc4f	0.013298856598998791
114	0xbfa3dd9e59d73854	-0.03880019041717789
115	0xbfc4adda609d2778	-0.16155557363009243
116	0x3f9783b3b9324bbb	0.02296334092950379
117	0x3fbb7623c6ede96f	0.10727141958878915
118	0xbfb894752aae9979	-0.09601528446237308
119	0x3f9e623968b2a6f1	0.029671570792436822
120	0xbfbe559a66c6186c	-0.11849370011450028
121	0xbfabf81e97c6ca5d	-0.05462737658253467
122	0xbfa527663445c17c	-0.041316217308920294
123	0xbf879f18f17dc16b	-0.011533923024871403
124	0x3fb488ab13ddcb11	0.08021039233225859
125	0xbfa6fd7370e7ad8d	-0.044902427227351806
126	0xbfc924967e599598	-0.1964290730422078
127	0xbfc9b0c7bb4503d9	-0.20070740360281894
128	0xbfd7ea3674821d1d	-0.3736702096725411
129	0xbfd66423406ec7ee	-0.34986192028293217
130	0x3fc163f034898a58	0.13586237492843867
131	0xbfbb50d8a05c1e56	-0.10670236506495576
132	0x3faae13fc61467ab	0.052499764375354495
133	0xbfb0597462c236b1	-0.0638649693593958
134	0xbf68523068a2be5c	-0.0029688783152648623
135	0x3fc43500d829047e	0.15786753229807354
136	0xbfc5748f20cef7b0	-0.1676196012685387
137	0x3fcae7ffb000929f	0.21020504087313882
138	0x3fc154fbbbd3dbe7	0.13540598555820724
139	0x3fd01b489f6fade7	0.2516652638430216
140	0x3fc6d89bd5cc3d2f	0.17848537387224314
141	0x3faed33c01a0c616	0.06020534057496378
142	0x3fac52ba6864366c	0.05531866573629149
143	0x3fc1f39e70b063cb	0.1402471590270394
144	0x3fbb50148a7e9cc7	0.10669067746367765
145	0xbf0f006d212a6a14	-5.913098370520869e-05
146	0x3fdc14df038ba172	0.4387738737700807
147	0x3fd592186010323f	0.3370419443242873
148	0x3fb39474cc3518f2	0.0764840124657871
149	0xbfc4ffc563ce560e	-0.16405551312770722
150	0xbfc4a6b5389e3e9a	-0.16133752121503592
151	0x3fb19999f3018a0e	0.0687500208164595
152	0x3fcad72203a1e487	0.20969033410418467
153	0xbfa42e60ac76477d	-0.03941633324860925
154	0xbfb4ca6ff94328d3	-0.08121394954210652
155	0xbf9f75c07b6f46e2	-0.03072262528787107
156	0xbfc0e27319e6e073	-0.1319106937860429
157	0x3fc536302a3706ad	0.16571619092251436
158	0xbfa5365558df3473	-0.0414301558481406
159	0x3fb5ad7a4d119d4e	0.08467831021845493
160	0xbfb8ef97ec0f91a3	-0.09740590584949031
161	0xbfd344e20908edd1	-0.30107928163826353
162	0x3f61d166a2b37a67	0.0021750454521758836
163	0xbfb648882b3b6d49	-0.08704424910995558
164	0x3f9afda6074bb85f	0.02635821742563171
165	0xbfb1a88eb84fbb83	-0.0689782333354128
166	0xbfd5eea87b2bf3be	-0.3426915362213626
167	0xbfc1743e21bf3441	-0.1363599457530729
168	0xbfbb2cd784b857e9	-0.10615298261868102
169	0x3f92dd3895f1187a	0.018422016288490252
170	0xbfb32e55c52aa95a	-0.07492576659811814
171	0xbfd2001eda052df4	-0.28125735560453724
172	0xbf99b9a5cb2239d2	-0.025122252009674835
173	0xbf740d4f7d1a58f0	-0.00489550638453394
174	0x3fb87836ea211704	0.09558432785078358
175	0x3fc305276a40af26	0.14859478653067376
176	0xbfc3fe831e8d02a3	-0.156204595487016
177	0xbfb59a5e46613dcc	-0.08438672273881948
178	0x3fc91db61ebd1cfb	0.19621922017015678
179	0x3fb3f6066f7c4547	0.07797279569446856
180	0x3fbfcb95445d3887	0.12420018118902663
181	0xbfaefacad8feaf96	-0.06050714396346206
182	0xbfc7cd9519048bde	-0.18596137734957002
183	0x3fbe58ab3a0a9b91	0.11854047934558155
184	0x3fbaca450c3b61ce	0.10464889095908989
185	0x3f567e41b72e4869	0.0013728753808419875
186	0x3fc9bd5e4bcf574d	0.20109156324059044
187	0xbfc81c1fbcdde7d4	-0.18835827562344198
188	0x3fa5cc9dada34cbb	0.04257672066310066
189	0x3fa00d743ee32187	0.03135264651934038
190	0xbfc0fca92fe4f806	-0.13271059836000648
191	0x3fcb92dcfe95a36f	0.21541941100010883
192	0xbfb093bd373743e6	-0.06475432012599888
193	0xbfa2747bb7842119	-0.036044946815368024
194	0xbfa6bb67077ab8e4	-0.044398517287264544
195	0xbfcde0224aa1df5a	-0.2334025253692243
196	0x3fc9f1a4c10b0bc3	0.20268687654433223
197	0x3fa9783ede8eceec	0.049745525996881174
198	0xbfb9ec8053d93bc4	-0.10126497313579735
199	0xbfc1df035d52596f	-0.13961832100603597
200	0x3fc87a965ed984bb	0.19124107009250743
201	0x3fbcaddc0ea28834	0.11202788693711413
202	0xbfbe5da2f97061ec	-0.11861628141230768
203	0xbfc885388553c2a0	-0.19156557569615007
204	0x3f82704926fedc86	0.009003230574178522
205	0xbfc67334227335aa	-0.1753907364094805
206	0xbfc57f96c660a74a	-0.16795620619205415
207	0xbf849f46b646e990	-0.010069420278217917
208	0x3fb9475d8f5210eb	0.09874520062482232
209	0x3fb5acdaa90da55d	0.08466879489210073
210	0xbfbe82e46908a691	-0.1191847568922191
211	0xbfc10babee99b4ed	-0.1331686892548655
212	0x3f92312de6e5faca	0.017765729158322675
213	0x3f5c277b704df9f3	0.0017183976608233758
214	0xbfa943bd3650fd0c	-0.04934493339578169
215	0xbf817c0eff54ac17	-0.008537404219699991
216	0xbfcdcf13deaa9d8b	-0.23288200733552986
217	0xbf9c452a3aae4296	-0.02760759337576476
218	0xbfaa6f4bed1bea10	-0.05163037557027306
219	0x3f9cd9bb795b7ef9	0.028174332887714624
220	0x3fc5997a83523f68	0.1687462941376865
221	0xbfa587eef2f7f759	-0.04205271449971688
222	0xbfbd49216e8cd001	-0.11439713429427913
223	0xbfbdb9f39c34fc24	-0.11611864627501284
224	0x3fc7fc817ab70ee6	0.18739336482951002
225	0xbfb365d77f719407	-0.07577273236672975
226	0x3f81c3f8b2248d7b	0.008674567162023852
227	0xbfd58f2ea03b60aa	-0.33686414382601504
228	0x3fb4087015bded59	0.07825375109489609
229	0x3fd14192a5d41976	0.26962724870863697
230	0x3fc29dfcaf2a22a6	0.14544638207396082
231	0x3fe1104dbdc82815	0.5332401949574456
232	0x3fc4abf3d149ddf9	0.16149757117430832
233	0xbfb5ab02b4540e56	-0.0846406641249414
234	0xbfb0e15cbe670ad8	-0.06593875549792061
235	0x3fba45a39cc90ec1	0.10262510850685215
236	0x3fe33d40c1cf1a25	0.6012271676380051
237	0x3fd1141e83e819d9	0.2668529785300087
238	0xbfd15d61ce0f19a7	-0.27132458804080745
239	0xbfd2937747db3f1a	-0.29025060670117997
240	0xbfc457294339b8ca	-0.15890994818204823
241	0x3fb350dcc9f3b49e	0.07545261316745885
242	0x3fdcb6799de952da	0.44863739415204196
243	0xbfc21212731ba11a	-0.14117651577476736
244	0xbfdacf74609b9b91	-0.4189120238719904
245	0xbfd5952cf5db7faf	-0.3372299576712931
246	0xbfc0e60bac822a4e	-0.1320204346014457
247	0x3fdf87293c01aa6e	0.49262457714090757
248	0x3fcdbda8a00b83e0	0.2323504239530214
249	0xbfc52591bb7023e5	-0.16520902302025245
250	0x3fcff1488ee28456	0.24955088593290736
251	0x3fb1787acd75d6bc	0.06824462429161832
252	0xbfc9904f1f127aee	-0.1997164632529897
253	0xbfca9101c7c2df2b	-0.20755026105848037
254	0x3fabc1c2e69a2605	0.05421265664069711
255	0x3fbc7fb6a96de058	0.11132375370459735

layer4_weight f8 [120, 400]
0	0x3fa510c23513c8b0	0.04114348314205196
1	0x3fb258b4af4b5311	0.07166604308742942
2	0xbfa9745bea27c1d1	-0.04971587403622702
3	0x3f58bf3604cee3fb	0.0015104320075194344
4	0x3fc1c6fdcc69f9da	0.13888523560667815
5	0x3f8ddc82bc7c4a35	0.014580747010346598
6	0x3fb10af8d32472cc	0.06657366900294476
7	0x3fa84d0cd08db58a	0.0474628452856037
8	0x3fb37f13fbe9c37c	0.07615780735228656
9	0x3fc1f5b3db47ad13	0.14031074721365452
10	0xbfad5d73b9350759	-0.057353607519430035
11	0x3f8af08f53d66f00	0.013154144044896565
12	0x3fbd586dd4c17c67	0.11463056987985142
13	0x3f7ddbaf8556bf75	0.007289586666430971
14	0x3fa710e37d607b7b	0.045050725035472326
15	0x3fa8636aefecc8d2	0.047633497035705866
16	0xbfb2fe28c92a270c	-0.07419066344496289
17	0xbfa8062e8c3ff268	-0.04692216360124207
18	0xbf889f9b798d36c8	-0.012023176810227368
19	0xbfb52fb14a64fad8	-0.08275898042937102
20	0x3f9aa3945c216bd6	0.026014631388857477
21	0xbfa9d1a1d5feee27	-0.05042749154332809
22	0xbfc89524d255ea55	-0.1920515086201983
23	0xbfb03b2ba6de8c2a	-0.06340287040670547
24	0x3fa707b6a641dd0b	0.04498072413928796
25	0x3fa3487fc7918eea	0.03766249953403451
26	0xbf8e757d940d1e2a	-0.01487253292147191
27	0x3f71a404ca32649e	0.004306811056403207
28	0xbfa7afba13990b51	-0.04626256455642042
29	0x3fa68b6bb064d102	0.04403244522328188
30	0x3fab18e516c0ce5f	0.05292430784939194
31	0x3f12e4bd044ff12d	7.207301776185745e-05
32	0xbfa11e2cd7ca724c	-0.03343334325947875
33	0x3fad620834dea533	0.0573885502374857
34	0x3fc4b133fe86b3a6	0.16165780952488013
35	0x3fb1219ef5fba0ba	0.06691926484529889
36	0x3fbb0dbbe92a97d5	0.10567831461466366
37	0x3fb39aa687a9804e	0.07657852947295504
38	0x3fa046e1e907f63d	0.031790790268115356
39	0x3fc2488be70b1284	0.14283894330414537
40	0xbfa80c7aa464a729	-0.04697020775559075
41	0x3fa533ad132828da	0.0414098821530204
42	0x3fb0a3172f3c50bc	0.0649885645219141
43	0x3fac004d8cc063f3	0.054689811164457945
44	0x3fb952dc5ef2fbaf	0.09892060583204797
45	0xbfab4fad8ae707df	-0.05334226914011685
46	0xbfb3d186a3a2fa96	-0.07741586203608572
47	0xbfc319def338acd6	-0.14922701717418957
48	0x3f908feabc58716c	0.01617399954385361
49	0x3fbd7a0471f302ec	0.11514308721508443
50	0x3fa0fe6775ea889c	0.033190949577389633
51	0x3f9d7b1be8bf7158	0.028789936142730482
52	0x3fafadf79316f855	0.06187413855103389
53	0x3f7e2f243f5dbe94	0.0073691764754212526
54	0x3fbaae685e2a5ffa	0.1042237501045519
55	0xbfc3a6c3aa3949a4	-0.1535267430468369
56	0xbfb0f16bb778f884	-0.06618378857908352
57	0xbf60a47ea4844732	-0.0020315621842507342
58	0x3fad7eda69f05c01	0.057608437950129605
59	0x3fbcf18d3820c66a	0.11306078548730061
60	0xbfadff96310b14a3	-0.05859059666321655
61	0xbf9650c7b65cb73d	-0.02179252672720299
62	0xbfb8ff7c41b02b47	-0.0976483974811063
63	0x3f970dbb784efe9c	0.02251332208447697
64	0x3fba9e8cf4680dcd	0.10398179022745709
65	0x3fc0370fb14a6f43	0.1266803374936619
66	0x3fa626523e9451bf	0.04326111806782106
67	0xbfb80bd92a5baae3	-0.09393079074986192
68	0xbfae58ea1344726a	-0.059272112705205895
69	0x3fa40c6bacf54907	0.03915726171784866
70	0x3fa2ab4adee76d15	0.03646310778614229
71	0x3fad3d1d1b70bbe7	0.05710688552823467
72	0x3fa085e4eda69e97	0.03227153206836169
73	0xbfb20bbfdbf9c46b	-0.07049178238391256
74	0x3f96a3621d8b0f96	0.022107632687734823
75	0xbfb830dab7ebb5f7	-0.09449545850994655
76	0xbf8d55f963ec7fa0	-0.014324138986523682
77	0x3fbb872f454f782a	0.10753150407933335
78	0xbfb16222c32a9f27	-0.06790368332678708
79	0xbfaad13600bd53b1	-0.0523774028685361
80	0x3f6fad6b58fbecdb	0.0038668724663445237
81	0xbfb99da0cca63b9e	-0.10006146427461579
82	0x3fa053c297c44df0	0.031889039064619484
83	0x3fa7b9a88d7e0e68	0.04633833625032652
84	0x3fba31324e89b7eb	0.10231317918234566
85	0x3f7002784f449630	0.003908605536968632
86	0x3f8bd25de920f6ed	0.013584836651826271
87	0x3fb4375101e2473e	0.07896906181329386
88	0x3f9f66d283e312bd	0.030665673541778505
89	0x3faef1c0b3c48daf	0.060438177055654456
90	0xbf97f31c903122f2	-0.023388334561135822
91	0x3fa8c877b6c7d134	0.04840444666106905
92	0x3f8c69208053c727	0.013872388759839161
93	0xbf91fecb35da98c3	-0.01757352367590027
94	0x3fa075d42c239940	0.032148962390964986
95	0x3f97f4729fef6d53	0.02339343167464609
96	0x3fa8c239c54615e9	0.04835682423712823
97	0x3fb5ea799b9d905e	0.08560905503469615
98	0xbfbde92253522be4	-0.11683859380916278
99	0xbfb28433f84bfe89	-0.07232975780424956
100	0xbfc85bd29e9793f5	-0.19030220741038276
101	0x3f87def0f7b81908	0.011655695495403254
102	0xbfb1dceb81b1fdec	-0.06977722088230792
103	0xbfb79f7c1464a427	-0.09227729318503518
104	0xbfa49ced2f764bb8	-0.0402597542225957
105	0xbfad5f23f638e42b	-0.05736648922579265
106	0xbfaad5b61a55242e	-0.05241173812334697
107	0xbfc6b565edfff7c8	-0.1774108326061976
108	0xbfa15afe5d09eea4	-0.03389735112884054
109	0x3fa371dc112348fc	0.03797805508806282
110	0x3f95008b05accf78	0.02050988409173679
111	0xbf2ed411866e2799	-0.0002352019684759815
112	0x3fbbb35d16276bd1	0.1082056216322791
113	0x3f995c6a0b73e5b4	0.024766594838160308
114	0xbfa1c34134570b43	-0.03469280017772871
115	0xbfa7e39ce303b7d8	-0.0466584231488551
116	0x3fc9a63234fc7faa	0.20038440310690692
117	0x3fc20e43c94f187e	0.14106032685794284
118	0xbfba6041ae1d82f2	-0.10303125859128295
119	0x3fa0510deb209416	0.03186839575963789
120	0xbfb2d1106b208d52	-0.07350256553086368
121	0x3fc305c1f2e655e5	0.1486132083925177
122	0x3fb93fa3382609bb	0.0986272823411473
123	0xbf8def4d84c7b9ef	-0.014616590132360023
124	0xbfc39915651c076a	-0.15310923993097997
125	0xbfb84192615ce611	-0.09475054623626301
126	0xbf9b7ac795f2a3d6	-0.026835554625595247
127	0xbfa2b935ca20dcb2	-0.036569291042206756
128	0xbfa79bf98e1fb842	-0.04611186847601846
129	0xbfb36b6ae7617139	-0.07585781239453561
130	0x3fa728fd67d6e36b	0.045234602857312144
131	0xbfbbe9f2df7d5da6	-0.10903852421085122
132	0x3f9037329fd9d29f	0.01583556271221431
133	0x3fb358d9c3eabcd9	0.07557450326088445
134	0xbf708b351642e521	-0.004039008494310965
135	0xbf71071fa1f2a10f	-0.004157184185864317
136	0x3fb15880a86e38c4	0.06775669204782547
137	0x3fa6e5ce9231f757	0.044722037645427086
138	0x3f8255d9be54eb0e	0.008952809449160461
139	0x3f9e43104d49795e	0.02955270263407194
140	0x3fb102da243b679b	0.06644976982661747
141	0x3faf50580f60adcc	0.061159850957064416
142	0xbf8cbfe417480ae2	-0.014037877998821672
143	0xbf97a2c98b126540	-0.023081921685478735
144	0xbfc108e82b164d4f	-0.1330843172441782
145	0xbfc75dec527b68f0	-0.18255380656666587
146	0x3fa8676afdc740a0	0.04766401622657779
147	0x3fb7a41e7f41981e	0.09234800917474259
148	0x3f96a3b5841619f6	0.02210887545290948
149	0xbfb75ae41cf03e6b	-0.09123063761239229
150	0x3fbb6b74abf3cb90	0.10710839460425192
151	0x3fbc82bfcd715ff6	0.11137007489867287
152	0xbfb30b2caaa06a86	-0.07438925901116464
153	0x3f726627b458f430	0.00449195394099626
154	0x3fa5a0d7ef9e2a1f	0.042242763519500175
155	0x3f678bc060139536	0.002874255879407396
156	0x3f757716bbacd841	0.005240525056072144
157	0xbfc2e09a3b02c091	-0.14747932320961302
158	0xbface756a29a1c75	-0.05645247206580787
159	0x3f8b8355cbdb5d64	0.01343409565326565
160	0xbf87b5cac6dce19b	-0.011577209657489365
161	0xbfa06297eef9490a	-0.03200220863495147
162	0xbfa8518e4da23ba3	-0.04749722192456509
163	0x3fb04f8ecf85010d	0.06371395651240537
164	0x3facfb2027d2626d	0.05660343633752949
165	0xbfb6ff3f8f5e00c2	-0.08983227968383559
166	0x3f9ae83c892a107a	0.026276536819310505
167	0x3f9951554c8d68f3	0.024724324033152233
168	0x3fb11832d54bf778	0.06677549083175716
169	0x3f7226f0fbbaa9ec	0.004431668606836397
170	0xbfbddbd11315a06d	-0.11663538661889712
171	0x3f8dee0f3cce66db	0.014614218753013322
172	0xbf84dfa64416dee4	-0.010192202523156842
173	0xbfb4002df16cf2df	-0.07812773842028829
174	0x3fa3a27ada173f82	0.03834899818650596
175	0xbf9e8e7ce91e29bd	-0.02984042332495006
176	0xbfc64857cfd0dfc8	-0.17408273360501725
177	0xbfc2f0b77231b32a	-0.14797108722577806
178	0xbfb1be43990391c4	-0.06930944905940978
179	0xbf9828b4e146293d	-0.023592783212316382
180	0xbfcf908d07883c91	-0.24659884326726858
181	0xbfab140d5a80c289	-0.05288736085674823
182	0x3fb0ebc8ab69b565	0.06609777626882403
183	0x3fb1adff03fc090f	0.069061220619947
184	0x3f54d0bc6fadca1c	0.0012704696843824975
185	0xbfc6675d95ce97ca	-0.17502946677012537
186	0xbfb346b3eba3cf20	-0.07529758932997455
187	0xbfa5df5e5f885835	-0.042719792520231094
188	0x3fb40279940d5194	0.07816276421119134
189	0x3fa5b73c2db8820a	0.042413597661156
190	0xbfc03925339a63f0	-0.1267439367263985
191	0xbfbe07aa90d8b8c6	-0.1173044780377693
192	0xbfc39b45ff3b09f1	-0.15317606890137328
193	0xbf7bbb57f6d49f5e	-0.0067704616642812725
194	0x3fc0e6d550d70419	0.13204447219143914
195	0x3f9fe30a4500d6b5	0.031139526807428115
196	0xbfc78d3c1ef33c4d	-0.18399764548527955
197	0xbfb2d594cdca602f	-0.07357149147208085
198	0x3fbb044f0f37ca76	0.1055344974663884
199	0xbf8760f9fd13346a	-0.011415436778771066
200	0xbf81a7f97c54b707	-0.008621167284754273
201	0x3fb146f481608cf4	0.06748893889066548
202	0x3fc32dcef1817647	0.14983546058913275
203	0xbfbafd2adf9c295b	-0.1054255290911547
204	0xbfaa220e5fb5ba9d	-0.051041077788672264
205	0xbfb18ba7d3935b1f	-0.06853722491665025
206	0xbf5f69a71eda2202	-0.0019172794376648432
207	0x3fa8e385b0a560f3	0.048610856831773484
208	0x3f8cd1a901333ead	0.014071770047308385
209	0xbfba70318ff67ece	-0.10327443852156223
210	0xbf84dd79393a5961	-0.010188052233655655
211	0xbfb7176aadd3f7dc	-0.090201060713269
212	0x3fb35e14805d1c45	0.07565429815177634
213	0x3fad44e15ca8df3b	0.05716614013766593
214	0x3fc2e9770d6ba13c	0.14774978785795578
215	0xbf9fab52d28d962b	-0.030926984883441627
216	0xbfaf45cdd24dd771	-0.06107943718136156
217	0xbf9dd8b404196e80	-0.029146969557003022
218	0x3f9c678f771f02f5	0.027738801618172954
219	0x3fb329ec37337114	0.07485843990020086
220	0x3fa30329e70142e0	0.03713351197132453
221	0xbfa166fb14cd9ca7	-0.033988806046914725
222	0xbf9476d06c81672a	-0.01998449003472228
223	0xbfbdba0f2391eb3d	-0.11612028711708162
224	0x3fb32f5d189972e5	0.07494146204539794
225	0x3f758b00c61ab852	0.00525951673777854
226	0xbf8dc0854fa0308c	-0.01452736043213345
227	0x3fb3c86b386a56bf	0.07727689864472163
228	0xbf801476ab0d3dac	-0.007851531119427012
229	0xbfaa635dbc2d5c7d	-0.05153935358128423
230	0xbfb36976024ebd6d	-0.07582795673692085
231	0x3f9fbd87a00e3bc2	0.030996436256426348
232	0x3fb74fcab95d3fdc	0.09106127763266109
233	0x3f77043f411a2c2d	0.005619284712916656
234	0x3fbe778ca17298b1	0.11901167813866455
235	0xbf9fd76fc0cc09b3	-0.031095262663265632
236	0x3fd038c9e6d21bc3	0.25346610585296164
237	0xbfa1d77b8b3adfc4	-0.034847126718375004
238	0xbfa661b7d72fcb37	-0.0437142801455565
239	0x3fcd2ebd9a2d1d1e	0.22798891094337476
240	0xbfa87137fa81e542	-0.04773878987266268
241	0x3fc4e97e047be6b2	0.16337561816162843
242	0xbf9379778e1d3ea2	-0.01901804737946001
243	0x3f8a8e6b8578c4c8	0.012966957102522506
244	0xbf9942de9fd18ca6	-0.02466914987998039
245	0xbfb710bcd5e002a0	-0.09009914609488101
246	0x3fa2447b50ae02dc	0.03567872390613555
247	0xbf5c9476f8d51c9f	-0.0017443811260180809
248	0x3f8f891499ec0606	0.01539817900402608
249	0xbf9ff969b5e93596	-0.031224872329678265
250	0xbfa64f1727ad0fb4	-0.043572162240280404
251	0x3fa329514eac3763	0.03742460332260469
252	0x3fb669b1caf02684	0.08755027012389333
253	0xbf91f54aacc88368	-0.017537276073315594
254	0x3f9da29d87dec688	0.028940640848026195
255	0xbfbe54abf2961101	-0.11847948715700697

layer4_bias f8 [120]
0	0x3f8633d51c416354	0.01084105007628159
1	0x3fb6658e5cff5bb5	0.08748712320753678
2	0x3fbe44ded8c8695b	0.1182383803610824
3	0x3fc9138cb53d9b20	0.1959091076816657
4	0xbfa3a16a9c117ef3	-0.03834088473445076
5	0xbfc408ec7b4f6398	-0.15652233143808014
6	0x3f7fdc669ad12151	0.0077785499571024356
7	0x3fc2a7ef1062e4eb	0.14574993419754576
8	0x3f7018512890796b	0.003929440522396947
9	0x3fa7787a1b582208	0.04584104141037321
10	0xbfaa1354100bfb35	-0.05092871375926792
11	0x3fab4f031d6b8173	0.05333718999986816
12	0xbf9bd0c808d6d397	-0.027163625277995953
13	0xbf899dea57457a61	-0.012508230961143231
14	0x3f6e994c608a9b02	0.003735207723667756
15	0x3fc2f57310aa487b	0.14811552346924714
16	0x3fd871eadfd11ccb	0.38195297104944065
17	0xbfa7d846f27ed4d4	-0.046571938611501246
18	0x3faa3ea632d76378	0.05125922556516732
19	0x3f904f53b8917913	0.01592760862364979
20	0x3f617ae602b6cfee	0.0021337978739328555
21	0x3fb060e1a2e108bc	0.06397829271830607
22	0x3f914d83789b74b1	0.01689725326183539
23	0x3f549d429e87e1f8	0.0012581968859405306
24	0x3fccec3d3dcb5ee0	0.2259594489794301
25	0x3fabc83528c6c2c1	0.05426183817633535
26	0xbf9e999f71dfa84d	-0.02988289959458994
27	0x3fbd9edd2181e488	0.11570531909991832
28	0x3fc5d7c79c8625e8	0.17064757483267035
29	0xbfab144f71b01b5a	-0.052889330509109114
30	0x3fc008f8a75bfa8f	0.12527378246155194
31	0x3fb730e3ff27c8f5	0.09058976153736238
32	0x3f7efa56606b48ec	0.00756295910714953
33	0x3fb9216691378aa8	0.09816590352378773
34	0x3f81c56108d01dcb	0.0086772518934727
35	0x3fa189d21bc5c33d	0.034254613771628396
36	0xbf9cb4e5310ee23e	-0.02803381072928545
37	0x3fcc14054ebb822c	0.2193609842716041
38	0xbfa961a2aa2b31fc	-0.04957302405600569
39	0xbfbcc848bf374a27	-0.11243109386786242
40	0x3fc627b87859737a	0.1730871760982174
41	0xbfc9ddfe4fa6947b	-0.20208720101541985
42	0x3fc7b78d9979ce47	0.18528909677444202
43	0xbf7f3f7c75bcf05c	-0.007628904506244618
44	0x3fc4486bfb5d440b	0.15846013806961454
45	0x3fb0eeb1f55bace2	0.06614219894588616
46	0x3fa8807e7be3581d	0.047855332015089604
47	0xbfce9855f6b21af0	-0.23902391954126
48	0xbfd9f7a08fe9f0e5	-0.4057389645966068
49	0xbf68eadae1a2974b	-0.0030416750933736406
50	0x3fb773ce7b02ebf8	0.09161081793983772
51	0xbfa23536293e9770	-0.03556222203705672
52	0x3f95adec84d98d0e	0.021171279533871483
53	0xbfb6fa876f9ce089	-0.08976026987955
54	0x3fce9e3d2ae24605	0.2392040690797758
55	0x3fb38ffd9fd84373	0.0764158740278285
56	0x3f70d8229919e985	0.004112372540129865
57	0x3fc23245fb3e8d09	0.14215922134199158
58	0xbf831bf0ff638c89	-0.009330637735223373
59	0x3fc36b33d3b23274	0.15170905911181232
60	0x3fa3c796139003ac	0.03863209713745816
61	0xbf85e4ab9f6d316e	-0.010690060427486183
62	0x3fc8064abbfe0e44	0.18769201449696216
63	0xbf8fdd5c87e4a28d	-0.015558932206276377
64	0x3fbc34f8cc77da9c	0.11018328658961213
65	0x3fbbcba298f8641b	0.10857597574830928
66	0xbfabb604f5a0124a	-0.05412307260852296
67	0x3f97084c5275b9fd	0.022492592366171838
68	0xbfb42589a1f22fb5	-0.07869777873764756
69	0x3f721628c3e36fdf	0.004415663947124642
70	0x3fbf57010359a176	0.12242132503309286
71	0x3fc9cfe0457aec17	0.20165637390695743
72	0x3fd2ca495538ebbd	0.2935965854882701
73	0x3fb63c07e0048737	0.08685349673444596
74	0xbf56c39c6093146e	-0.00138941069808254
75	0x3f9bafc6359fe69b	0.02703771307276402
76	0x3fbbd1fcbf92a3ab	0.10867290188856653
77	0xbfa5240c794018c8	-0.041290654946395444
78	0x3fa1d3f9a4995a26	0.034820367186217546
79	0x3f8913b5d01770a7	0.01224462548537304
80	0x3fbf717ccef63c7a	0.1228254323270778
81	0x3fcdeebf3e8b94fc	0.23384848169295214
82	0x3f74eb417cd95852	0.00510716992501699
83	0x3fc2dfdaae8f8315	0.14745648883310794
84	0xbf717b98f57f8587	-0.004268262382511329
85	0x3fc0dfa963dd03f4	0.13182561279430127
86	0x3f9549f9b60d6270	0.020790006386365467
87	0x3f82ef86f9371469	0.009245924454157799
88	0x3fb5cf8649a6df40	0.08519782350674365
89	0x3fb8ae9fa4b6ba7d	0.09641454478581042
90	0xbfa49670cb884b8d	-0.0402102707340851
91	0xbfa2783adba6c5e0	-0.03607353144924352
92	0xbfbf7b9a65879d4d	-0.12297978380921855
93	0x3fc585e11d298905	0.1681481735605034
94	0x3fa2bbe2ba8149a5	0.036589703814246456
95	0x3fca6c4d2dfb3987	0.20643009896452844
96	0x3fc47d42c0912fab	0.16007265474979468
97	0xbfc12ca0f14c9092	-0.1341744592874688
98	0xbf90fca2aaced682	-0.016588727641382757
99	0x3f5d0e9c141cd80c	0.001773502750848535
100	0xbfb40b41447b825e	-0.07829673692641267
101	0xbf9ffe9490d5a7dd	-0.031244584407808296
102	0x3fb0a8a166e6752b	0.06507309686863454
103	0x3fc8228ddb13b7fc	0.18855450818176667
104	0xbf97c28c1a7519d0	-0.02320307647212322
105	0xbfb1383dc9372a11	-0.06726442491996233
106	0xbfb47ccada7ca235	-0.08002918085242856
107	0x3fbf5d4f8f69fc52	0.12251755954092516
108	0xbf9a9b9fbf366f72	-0.025984283490842093
109	0x3fbacf530d98dc00	0.10472601968727702
110	0xbfa642d33195e0e0	-0.04347858410159389
111	0x3fa772d91412af94	0.04579809541732441
112	0x3fb47a4199bb7f40	0.07999048236115147
113	0x3fa710fdfc7f810e	0.04505151469470735
114	0x3fb7d680aa6f4120	0.09311679993630095
115	0x3f6d98119e2896be	0.003612551126269319
116	0x3fa4a811d031c1f4	0.04034476915774468
117	0xbfa4fbb98ba63413	-0.04098300771429577
118	0x3fc407938d84b792	0.15648121271209142
119	0x3fbc4ac428c6a782	0.11051584239490178

layer5_weight f8 [84, 120]
0	0x3fb6d2373f90b128	0.08914513875851482
1	0x3fcd4ab32ad41458	0.22884215918762396
2	0xbfd80752092f615d	-0.3754468049715081
3	0x3fcb6303b02235e6	0.21395917988085883
4	0x3fd04741e3f69f2c	0.2543492056088208
5	0xbfc4de0870c114ce	-0.16302590852334337
6	0xbfa88dd864022c97	-0.04795719357306288
7	0x3fcba3f604f18523	0.21594119302157208
8	0xbfc31f46d813c408	-0.1493919901909353
9	0xbfb2c9a479cdc622	-0.07338932012296387
10	0x3f9c4f1407a6e5b8	0.02764540955260994
11	0x3fa9e23aaaea8e37	0.0505541165960292
12	0x3fbcdc049faffb90	0.11273220919245674
13	0xbfb8927b21cd1cb4	-0.095985122444392
14	0xbfb2f2979a50419c	-0.07401416318339787
15	0xbfb543d472023590	-0.08306625159658254
16	0xbfbf2c58b4399070	-0.12177042388936044
17	0xbf7726bb2a3d943e	-0.005652171242990054
18	0xbfa1c279bb2901c9	-0.034686855408384405
19	0xbfb184825d476783	-0.06842818047826253
20	0xbfc6c63ff30c16c8	-0.17792510383167426
21	0x3fc0cd9bad865280	0.13127466175923885
22	0x3fb2aa31c83d0418	0.07290946138984145
23	0x3fadd5d20bf878bd	0.05827194591641802
24	0xbfc2bb38cf8cac28	-0.14633855947735808
25	0x3fc500f2c14d1c63	0.16409143866096362
26	0x3fa234dfbd182de2	0.03555964644700872
27	0x3fcc9b38fe6a616a	0.22348701880106187
28	0x3fcfc1e460048681	0.24810461700785783
29	0xbfa1ecf755284d3a	-0.03501103319663419
30	0x3fc0f2f24d2f6efe	0.13241413849652156
31	0x3fb8bb0f6d13ddcf	0.09660431302096771
32	0x3fc6ff6fb52f6a6a	0.17967029902395676
33	0x3fc36231eab364b0	0.15143417320249375
34	0x3fc48b06f5104565	0.1604927727317246
35	0xbfb5c757f6707800	-0.08507299200616103
36	0x3fbd617c041f2f10	0.11476874447469876
37	0xbfd1ad123bba4802	-0.2761884291913931
38	0x3fb7e81b254c5263	0.09338540707205704
39	0xbfad116f376ec5cd	-0.05677363921803256
40	0x3fc1c832e5e0a094	0.13892208313450694
41	0xbfcba657b2a962e5	-0.21601387237276196
42	0x3fc42458715b6256	0.1573591760159327
43	0x3fc7e1d6bfe71492	0.18657955522772746
44	0xbf8022993a45b2b1	-0.007878491488292868
45	0xbfc193343476173e	-0.13730480729662448
46	0x3fb790d2ee04ab1b	0.09205358801834189
47	0xbfb865095bcc09f7	-0.09529169551027637
48	0x3fcbbf69645663a4	0.21677892112054764
49	0x3f7d81eff2659953	0.007203995983536454
50	0xbfc0c597fade55ed	-0.13103008031309518
51	0x3fc232d5902f5fcc	0.14217633762632287
52	0xbfd44feb563653b5	-0.3173778860012207
53	0x3fc3e6234f0bfaaf	0.15546075210291607
54	0x3fccdcc6ee8d18af	0.22548758171087033
55	0x3fd1f6cc98d76faf	0.2806884281724206
56	0xbfce3dedf5f7c571	-0.2362649394049572
57	0x3fb47343fbd3cf57	0.07988381288651901
58	0x3f911ca2a184f345	0.016710797413213702
59	0x3fc84c06edd311b0	0.18982016193889484
60	0xbf8aad833ad652b5	-0.013026261551922639
61	0xbfa24228d7cc9f5d	-0.035661007254303746
62	0x3fc4633349bbf919	0.15927735424333703
63	0xbfad45c709b763c8	-0.05717298501594531
64	0x3fb892907636744c	0.09598639379551449
65	0x3fa945f689f853bb	0.04936190065578879
66	0x3fb792025d8cfeb3	0.09207167419389854
67	0x3fb6897d7ed6a741	0.0880354342140466
68	0xbfd2a5da605ad1cc	-0.2913728657688608
69	0x3fbf9052e3388a8d	0.12329595610985163
70	0x3fa096cdb22860d3	0.03240053939606615
71	0xbfceeb64410491cf	-0.24155858206462574
72	0x3fb473c2da864e58	0.07989137492250487
73	0xbfa423155703a388	-0.03933016478715162
74	0xbfcc5030dc1a86c7	-0.22119723078963302
75	0x3fb662c189cc6a32	0.08744439710827903
76	0xbfc12cbc35653ef9	-0.13417770964814915
77	0x3fd0cee686f50e3c	0.26262820414942545
78	0x3fb0953d697915df	0.06477722001098794
79	0x3fcc4f617a5a6c15	0.2211725089481155
80	0x3fcb4faa0f8dc84e	0.2133686614939187
81	0x3fa17100d96d4118	0.03406527189383918
82	0xbfce76acb22555c7	-0.23799666117217397
83	0x3fa8385b65c559e5	0.0473049699527797
84	0xbfa23751aeaa07be	-0.035578301020918954
85	0xbfc602d8783ebc04	-0.17196184035626072
86	0x3f83947d71c2a6a7	0.009560565981092962
87	0x3fb41870bb15a9ce	0.07849793021674786
88	0x3fc5de8e996f4dc6	0.1708544015115036
89	0x3fd536dfa0d1a458	0.3314742155549246
90	0xbfb07fd4da4ad10f	-0.06445055322075553
91	0xbf7399931a0be2b9	-0.004785132042109446
92	0xbfad5627977441f1	-0.057297932851842044
93	0x3fcb194f53ca23ec	0.21170989600457746
94	0x3fb31b9f9a254c06	0.0746402503330473
95	0x3fcfe3c1adc3f4d3	0.24913807854310352
96	0x3fc023158bc05cc0	0.1260706837062795
97	0xbf9b7917a7110e23	-0.026829118320405364
98	0x3fa48444c704e888	0.040071629804928455
99	0x3fa2948ccc0ea2f2	0.03628959647114084
100	0x3fa4905682e77cb5	0.04016371105148534
101	0xbfa93fee92713053	-0.0493158868563063
102	0xbfcdc23815f2773a	-0.23248959609639447
103	0x3fab4d3343a04d0f	0.053323366170071045
104	0xbfae583f870b2436	-0.059267029986195416
105	0xbfcc22206e4eb72d	-0.21979146371943994
106	0xbfcf73adb08ff4cf	-0.2457177269097088
107	0x3fd03b25edddb5f0	0.25361011723620575
108	0x3fc7b32b42473d24	0.18515530334705332
109	0x3fb65fe0ef74ed54	0.08740049215423557
110	0xbfbe82a839ed7ed5	-0.1191811696457948
111	0x3fbbd3c27f9f06e2	0.10869994750739978
112	0xbfa1b78ab27add77	-0.034603437697508115
113	0xbfc29be3b5836e69	-0.14538236964186815
114	0xbf80513a740acf04	-0.007967430750205569
115	0x3fa5393ea655af12	0.04145236759617722
116	0x3fadc8911798aae6	0.05817082798997379
117	0xbfbeedf47894bb2b	-0.1208184046160851
118	0x3fb5ce3ea998c07f	0.08517829552215693
119	0xbfa18e4fb8c3af3f	-0.03428887491631238
120	0xbfd00e41df4c7fe9	-0.25087019735837984
121	0xbfc486c82e725a8a	-0.16036321895508748
122	0xbfc303ad6e1bd5e7	-0.14854972721484147
123	0x3fc83e49973e9397	0.18940086255056762
124	0xbfb80bd0238b00b8	-0.09393025272129563
125	0x3f92abeb6a67d15e	0.01823394619891993
126	0xbf938aae53d2e42e	-0.01908371340389097
127	0x3f91b780a48e036e	0.017301569026588685
128	0xbfc2cc6244a078e7	-0.14686230040474088
129	0xbf9b5ee13bcf9663	-0.02672912528568928
130	0x3fae58b461f96d06	0.05927051254249176
131	0xbfd4494bf0ef367a	-0.3169736721873516
132	0xbfa8940fdb61f3a9	-0.048004622964959616
133	0x3f9a55898df4d24c	0.02571692398960783
134	0x3f751c54af81c26b	0.005153971484205581
135	0x3fbf5bdb2616ed33	0.12249536209030935
136	0xbfbdab7e1038bfd2	-0.11589801689183268
137	0x3f772f8c9bcae49f	0.0056605808755928735
138	0x3fc551a15496f74e	0.16655365591389643
139	0x3fb1d59b1d780b1d	0.0696656176515202
140	0xbfbf7879b412ba2a	-0.12293205877606597
141	0x3fa88f6798d57a22	0.04796909084938174
142	0xbfaa051f71a50583	-0.05082033407462474
143	0x3fb5d4d375f57aaf	0.08527871732574498
144	0xbfbde4ef569f496f	-0.11677451958465722
145	0x3fc09e70b09c5219	0.12983521102491194
146	0x3fc89e84f09dcb53	0.1923376250157057
147	0xbfbd800fc703c4e3	-0.11523531540639768
148	0x3fc4166dcb9dae49	0.15693447534737207
149	0x3fbe9b1a6aa78a8b	0.1195541868578777
150	0xbfadc761de6fa2d0	-0.05816179123195797
151	0x3fcf5278e8d3da23	0.24470435493977147
152	0xbfbccc0ee5e28fc6	-0.11248868095805084
153	0x3fa2cfe2f67fb2f1	0.036742298689068316
154	0x3fa3fb32c5e0f00e	0.039025866179571364
155	0x3fab981ca87bc993	0.053894897047842914
156	0xbf8fe06f4de846d9	-0.015564794125598013
157	0x3f8aac3a138a5b26	0.013023809167220412
158	0xbfbff23f043d6f68	-0.1247901330329434
159	0xbf92e3e9580a856e	-0.018447538374521448
160	0x3fc16ae0a487dcfa	0.1360741427776942
161	0xbfa4195f5eea339c	-0.03925607713345089
162	0xbfc838ceb49f06c0	-0.18923362559694645
163	0xbfcccb91b35e296f	-0.2249624372310097
164	0x3fb4709e3e56b541	0.0798434164232349
165	0xbfb138e231370330	-0.06727422429595431
166	0x3f7cf2ed35b4e9fd	0.007067610359906326
167	0x3fc6fc800615ae8a	0.17958069130996918
168	0xbfc48415b5083227	-0.16028090800718184
169	0xbfc814ae99b95942	-0.18813116556220605
170	0x3fa8a87cba581b2d	0.048160455462541975
171	0x3f8fae4d3b75d33f	0.015469172837336507
172	0x3f84edfe42797f05	0.010219561008113507
173	0x3f85abdba9a94430	0.010581699481152368
174	0x3fd2041baf2b2184	0.2815007410649957
175	0x3fc05e5d6536eada	0.1278797859393624
176	0xbfa2dd60ca6216d7	-0.03684523077485629
177	0x3fb804310aa3e948	0.09381395826122685
178	0xbfab35d46890a810	-0.05314506317547807
179	0x3fb3a8bf7da02a33	0.07679364029915163
180	0xbf7f3077350a0560	-0.007614579823554152
181	0xbfb42babf94e7b85	-0.07879137837015378
182	0xbf871cbe68f8be36	-0.01128529317710934
183	0xbfc8281e61b3e5f7	-0.1887243249000645
184	0x3fa135e94773f424	0.03361443516949006
185	0xbfabf109453b1245	-0.05457333536245249
186	0xbfb29f5027be329a	-0.0727434250858984
187	0xbfbb81d56668bbc0	-0.10744985342237978
188	0x3fbdd0b53dd49bac	0.11646588096173954
189	0xbfb7d869890e71aa	-0.09314593883613634
190	0x3fc9b67ae2c77983	0.2008813483543684
191	0xbfc28f428090b5dc	-0.1449969413528568
192	0x3f95a788a52de4b2	0.021146903115980727
193	0x3f8885afd75ec99b	0.011973737487868166
194	0xbfc4ea0120a02df6	-0.16339124768306562
195	0x3f9ba62ac725f810	0.027001064686821563
196	0x3fb4c234eb9a6b5a	0.08108835937529815
197	0xbfc2a794fc2ef1fe	-0.1457391959537659
198	0xbfc71c8db6233526	-0.18055888551172322
199	0xbfaf35b27881b81a	-0.06095655175236932
200	0x3f8a0ccc8029e924	0.012719724332090517
201	0x3fbb5f7acbfea54b	0.10692565422381965
202	0x3fbf5d7e20035efd	0.12252033502170075
203	0x3fc753d03ae7a9a7	0.18224528194634823
204	0x3fb52b540b005122	0.08269238728127395
205	0xbfcc28a7638743fc	-0.21999065742286905
206	0x3f8368e11b0a6eea	0.009477385175436354
207	0xbfb742e334c405cc	-0.09086437261796404
208	0x3fb99a2802c8c470	0.10000848834967413
209	0x3fb336a2df482985	0.07505243254869327
210	0xbfa0e79764b0096a	-0.03301690200898373
211	0x3fb30baa7eca74b3	0.07439675899009295
212	0x3fc9682a596e17eb	0.19849137655927448
213	0xbfc0eedbf580b722	-0.1322894047493089
214	0x3fc681e097ecf617	0.17583854120486883
215	0xbfc24dc194a13b19	-0.14299793011965603
216	0x3fc1c17bccc43a50	0.13871715067257862
217	0xbf838ef75a747bce	-0.00955003018185421
218	0x3fc73285b52fdf66	0.1812293181135331
219	0x3fb3e03497abdbca	0.07763985350525995
220	0xbf9d5de288991ac4	-0.028678454959186764
221	0xbfac2821b75715eb	-0.05499368060149464
222	0xbfb4efa235304877	-0.08178151892232842
223	0x3fb6713ed87c9964	0.0876654890567799
224	0x3fba7608c01c5b1d	0.10336355867580634
225	0x3f8f3037c2521fbf	0.015228686921787358
226	0x3fb5c4d0e75fd337	0.08503442429339435
227	0xbfd2211851bab00e	-0.2832699583184429
228	0x3fc8d61c2f7c8ad4	0.19403412169147904
229	0x3fc91dd34e9b9f2b	0.19622269953037494
230	0x3fc85a49ee403eb4	0.19025539525363444
231	0xbfc200b9595d8a05	-0.14064709533256817
232	0xbfba85309ec49ecb	-0.10359481693432852
233	0x3fcb475df6551f5c	0.21311544921831682
234	0xbfa4195582d9dd40	-0.039255783293749236
235	0xbfc17ed3bd8cb92a	-0.1366829562698027
236	0x3f6c4d6fe187664b	0.003454893605731956
237	0x3fb20c59dad277a5	0.07050096123063428
238	0x3f4b80b9823409e5	0.0008393197826140312
239	0x3fc40b187b4866c7	0.15658861179036007
240	0x3fc5cd834da0d000	0.1703342560809915
241	0x3fa0a67be95b1ea3	0.0325201723440476
242	0x3f9e84dea368bfcc	0.029803732608513475
243	0x3fc5e722d8d745b5	0.1711162146371358
244	0x3fa38ef9e9411f35	0.038200196956096034
245	0xbfc7514e9764cd9d	-0.18216879265092425
246	0xbfa7b6ed9030978a	-0.04631750474099679
247	0xbfb9a5abe738bbbb	-0.10018419642504643
248	0xbfc6fa7eb847e5d0	-0.17951950071419143
249	0xbf81f45f63e53c86	-0.008766885028903337
250	0xbfbbb39260804e8d	-0.10820879798876089
251	0x3fbf9ef7281c3219	0.1235193703580041
252	0x3fa075193746b7f6	0.03214339065321774
253	0xbfa2ae2762d12bfd	-0.036484938442832494
254	0x3faeac43c2b23cd1	0.05990802528060047
255	0xbf8a5a0f2e671038	-0.012867086986155227
