trained_models/svhn_svhn_lenet_205_epochs.model (torch_old, 519241 bytes, 8 tensors)

layer0_weight f8 [6, 3, 5, 5]
0.0010706218226815502 -0.021634171214160457 -0.05886336059293136 -0.2319215896615485 -0.17596522494645936 -0.10278662627863418 -0.1304257110743825 -0.23796285477871185
-0.47186548641153425 -0.4572779897355471 -0.11024661087399192 -0.19192297859697371 -0.43753224493725257 -0.4145364863396186 -0.321617200647324 0.24721192429704855
0.08131419471711404 0.07544792813105482 0.15392227174948886 0.30914425894591224 0.18970369044324176 0.38131316287611833 0.337445895169902 0.4507830767744072
0.776058798075252 -0.10917332295154876 -0.16627790783024682 -0.14564829235740062 -0.2369551229374013 -0.16653734872525872 -0.17176844722254017 -0.18048310034897824
-0.513621261336013 -0.6505209626173136 -0.414964610319211 -0.05748148288027342 -0.12287289549974802 -0.2598399471201498 -0.44438064465663274 -0.24189796633948935
0.15308093630997666 0.15594017103270802 -0.0434843571106385 0.04739309121986651 0.32494056274344335 0.30453146633401085 0.29481988488379507 0.30136610876466513
0.6903395123982583 0.7001164753182758 0.02473373355011335 0.028004854651879598 0.09057723734718905 -0.04889321652128655 0.0031346044105271757 0.015017934146579759
-0.022177450353210688 -0.2417464728733765 -0.5241454278149202 -0.1970608113794564 -0.06959153128351851 -0.19174420470506753 -0.19790693967780876 -0.33503801995703014
-0.04662822875304454 0.05315668571542332 0.1245530358015065 0.1983049597896972 0.08059587791464677 0.2462016710416118 0.23802983681032877 0.313233217593657
0.3948892601498618 0.4765055393267183 0.671646402971945 -0.2833427448618056 0.4802152318753015 0.6011159332271366 0.4316224453544336 -0.10704933642354816
0.19816058616978677 0.5169193061422919 0.4560748321258603 0.10755737958423639 -0.416804582454264 0.3728002582019287 0.41194588552637285 0.08865067671640027
-0.20839899025394706 -0.42094642711258407 0.22468465396219994 0.1841907836119847 -0.21511532172934872 -0.48685550424783247 -0.4507701936818923 0.1412961778803009
-0.30948738879317966 -0.6948702401668967 -0.5650218295952624 -0.1672896341099125 -0.12146476487148077 0.5082892350366467 0.6858948215269006 0.43532292351255547
-0.10174475445650531 0.1994383504507663 0.42222778859380344 0.549348996643986 0.04086587750546698 -0.47116989067165027 0.3791513329659859 0.4702022247740151
0.12447707821227372 -0.21111007114585925 -0.5379196401996714 0.3051091214846336 0.2391697331958094 -0.23854296387232868 -0.528797410178477 -0.4486981353184264
0.19805903022307597 -0.2097164941006861 -0.7260999294388527 -0.7233611465009533 -0.39689529645053234 -0.2072889217381712 0.23293847144812574 0.42051719672752036
0.34672462242842017 -0.14276949173725398 0.1129021584249985 0.47865036110124454 0.4033494783688722 0.04429539875995136 -0.3016989024519036 0.2208205405469712
0.49244993171309415 0.1977162475495421 -0.24495366730587695 -0.5197419737311182 0.3525351541254474 0.2702566555135501 -0.2717207746685377 -0.5454496991812183
-0.36267152139725195 0.3435005119495078 -0.011840481706881829 -0.5210221537193559 -0.4525596738802957 -0.09712091804101664 -0.6588820908116041 -0.42487432395192276
0.01980275435521166 -0.13214269081818736 -0.14656658920387264 -0.7351568729619502 -0.05931663448822847 0.30817168450460647 0.12856378890556974 -0.13579301209303454
-0.40940921462459945 0.20572423120886962 0.49090298459593357 0.2485247062778686 0.09546815856982967 -0.2285051461856762 0.17886509653986427 0.5175475282175049
0.27041069034039167 0.11237957348875194 -0.3143841953739206 0.20594753036510305 0.25421503493603337 -0.0515441016358063 -0.05282251474804603 -0.6219740221693739
-0.4183041404433331 0.10917478083246715 -0.1739869212566709 -0.19228124802410282 -0.49179718188633187 -0.0024739537422460993 0.3414815254330148 0.11462749477192818
-0.24373376404630723 -0.3350980809381758 0.3300241049132356 0.5079623125890069 0.29893032491641297 0.09800527321033643 -0.14090162257832878 0.34812610719634834
0.5814289546716076 0.33766434285639335 0.12642588521688486 -0.21207888014357798 0.37035583971028174 0.4412326003381266 0.1501900288898231 -0.22027192799506023
-0.37759891183008254 -0.09941598367099508 -0.016747243680799006 0.045026367255899084 -0.1387096584223711 -0.46915713952395477 -0.033506968184191945 0.2163375520461868
0.103691194872824 -0.2324430756087993 -0.39496762103254346 0.15511253940459357 0.33293575931682123 0.13451848156194968 -0.07437409923330368 -0.1298971982924268
0.2668391213633064 0.32072790701736387 0.12263547077448761 -0.03866795683071472 -0.26905453815320335 0.18848527456917014 0.2773385608770208 -0.03338170884540558
-0.18928544112916018 0.3415191723978062 -0.06654393019633732 0.08019464556809798 0.39130709145477954 0.6218444910450263 0.2369163415132977 -0.1061087472815315
-0.18278452573834028 0.27869145317284666 0.4977148001378392 0.20971439425535118 -0.2507314779593968 -0.39156750488456243 -0.15404414768919206 0.4464777988657267
0.08997789784258879 -0.37964217070562745 -0.4737483580255513 -0.2732226404875089 0.2776979056630511 0.18665512993741828 -0.31110275178048646 -0.3720038710770435
-0.24198333729319293 0.19587548803218346 0.053058477656688086 0.043562511813383664 0.010352766996866634 0.5621524278088729 0.8104231799826086 -0.033582981461363105
00000000: 674d bf6d 838a 513f a310 5da7 4427 96bf
00000010: 9acc 5ba1 5623 aebf 5795 6a4d 9baf cdbf
00000020: ff6c 304b 0786 c6bf 7539 556e 3950 babf
00000030: 489e cf29 cab1 c0bf 91fb 771b 9175 cebf
00000040: 3eea 0f4c 0b33 debf 2e11 c6e6 0a44 ddbf
00000050: a1d9 3234 1f39 bcbf 7463 36a2 ee90 c8bf
00000060: 8ddc bc3e 8700 dcbf 54f4 f40a c487 dabf
00000070: fa1f a74f 6095 d4bf 19be 04ed a3a4 cf3f
00000080: 6cb5 02cf 01d1 b43f e7b3 df2f 8e50 b33f
00000090: 5221 a599 b9b3 c33f 6ace 7a00 05c9 d33f
000000a0: 7c2e 31e5 3548 c83f 7f95 0553 6f67 d83f
000000b0: a825 fbaa b698 d53f 8886 1543 a1d9 dc3f
000000c0: 6833 b042 79d5 e83f 1d2c ac6b c8f2 bbbf
000000d0: aacf 1630 9848 c5bf 1457 326e 9aa4 c2bf
000000e0: d561 d1a3 8b54 cebf 4c34 2b89 1851 c5bf
000000f0: 051b a72b 82fc c5bf d261 bdfa 111a c7bf
00000100: 81fd feda 956f e0bf bcb8 7956 11d1 e4bf
00000110: 9760 94b9 c78e dabf dd55 3182 366e adbf
00000120: 717a bc1b 9974 bfbf 90d3 c4ba 37a1 d0bf
00000130: 00a4 f183 bb70 dcbf 68d1 3237 83f6 cebf
00000140: 0cd4 8bf7 2798 c33f 9aeb 5bf7 d8f5 c33f
00000150: a405 5be7 9443 a6bf d8fb b041 e843 a83f
00000160: 8b1f 8880 d3cb d43f e87a 208c 717d d33f
00000170: 2054 f238 54de d23f c916 5113 9549 d33f
00000180: 2c63 9ce3 4217 e63f c83f 9caa 5a67 e63f
00000190: e8a6 d2c2 cc53 993f 77ac 6ffb 4dad 9c3f
000001a0: 990f 2be0 1130 b73f 630c e91b 8808 a9bf
000001b0: 3448 bbed bdad 693f a0b5 1a00 b9c1 8e3f
000001c0: d51e e77f afb5 96bf 710e 7565 8cf1 cebf
000001d0: 3004 daa1 ccc5 e0bf bc57 19e6 4939 c9bf
000001e0: 43f7 f026 c0d0 b1bf 12f1 33f8 128b c8bf
000001f0: 36a8 c8bc 0355 c9bf 5773 a84e 4371 d5bf
00000200: b424 21bb a7df a7bf e148 6c65 5a37 ab3f
00000210: 8c8e 622f b5e2 bf3f 4c36 7792 0e62 c93f
00000220: 13f8 d573 eea1 b43f 2311 ac4e 8983 cf3f
00000230: 454a 49fe c277 ce3f 9d7a 6556 030c d43f
00000240: a2a8 789a dd45 d93f a759 f116 117f de3f
00000250: 83b2 e798 207e e53f 8561 af9b 4922 d2bf
00000260: b182 fcaa d8bb de3f 1115 4a7b 573c e33f
00000270: e613 c1bf b39f db3f 6665 ffd6 9567 bbbf
00000280: 564b 7a7a 535d c93f 42ab 515b 9a8a e03f
00000290: b897 207e 5430 dd3f 20fc c163 e188 bb3f
000002a0: 2ab2 9d20 edac dabf 9bba 3a9d f5db d73f
000002b0: 97ae 8346 525d da3f a9e4 438d cfb1 b63f
000002c0: fd7e d46f d1ac cabf 1d43 7448 c9f0 dabf
000002d0: 0422 577c 77c2 cc3f 7046 eb47 9093 c73f
000002e0: da18 d91b e688 cbbf 55cf 27fd a328 dfbf
000002f0: 2205 f839 6bd9 dcbf 34d9 853f fe15 c23f
00000300: 7f08 5931 a4ce d3bf 2660 8f83 603c e6bf
00000310: 5768 f4a8 a814 e2bf e41e bb29 bf69 c5bf
00000320: 5b45 bd98 5018 bfbf 2985 2cc9 e743 e03f
00000330: 7d85 5eb2 d9f2 e53f cfdf ebad 54dc db3f
00000340: 3f24 eeb8 f10b babf 8c8a 6024 3287 c93f
00000350: 2742 deb3 c705 db3f 86a4 d558 4494 e13f
00000360: ae0f d14e 5fec a43f 46db d2c1 a527 debf
00000370: c4b7 d4f3 0344 d83f 224b 7a12 cb17 de3f
00000380: 40fa 05d4 badd bf3f d5be b6a1 a705 cbbf
00000390: df13 d13f a336 e1bf fd37 9f68 e886 d33f
000003a0: 2170 2223 1d9d ce3f 49e3 426a 9388 cebf
000003b0: 41a2 dd8b e8eb e0bf 3601 3e62 78b7 dcbf
000003c0: b627 be90 ff59 c93f 860f cc75 fdd7 cabf
000003d0: 412b 52eb 353c e7bf a865 6d46 c625 e7bf
000003e0: a03d 8c87 bb66 d9bf 5e22 d881 7188 cabf
000003f0: 80ca 6c86 edd0 cd3f 496b d6f5 c0e9 da3f
00000400: a412 8378 bc30 d63f e163 f04c 4546 c2bf
00000410: 3f4b 15e6 27e7 bc3f f97f c91f 35a2 de3f
00000420: 63fd 9c54 7ad0 d93f 0f15 13f2 e2ad a63f
00000430: 0348 d1e9 084f d3bf 9896 f7f3 d843 cc3f
00000440: d402 e8b7 4c84 df3f d47a 8e18 c44e c93f
00000450: bf97 0e4b a45a cfbf 9c13 71eb b9a1 e0bf
00000460: f52e 6a9b ef8f d63f 1340 3d92 e24b d13f
00000470: 0417 3688 df63 d1bf 7815 73ed 5274 e1bf
00000480: 6bdf e59c 0236 d7bf 88df 3e92 e9fb d53f
00000490: 177c 998d d23f 88bf 71ea d6a6 36ac e0bf
000004a0: 9479 b3d9 bcf6 dcbf b060 be9e eadc b8bf
000004b0: 1397 fee4 8f15 e5bf cb26 9213 2431 dbbf
000004c0: 2d30 4e59 2c47 943f 5a1a bc3b 0dea c0bf
000004d0: 2b90 a8a9 b1c2 c2bf 74a3 d9b4 6786 e7bf
000004e0: 35b1 78fa bf5e aebf 6f08 a0ba 15b9 d33f
000004f0: 784e 663a c774 c03f 5d82 fb58 aa61 c1bf
00000500: c698 dfb4 c233 dabf 18b7 84ee 2b55 ca3f
00000510: fb4a 165a f46a df3f d810 db56 a8cf cf3f
00000520: 05e4 ddea 9970 b83f 20e7 ea18 a83f cdbf
00000530: c46d 042e 0de5 c63f f93b 7ad5 bf8f e03f
00000540: 8a0c e0a3 684e d13f e863 df60 e8c4 bc3f
00000550: 28a8 60e3 de1e d4bf 4017 ce19 7d5c ca3f
00000560: a6e9 4c23 0f45 d03f 87ac a70d fd63 aabf
00000570: 14b1 ab7a 8d0b abbf b2ba 8510 36e7 e3bf
00000580: 8a12 bfba 7ec5 dabf aa31 39e1 e0f2 bb3f
00000590: 1754 5d14 3445 c6bf 1be4 f203 ac9c c8bf
000005a0: 61df 1de3 9a79 dfbf c1be 45cd 4144 64bf
000005b0: 4812 fb53 d5da d53f 5491 443d 3a58 bd3f
000005c0: 6d43 c100 ab32 cfbf a33c a538 3f72 d5bf
000005d0: 059e 5f6c 1d1f d53f 3673 052e 3a41 e03f
000005e0: 0b1d 53a8 ac21 d33f ed20 46a3 df16 b93f
000005f0: 5eb0 767a 1009 c2bf dfb1 52b9 b247 d63f
00000600: 7a62 28e5 109b e23f 92fc 65e7 4a9c d53f
00000610: 5eeb 2f31 b92e c03f cfc9 3197 6625 cbbf
00000620: c00c dcfa e8b3 d73f 1867 18a9 273d dc3f
00000630: db2f 2247 6d39 c33f 709a 7bdb de31 ccbf
00000640: 622f 54a0 942a d8bf 4c0c 916e 5373 b9bf
00000650: 53f2 a07f 3026 91bf 47bf a42d b20d a73f
00000660: fa1d 48f3 3cc1 c1bf ca2d bcaa ab06 debf
00000670: 3d14 1449 d327 a1bf 61b0 77eb f2b0 cb3f
00000680: 3aa8 dc92 818b ba3f 04f2 f5d7 b1c0 cdbf
00000690: 9813 d445 2647 d9bf 589b f849 bada c33f
000006a0: b5d1 7bc9 d14e d53f 4c11 82cf e637 c13f
000006b0: 2c62 e053 2e0a b3bf 2606 41ad 78a0 c0bf
000006c0: 251f e364 e413 d13f 7c76 e357 ce86 d43f
000006d0: 3c55 4ec8 0965 bf3f 286c fb53 49cc a3bf
000006e0: 4e56 8d86 3038 d1bf 62ad 0615 4920 c83f
000006f0: 92bc 383c eabf d13f df1c 8d47 6817 a1bf
00000700: 4e1c a15d 813a c8bf c1f4 193b 73db d53f
00000710: 91c9 f0e3 0509 b1bf b17f 07e4 a287 b43f
00000720: 276f 1fe6 2c0b d93f 908e 076b 26e6 e33f
00000730: a602 5851 4653 ce3f f6c9 645f f129 bbbf
00000740: d169 21bc 7b65 c7bf 7955 43ad 14d6 d13f
00000750: c6f0 542d 8fda df3f 27e1 69d8 ebd7 ca3f
00000760: 6574 7a0a fc0b d0bf f9f3 e926 710f d9bf
00000770: 188e 3bf8 b7b7 c3bf d82c 219e 1793 dc3f
00000780: 77c4 98a0 ca08 b73f 583d d7ac 0e4c d8bf
00000790: 6538 10a2 e451 debf 60eb 5ad0 7a7c d1bf
000007a0: 5064 bf6f cdc5 d13f a41d 5bb7 50e4 c73f
000007b0: 5bf0 2584 1be9 d3bf 2db9 1053 e9ce d7bf
000007c0: 26f4 ec5b 4ff9 cebf 9cd7 97af 7212 c93f
000007d0: 483e 9f14 7b2a ab3f b0e3 2357 d34d a63f
000007e0: 12af 65dd d433 853f a7cb 9916 27fd e13f
000007f0: 9142 be97 fcee e93f 254f 28de c931 a1bf

layer2_weight f8 [16, 6, 5, 5]
0.591617801905137 -0.2591945934769134 -0.5003331497562576 0.20366435126693108 0.044911627079766175 0.49900150184503583 -0.18702628650349978 -0.7298261309113624
-0.16982987419593865 0.1339035518385951 -0.0736000308970663 0.006221751439260171 -0.2259948867706069 -0.6394426270930561 0.1180866456434621 -0.15934547670418064
0.05628470271506386 0.10314713322631867 -0.35038096030505483 -0.09627079573934423 -0.3096510337436408 0.17430118489639645 0.35769650622058696 -0.07341038612207487
-0.3542229847090579 0.11372584316357362 -0.13937516118524193 -0.14057169814043063 -0.18626400572763327 -0.21970827613542063 0.11347283164470504 0.021026641688099805
-0.14318480304243927 -0.32907047011623514 -0.18744723933952778 0.06095770348983897 0.2896289806316364 -0.18047342806407565 -0.32216180410042644 -0.06416927265603897
-0.1317984587636535 0.12568775654958736 -0.09233962031345927 -0.11178128885722088 0.13326265489990446 -0.08936742189165729 -0.17831657832081346 0.13793558737927925
0.2816920732152617 0.4175989856230175 0.05931481039309333 0.13960010889243107 0.04042382866405626 -0.3813695154687062 -0.5458504183828359 0.15792509487583037
-0.14046591652950413 -0.08760907354952711 -0.23664251622789065 -0.2726596531300289 0.1649318273393464 -0.09841724187548057 -0.32177879567408346 0.01883876289868399
-0.0095136211861214 0.10169982598117958 0.2617504286033799 -0.16856227738056723 -0.02298298910041776 0.20862664903592976 -0.03143669926290015 0.32818101986267273
-0.10359722691231202 -0.2663496701477753 0.02836348088014475 0.048713171648147084 0.23900731648902193 -0.422641457279428 -0.7489088871203132 0.3733611132147683
-0.21284201297721847 0.2733484354585614 0.4302743404180237 -0.2568052040943335 -0.0835906977362293 -0.3659752621797363 -0.02725720158210628 0.5865027104232284
0.06216309632636387 -0.11667369855253107 0.12579196567662204 -0.4825814931050301 0.23193602297108445 0.23842309176254584 0.014762154726426446 0.635253894874792
-0.5267660389476556 -0.2287247042644703 0.09532299926846233 0.2139107155169457 -0.17511801385233608 0.4997167613892993 0.5949928717740072 -0.31971243245745967
-0.6947275928655108 -0.19267100222700628 -0.13686867931069086 0.5398273472810079 0.45009452639454617 -0.7686577675642823 -0.06488845837548325 -0.5908239564362845
-0.03249924478440378 0.32629062218685867 -0.2127780068618155 -0.1270707690023755 -0.29089133214906704 -0.571788272490258 0.09412803434292882 0.0584311366216067
0.037555874289409256 0.02525578125414452 -0.7363791971536291 -0.3646586008516992 0.11411989540751703 -0.24032864060407688 -0.6557998985916869 0.4884597801578254
0.905401837483085 0.1950723524232295 0.2969353603653842 -0.17481857103522477 -0.7474055057783882 0.5941934516430669 0.5333852154720877 -0.009916539359403046
0.30776985541755203 -0.7068166888084315 0.11897901044974259 0.43979582096738373 -0.17531051568496306 0.35365427097696045 0.16009366426966606 -0.47665074866190155
-0.056476157880450954 -0.16841725935333754 0.26617596999781 0.26168449102786595 -0.518108530636 -0.6936032431606868 -0.19639792910277012 0.1040651854000006
0.5768726252376591 0.06787989446741731 -0.23142820050525284 -0.2540024776341529 0.41533893992385146 0.7296577453747759 0.06861488855173896 -0.39077415413449956
-0.11590971739084596 0.4980719895996856 0.11617857302345767 0.14046845280319195 0.1330702092954876 0.28498890997486603 0.4834013453743469 -0.3956595327347408
-0.023035093843819472 -0.10464878030461626 0.18353888836403467 0.2507713282059142 -0.005040039470350129 0.09295243581127605 -0.5121509612369592 -0.18100224527769854
0.18700296363889538 0.08080577588103115 -0.4786759264679005 0.1066266035854509 0.013273906194388856 0.6217561384974504 -0.4988590581809844 0.1250183412252034
0.4243389167087544 0.4134970129668057 0.4153798676944369 -1.0181499997155306 0.37406368194506057 0.06477445791208578 0.29654869060830036 -0.793597385148398
-0.004738099515793018 0.07807656438820532 -0.4005576249072449 -0.26186187695671936 -0.5900277581986363 0.39143234398445786 -0.06790137188055091 -0.19528221414950742
-0.03595968167377325 0.12551208683600923 -0.8952748302810677 0.21048007568802804 0.4549937171771182 -0.07655756585707854 -0.5568483679113471 -0.29149871652464
0.5545913936007331 0.20315834308694578 0.022330751403493065 -0.68200130461052 0.3451537549390806 0.34023890088208425 -0.19293055429956327 -0.15239074989970747
-0.27231502850435646 0.5974001467225292 -0.21105856207159887 -0.015451014293024918 -0.24255616905853905 0.4767563356063244 0.4742528222585345 -0.3898897156857877
0.0769392696059628 0.38748250379698745 -0.2779820425326119 0.09497990548155331 0.3422572537703157 -0.1408673671969722 -0.11367118800161408 -0.24000929365077686
0.18922240384752365 -0.4313693442177742 0.0042814397925217285 -0.44778823863870637 0.18383345182004981 -0.05941724030305118 -0.43235407723067193 -0.023386129264751143
-0.35620589619463167 0.31546503771157125 -0.23077220008265975 0.06285172525248527 -0.0669977383859035 0.38952924438516456 0.14639797491259637 -0.28566923368932384
0.21509343284282803 0.09854380587262689 0.5533073277512008 0.32725147331602694 -0.03723551706330321 -0.16900262576253253 -0.5932228190483572 0.4911595008946463
00000000: 3e3f dd74 88ee e23f 8a22 92eb a496 d0bf
00000010: 79d9 69aa ba02 e0bf 25b9 0668 ac11 ca3f
00000020: b415 0923 a8fe a63f 7513 c5fe a3ef df3f
00000030: 8a2e 0334 7af0 c7bf fdf9 8054 bc5a e7bf
00000040: bc15 c73d fcbc c5bf 5685 fb67 c023 c13f
00000050: 4cff af9d 73d7 b2bf f493 49af fa7b 793f
00000060: f519 df83 66ed ccbf 550e 6162 5076 e4bf
00000070: fb0c 2229 ed3a be3f d0e0 9abd 6e65 c4bf
00000080: 9841 da3a 59d1 ac3f fb18 e2bb d967 ba3f
00000090: a6ae 6943 a46c d6bf 3da8 42ef 33a5 b8bf
000000a0: 767f c691 52d1 d3bf 785c 6450 804f c63f
000000b0: af18 07e3 7fe4 d63f 4abf 94e7 05cb b2bf
000000c0: 4848 b4e1 96ab d6bf 9afa 1809 231d bd3f
000000d0: f329 9597 0bd7 c1bf 8acf 20df 40fe c1bf
000000e0: 89d5 82ba 7fd7 c7bf f3c1 549a 661f ccbf
000000f0: 8a05 e634 8e0c bd3f ce94 9409 0288 953f
00000100: 3bfd 2c2f e153 c2bf faa0 ce96 7d0f d5bf
00000110: 2c29 5869 45fe c7bf ff32 db1d d935 af3f
00000120: 3959 f2fd 4789 d23f f985 aad7 c019 c7bf
00000130: 9d6d 288b 4c9e d4bf 4e3e 77bf 656d b0bf
00000140: ddcb 069b c5de c0bf daac f151 8916 c03f
00000150: c411 5fc1 91a3 b7bf 5c4d f2d3 b29d bcbf
00000160: 665f 492c c00e c13f 9b3d 5a8a c8e0 b6bf
00000170: 6b7b 1ce0 13d3 c6bf a4d0 5f92 dfa7 c13f
00000180: 8c20 8030 3e07 d23f 1bfe 8518 f1b9 da3f
00000190: d811 9dc5 825e ae3f 0a03 1b97 6ade c13f
000001a0: 92b5 2e9c 6eb2 a43f 0f49 28af 5b68 d8bf
000001b0: 52ca ee4b 9b77 e1bf 3fcd dab6 e336 c43f
000001c0: 9033 d982 c9fa c1bf 4b63 ba59 8c6d b6bf
000001d0: 475e 054e 4d4a cebf 9b75 4879 4173 d1bf
000001e0: 3bfa 3e72 7c1c c53f e4bb 3753 df31 b9bf
000001f0: 65da fd16 0698 d4bf 9612 30fa 774a 933f
00000200: 322c e39e e07b 83bf 4a1a 99f2 ff08 ba3f
00000210: 2531 a4de 84c0 d03f 262b 58de 7293 c5bf
00000220: 66d5 334a da88 97bf 4479 572d 47b4 ca3f
00000230: 6fe9 7496 7818 a0bf 4999 def6 ea00 d53f
00000240: 926f 8b0d 5985 babf fd71 a57c df0b d1bf
00000250: 85af 1ffb 500b 9d3f c7f8 39ce eef0 a83f
00000260: eb9b e9af ca97 ce3f 2dbb 3cc1 8e0c dbbf
00000270: 2fb2 3bc5 0ff7 e7bf e0c1 b602 26e5 d73f
00000280: dbd9 7936 683e cbbf 3544 ad6f 8a7e d13f
00000290: 06d1 1963 9d89 db3f f2c6 4118 7f6f d0bf
000002a0: a1e4 0631 3366 b5bf 603f 8d81 236c d7bf
000002b0: 16a4 80d5 4fe9 9bbf 5b0f 0955 a1c4 e23f
000002c0: 12cb 7a63 d7d3 af3f c823 96d7 53de bdbf
000002d0: 6a1f 577d f319 c03f fd9e a27c 9de2 debf
000002e0: 166a b660 14b0 cd3f 989c ddda a584 ce3f
000002f0: e0df 25de 9e3b 8e3f 739a e4f9 ff53 e43f
00000300: 7c8e bd73 44db e0bf bb34 4de2 d946 cdbf
00000310: 5028 6a8c 1667 b83f 0762 b423 6d61 cb3f
00000320: 51d7 375f 446a c6bf 5e86 db02 5cfb df3f
00000330: 60eb b37d 2e0a e33f a9e1 6122 2b76 d4bf
00000340: b88e 5f5c 353b e6bf acec b982 71a9 c8bf
00000350: 7a39 beb2 e984 c1bf 1dde 4100 4446 e13f
00000360: a848 be45 59ce dc3f a628 b02c d898 e8bf
00000370: 854d 9cae 879c b0bf 1aca 52a4 07e8 e2bf
00000380: edc7 fcb2 bda3 a0bf e02d d20f f2e1 d43f
00000390: a9c8 634a 4f3c cbbf 6546 92de da43 c0bf
000003a0: 9649 91ad f69d d2bf b39f 52eb 164c e2bf
000003b0: b8bf 235d c618 b83f cf3f b799 afea ad3f
000003c0: 97ff b007 863a a33f 01ff 15ca a6dc 993f
000003d0: aa58 271b 6b90 e7bf 1c3e 3707 9156 d7bf
000003e0: 5b25 9922 f636 bd3f 14e4 d7c1 16c3 cebf
000003f0: 347c a511 50fc e4bf 031c 4ccf ec42 df3f
00000400: 104d 3746 0df9 ec3f b47a 017f 21f8 c83f
00000410: 31e6 722b fd00 d33f 0735 aa76 7460 c6bf
00000420: 7c64 85f3 beea e7bf 12bd 49fc a103 e33f
00000430: c4eb 13df 7d11 e13f 35b2 e761 1f4f 84bf
00000440: 5ba2 ed55 80b2 d33f 0860 5608 3e9e e6bf
00000450: 31c6 ca8e 6875 be3f 8b3b fe5e 9d25 dc3f
00000460: 0983 c131 9370 c6bf fef3 fb85 45a2 d63f
00000470: ebe1 2afe f27d c43f 5f79 4724 7281 debf
00000480: 8756 3366 71ea acbf 9994 805e b28e c5bf
00000490: 76c9 87ef 0609 d13f 1c72 b54e 70bf d03f
000004a0: 0a87 5b57 5894 e0bf 39ca b86d ff31 e6bf
000004b0: a5cf 3f3d 9123 c9bf 45f7 f117 04a4 ba3f
000004c0: 234f 6b94 bd75 e23f 1322 cba6 9360 b13f
000004d0: 8966 4574 709f cdbf 87aa a29b 9341 d0bf
000004e0: a99b eec6 e994 da3f 5a0c 3533 5b59 e73f
000004f0: fb30 59ce be90 b13f a44d 0899 7102 d9bf
00000500: 1677 7b5d 42ac bdbf 6798 9856 69e0 df3f
00000510: ffb6 a103 e1bd bd3f 2b68 74c9 defa c13f
00000520: bf7c 7fd2 7108 c13f aa24 0420 423d d23f
00000530: 056a 4e32 0cf0 de3f 0d91 5c5c 7c52 d9bf
00000540: 72c3 e0fa 8296 97bf 6b80 f930 43ca babf
00000550: 2dab 88c9 337e c73f fece 5a2f a30c d03f
00000560: 6f99 214b dda4 74bf ac99 e417 bbcb b73f
00000570: 2616 a469 8a63 e0bf 5232 fce1 142b c7bf
00000580: ddc4 8a8e b6ef c73f bba7 bcf4 afaf b43f
00000590: fff9 635a a0a2 debf 2477 488f e14b bb3f
000005a0: 49e8 f587 592f 8b3f a8e1 1d21 6de5 e33f
000005b0: 18d8 0c8b 4eed dfbf 7c30 7bdb 9900 c03f
000005c0: 69c9 6b6a 5e28 db3f 5de9 eb2c bc76 da3f
000005d0: c085 ca70 9595 da3f b635 73a7 574a f0bf
000005e0: 0ad3 24cc a8f0 d73f b639 5912 0f95 b03f
000005f0: b864 f55b a7fa d23f 5ae9 ec57 2665 e9bf
00000600: c3c9 72e7 4168 73bf 20a2 a162 d3fc b33f
00000610: 9cf6 c872 bca2 d9bf 504a 6651 58c2 d0bf
00000620: 3740 a6e4 81e1 e2bf b1a1 003f 3a0d d93f
00000630: a99b 94fb fb61 b1bf f89c a1f1 01ff c8bf
00000640: dcdf 86b1 4e69 a2bf c44f 1bb2 c710 c03f
00000650: 01a7 9f66 17a6 ecbf 6714 c5d8 02f1 ca3f
00000660: 0951 caf7 9d1e dd3f b215 9ed1 4699 b3bf
00000670: a753 20ab b3d1 e1bf ca27 933b eaa7 d2bf
00000680: 1310 4573 36bf e13f c3e6 bbb3 1701 ca3f
00000690: a376 e45b dfdd 963f 6435 6466 f4d2 e5bf
000006a0: 4c84 63c6 ff16 d63f f764 0762 79c6 d53f
000006b0: c3d1 8eca f2b1 c8bf c81d 8443 8a81 c3bf
000006c0: 57ac 6803 9c6d d1bf 4c90 99e9 e61d e33f
000006d0: ebb3 d18a f703 cbbf 9de9 a008 c8a4 8fbf
000006e0: 1c55 c69e 140c cfbf f7c1 6501 2d83 de3f
000006f0: f8b5 6882 285a de3f 58b3 7afe f3f3 d8bf
00000700: 4359 bcbe 4ab2 b33f ee22 656a 83cc d83f
00000710: e161 6331 75ca d1bf 8708 d263 9a50 b83f
00000720: 2cc9 f0f7 8ae7 d53f 97a1 971f f107 c2bf
00000730: ece2 f612 8e19 bdbf b5aa 7be1 9fb8 cebf
00000740: 080a 1992 7038 c83f 3c63 7a2a 8e9b dbbf
00000750: 1202 383e 6a89 713f e325 1f00 90a8 dcbf
00000760: 032c bdc3 da87 c73f 9021 d7bf ef6b aebf
00000770: 23df 7f6f b0ab dbbf e010 7d91 88f2 97bf
00000780: 9317 b3d0 13cc d6bf af2a 0045 9430 d43f
00000790: c02a 1786 f189 cdbf d7e3 74f8 0c17 b03f
000007a0: d0fe 4587 c326 b1bf 6812 5e11 0cee d83f
000007b0: 22a1 3939 2bbd c23f 58d1 0a9c 6748 d2bf
000007c0: 0979 d27d 2e88 cb3f 0f41 72b7 2a3a b93f
000007d0: 9283 aa91 b1b4 e13f 2373 dd29 b0f1 d43f
000007e0: 03b5 12a0 8810 a3bf 474a 4bc7 e0a1 c5bf
000007f0: 41b7 e16b aefb e2bf 7f94 5d42 286f df3f

layer4_weight f8 [120, 400]
0.09314330563640784 0.03803534109676503 0.0016186841985191282 0.04525898881143939 0.11456196064149503 0.2845088439546444 0.11778171560509651 0.0767485306070726
-0.08985152048757453 0.11847567308667037 -0.2873719987511916 -0.4010730001303725 -0.08155381355709315 -0.14320099801573452 0.0206212176988749 -0.21581318379771472
-0.007201254456811242 -0.537083695059821 -0.05215917564983516 -0.3804315847942411 -0.5548701402002879 -0.18457676735784884 0.12633166665922813 0.4882534401159394
0.21679200893453213 -0.5922432325099194 -0.5187046590660168 -0.9523817892190477 0.46261202934721074 0.16344701273864742 -0.00631393893352903 -0.06552612216495743
-0.36867633097318936 0.7844051548067918 0.20515603456009118 0.14831613640747085 -0.2801379646945582 -0.05770231710825758 0.9596963318872065 0.46435816565943316
0.17463657313194844 0.2680621321862817 0.08672864035801615 0.08878397566351154 -0.1816653219827538 0.04919740142890777 -0.3610309698709551 0.11785628864063369
0.11334738528996956 -0.10496663811319246 0.6683394235474903 0.23479070799535667 -0.21205065659272299 0.2920323356662624 -0.01399818621317969 -0.05591300788225661
0.2298616016396898 -0.11859505810622582 0.20517228394191664 -0.13647165043586496 -0.2876486565399264 0.23469781389305877 -0.019675210299264133 0.4126890567467825
0.4208128031722796 0.29598306875147423 0.040580418828894384 0.3980424370704497 -0.20041034039157407 -0.21943924600482373 0.17899900760767953 -0.0645051855062999
-0.09373474573013874 -0.2533800931314783 -0.11729835614422603 -0.28450505139953797 0.3422021285379253 -0.31493838253127704 0.33271217110181833 -0.09557268793751134
-0.03448816599855998 0.11313170977436705 -0.3215589742927654 0.16848453591469745 0.15109826233461723 0.11536679182400196 0.6396770984415415 -0.48141635425557633
-0.139021817956326 -0.3202714389247088 0.2032450190666959 0.28909670833787104 -0.5597324724908145 0.0598333540964867 -0.20651527179145576 0.027899075337660256
0.006445161421906882 -0.46387842917759825 0.039823070773717335 0.17978489413844706 0.15460452031712438 -0.6384757160762836 -0.3866211166976802 -0.0769387362789436
-0.0019289658975781708 -0.3762123656508841 -0.06933524081130482 -0.3508340048554108 0.002267506282713688 0.11158561694396431 -0.3655008899470031 -0.33230298487935633
-0.10327738021112781 0.4385606627096771 -0.179079727244545 0.08570030030494916 0.04668285428675608 0.0829041982094988 0.21412623968262684 -0.2546276568402855
-0.16699418812397054 0.19960375344005796 0.379879229758922 -0.1454347547907397 -0.3750566648019965 0.1606313918723201 0.27708794294534655 -0.16180679213321125
-0.5028001570572156 -0.32702776556605734 -0.09374328003765282 0.39091590628317 0.5381722822245619 0.23490077970313764 -0.048511865751347576 0.16616127953363496
0.2022921197073863 0.17542849617253387 0.14486144455439956 -0.02132586342039295 0.3453526299058125 0.1397217274474799 0.02818082670652313 -0.20720770690812537
-0.04567936451432538 0.24039437061374025 -0.4904530438018735 -0.31804159895811435 -0.1604680685971302 -0.14664990931880306 0.01724051582768232 0.19507807456962503
0.24896205609620037 0.07611363332743595 0.06746159960820496 0.3130633770408559 0.29691437857843617 0.22300404877696633 -0.08903795674406911 0.15083379367511004
0.018078118488594513 0.41668620504170123 0.04621498508682795 0.10081799788178983 0.19433691172784304 0.07336633501014635 0.11975515964305956 0.16225833656335323
0.32145659367728996 0.2272024666950786 0.02332390444716924 -0.2646372744073377 -0.25344415692599553 0.30978884703085535 -0.04873969400201813 -0.4550868077946601
-0.20843212580729625 -0.6008754447591865 0.038277749417775744 0.04708698881003227 0.026248831795868014 -0.2960211925575943 -0.5394756918994458 -0.30288368149138484
0.1963582999109117 0.18022578930862992 -0.0640415841655184 0.28030977188581246 -0.34362492793032645 0.007047825724649217 -0.03942158834289087 0.011088968243290238
0.03793496109991083 -0.3645697385038655 -0.24863312049133487 0.1960522734884405 0.3370208642653275 -0.3762962376763375 -0.3321804937836256 0.01564350306629907
-0.3815940391285769 -0.596778358358579 0.10001404703770342 -0.09324271823467513 -0.14666448062696238 -0.6741234583935825 -0.868685535255085 0.08048332306073645
-0.017632915120151634 0.13444731995548587 -0.2379422398787241 -0.6554436741019737 -0.0007971705964021235 0.3503004487855277 0.40506183017030006 -0.15068294885134295
-0.3198854562071709 0.04447713270081839 -0.039430343617949275 0.05497517829442214 -0.1336608810976855 -0.3418955276303714 0.36747460590893993 0.13369265163343327
-0.25162459059824266 -0.19273982795013664 -0.202225307986459 0.35556687109488366 0.3077978222157902 0.38142693720490495 -0.19788229170691599 -0.3471955091981511
0.11745709588178853 0.38938325294313836 0.002909759209958348 0.2867913829429256 -0.23889401684291406 0.17072502940600706 0.30867454636363134 -0.2594155524315444
0.10429631541491896 -0.4999509510123351 -0.008578380043170951 0.15823599735330268 0.05434674279942982 -0.10505096436542098 0.08137551201444129 0.06013915012264221
0.1570850752558014 0.26044489430612616 0.10250833918878467 0.359139558050852 0.07820516488122867 0.19300414170937286 0.25680338934704666 -0.27217902199299043
00000000: 69b9 8c5b 3dd8 b73f 96a3 3444 5e79 a33f
00000010: 0605 7eec 4085 5a3f 7c1f 97a9 2f2c a73f
00000020: e723 52c2 ee53 bd3f 4c4f 0d95 6435 d23f
00000030: a635 9748 f126 be3f d432 f9ac caa5 b33f
00000040: 1271 fd5d 8200 b7bf d661 47f5 6b54 be3f
00000050: 950a 1b86 4d64 d2bf 6296 b716 2eab d9bf
00000060: fa7f 17f2 b5e0 b4bf c9b6 9d09 6954 c2bf
00000070: b840 7b7e ba1d 953f 2379 3a33 c49f cbbf
00000080: 3c67 1d06 107f 7dbf 86e5 2f25 ca2f e1bf
00000090: bc68 3483 9bb4 aabf 3ea1 c3b7 fd58 d8bf
000000a0: 4ffd 3506 7fc1 e1bf 56a1 b325 36a0 c7bf
000000b0: 4c12 60d4 a22b c03f ee46 5d5b 8b3f df3f
000000c0: e137 342e d7bf cb3f a609 5d14 a8f3 e2bf
000000d0: 7b15 5f83 3a99 e0bf 8b0e c05f e979 eebf
000000e0: dd13 327c 6f9b dd3f 8ab2 2beb d4eb c43f
000000f0: 68b9 a713 a5dc 79bf fe70 bbe7 51c6 b0bf
00000100: 25b4 159c 6498 d7bf 08b0 d6d6 d819 e93f
00000110: 1a9e 818d 8d42 ca3f ab69 abed 05fc c23f
00000120: d6ca 2ec9 c7ed d1bf 614b c479 288b adbf
00000130: ae7e f114 d5b5 ee3f f9d1 c84f 0bb8 dd3f
00000140: fbc3 24c1 7d5a c63f 9c4f c212 ee27 d13f
00000150: 75d7 f621 d933 b63f 5c36 e2ef 8bba b63f
00000160: bada 5d2c cf40 c7bf 38e5 5edc 6630 a93f
00000170: 2917 1ca4 211b d7bf b8e6 5669 d42b be3f
00000180: ef53 e890 5504 bd3f b402 def5 17df babf
00000190: 6372 d85b 0963 e53f ba53 1f36 9f0d ce3f
000001a0: 029e 94d5 7924 cbbf ece8 c364 a8b0 d23f
000001b0: 6f51 e9bf 14ab 8cbf cff1 8c38 a1a0 acbf
000001c0: e306 d3de 1a6c cd3f cf90 08e8 3e5c bebf
000001d0: 8bbf c9dc 1543 ca3f f001 ba2d e777 c1bf
000001e0: d1f2 24e9 d568 d2bf 4c83 8ef5 930a ce3f
000001f0: 86ea 1b03 bd25 94bf cd3f 895c 7f69 da3f
00000200: d13b d7d2 98ee da3f 6d44 1df8 62f1 d23f
00000210: 6dc7 74e7 f4c6 a43f 65d0 68fc 8679 d93f
00000220: 7a8a e1c8 0ba7 c9bf d659 86d0 9516 ccbf
00000230: 1181 d881 70e9 c63f 4f06 2c6e 6983 b0bf
00000240: 10ea 6813 00ff b7bf ad41 5d23 6137 d0bf
00000250: 4196 83db 4307 bebf 3cb3 d3ac 5435 d2bf
00000260: 5c49 acc1 a3e6 d53f b886 4e51 f327 d4bf
00000270: 0743 77fd 274b d53f cc19 15a1 7377 b8bf
00000280: d12b 20d2 6ea8 a1bf a918 9f21 33f6 bc3f
00000290: a5a7 9417 6c94 d4bf 9353 d1b9 e690 c53f
000002a0: 7dd4 9a17 3057 c33f 0db4 ed95 ad88 bd3f
000002b0: 9dcf 391b 3c78 e43f 5162 528a 86cf debf
000002c0: f6c4 c688 77cb c1bf 2c91 01c7 537f d4bf
000002d0: 88b1 fbca ee03 ca3f 6450 ec7a 8f80 d23f
000002e0: bd6e fb12 54e9 e1bf 0eda 1b36 7aa2 ae3f
000002f0: 6703 3ca9 176f cabf 08d3 a740 9391 9c3f
00000300: 887a 64d8 3d66 7a3f 0acf a826 2fb0 ddbf
00000310: c9e5 3285 b063 a43f 92d9 5100 3103 c73f
00000320: 5db4 49b7 14ca c33f 6bcf fa9f 646e e4bf
00000330: d635 0a7f 66be d8bf f416 1dcc 41b2 b3bf
00000340: c71d 7e5c ab9a 5fbf da90 b407 dd13 d8bf
00000350: c0ad be4f f4bf b1bf bb6f 4b78 1074 d6bf
00000360: 3fc3 7c2a 4e93 623f 8972 7aff df90 bc3f
00000370: 2fcd 3ed8 5d64 d7bf 93e1 1abd 7344 d5bf
00000380: c460 6cea 6270 babf 0e9c e9bd 6011 dc3f
00000390: 772a f2a1 15ec c6bf ca2f 1173 74f0 b53f
000003a0: 3b1f e4a8 d0e6 a73f 49ca 02a4 3539 b53f
000003b0: de7f 5316 7d68 cb3f 1150 b2cc d14b d0bf
000003c0: c2a8 4ec8 1060 c5bf eb89 97a4 9d8c c93f
000003d0: a1a1 0ff9 f04f d83f b695 c325 9b9d c2bf
000003e0: 922b 5eab ed00 d8bf c7ba 66c7 918f c43f
000003f0: 403c 4411 cfbb d13f cccc 3dc0 15b6 c4bf
00000400: 3e80 df5a f016 e0bf f75e 7fdd 05ee d4bf
00000410: d542 fb41 8fff b7bf 113c 3e26 c404 d93f
00000420: e594 f813 b538 e13f cd9f 508f 3a11 ce3f
00000430: 0f6e bd19 8cd6 a8bf 5aaf bad6 c544 c53f
00000440: e6dc 304b b5e4 c93f b07a ece2 7074 c63f
00000450: cdfe 67df d18a c23f f256 cc77 72d6 95bf
00000460: 981d c2ea 411a d63f 04ba f6cc 66e2 c13f
00000470: 86a6 5044 6fdb 9c3f 8324 533a c885 cabf
00000480: 9bd6 6121 4963 a7bf acd9 f623 3ec5 ce3f
00000490: ac92 d629 9563 dfbf c2ba 9226 cb5a d4bf
000004a0: 96a6 56b9 378a c4bf f428 3e9a 6cc5 c2bf
000004b0: 4f92 956e 7fa7 913f 69ba 387f 51f8 c83f
000004c0: 8465 7018 fddd cf3f 72cb ebdd 2e7c b33f
000004d0: 1797 0dd4 2945 b13f 8fcf 7df9 3a09 d43f
000004e0: 0e38 6d2a a500 d33f 4cb3 2f8c 658b cc3f
000004f0: 4085 5108 31cb b6bf bfac 7b91 854e c33f
00000500: 7b16 bafe 1183 923f 1f4d d69d fcaa da3f
00000510: 6cec 1093 7da9 a73f c21f c053 35cf b93f
00000520: b76b 232c 08e0 c83f 21f7 7ed9 22c8 b23f
00000530: 15b7 312e 46a8 be3f d17f 8594 e1c4 c43f
00000540: 805c 3bad be92 d43f 6c50 036e f814 cd3f
00000550: 1c32 43bb 38e2 973f 3774 b82d d1ef d0bf
00000560: 1c01 57d7 6d38 d0bf bf6f aa99 94d3 d33f
00000570: 1bed 82bf 68f4 a8bf 2f6c 146b 2420 ddbf
00000580: 9e98 e365 e7ad cabf a3b9 0624 5f3a e3bf
00000590: 82e1 d323 2499 a33f 812d 032a c91b a83f
000005a0: 815f 7c48 f9e0 9a3f 5e4c 3ddf 02f2 d2bf
000005b0: 313e b686 6243 e1bf 53d8 9f3c 7262 d3bf
000005c0: f02f 35ce 4422 c93f 1af9 7c7f a311 c73f
000005d0: cf2e 937d 0765 b0bf 17ec bf65 98f0 d13f
000005e0: 5f45 e368 f3fd d5bf 69a6 ec4f 2ede 7c3f
000005f0: 8dd0 6001 112f a4bf 974a 9c1f d0b5 863f
00000600: 162a 9912 366c a33f 5f10 ff4f 1c55 d7bf
00000610: 1b3a 9bc8 35d3 cfbf fa3a 78ab 3d18 c93f
00000620: 0eb6 85f5 bf91 d53f a55f 9bd0 3c15 d8bf
00000630: 0ede 4af9 7142 d5bf 6d2e 42b8 d904 903f
00000640: 56f8 9967 096c d8bf 918a 83ed ce18 e3bf
00000650: 06e4 2a45 859a b93f 7177 6839 c1de b7bf
00000660: 5989 e3d5 e6c5 c2bf 108a e85b 6b92 e5bf
00000670: 19b9 8d9b 45cc ebbf ff54 6b18 8e9a b43f
00000680: 9fc6 18e7 5c0e 92bf 4030 1fdd 9135 c13f
00000690: 98dc 4e2d e474 cebf fb6a 1403 65f9 e4bf
000006a0: 8e5a 08d2 261f 4abf b0b5 d392 526b d63f
000006b0: 3a1e 5c74 88ec d93f 5dd0 b030 9449 c3bf
000006c0: c00d 38d9 0079 d4bf 3a5f bdec b4c5 a63f
000006d0: df46 9ec8 3630 a4bf 448d bbe1 b425 ac3f
000006e0: 65d8 88bc cc1b c1bf 0f8d 74c7 9de1 d5bf
000006f0: 1752 9f35 b484 d73f 3d95 3d3f d71c c13f
00000700: 2d49 df06 9e1a d0bf 475c d7dc b2ab c8bf
00000710: e4d8 1cd6 84e2 c9bf 4d30 b98c 9bc1 d63f
00000720: 0c99 0ca3 f5b2 d33f def1 4687 4c69 d83f
00000730: b55b abf9 3454 c9bf 7cbe 5483 7338 d6bf
00000740: b7d3 7e11 ab11 be3f 560e 40bc a7eb d83f
00000750: 9214 ac14 35d6 673f 34ed a03e ca5a d23f
00000760: 2673 c642 1494 cebf f326 f458 51da c53f
00000770: dc52 6fe2 52c1 d33f bb1a 71b0 439a d0bf
00000780: 8ce5 cccf 29b3 ba3f d6ee 0c46 32ff dfbf
00000790: 9995 e7ad 8a91 81bf 2658 d7c0 1341 c43f
000007a0: 0a73 ef15 56d3 ab3f d3dc 5cb8 9ee4 babf
000007b0: 921a cc8a 06d5 b43f b9d2 f805 8fca ae3f
000007c0: 2ce9 741e 5d1b c43f 881e dd0f 21ab d03f
000007d0: 3113 628c fc3d ba3f b7cf 217c 24fc d63f
000007e0: da0c 8bf1 4005 b43f f030 5116 5cb4 c83f
000007f0: 5fd7 af7b 776f d03f 877f 878f 616b d1bf

layer4_bias f8 [120]
0.4593109423188154 -0.21388179409251643 -0.00742644980797682 0.6540706735254291 -0.018075797490869173 -0.09028951759147935 -0.01650012361893667 -0.018308270310955353
0.3376307031322675 -0.0022761437021698635 -0.1618358585446062 0.028829468363601434 0.4904247797133563 0.8358796490835011 -0.10801073283009983 -0.23271532356101846
-0.22745004073177233 0.9648481744121207 -0.3464965085488654 -0.025192627439581703 0.37197643370638983 0.06556193302149775 -0.06221846537831891 -0.26335549722578777
-0.2655164288649091 -0.057579628661694256 -0.15130915185879287 0.7909582309331359 -0.03094925301791331 -0.056758139940746265 0.034261612158408464 -0.056712404609213715
0.024432370365237217 0.2364761699179954 -0.4569246065130759 0.5762174143700348 -0.018375029223725914 0.3152126563286103 0.002360491505999174 0.0609575618116174
-0.016428939118028105 -0.7930078789677607 -0.04942326125553857 0.04744586018271413 -0.05710202795837345 0.5090444969690978 -0.09854211262782599 -0.037319496136028155
0.02374854268876459 -0.1538489773694101 0.45648591840305625 -0.01339135572463692 0.16490397106024351 0.7420831060048481 0.47704453270132335 -0.22062864955542652
0.2559881000671859 0.6433152592804576 -0.11724001167664783 -0.030759424818900153 0.35604757686782434 -0.02118527678190251 -0.2584946468314905 0.16044625162982024
-0.12184131747099751 -0.07679449491149157 -0.04722401020915455 0.3050856837486555 -0.01762989310736088 0.7028042848668351 -0.0473494430485973 -0.02739252595848411
-0.006634363232354923 0.510076788076956 0.48146295384425475 0.6939421077613892 0.0031202771121111483 -0.09420823036818582 0.22315182318478138 -0.37027233072480126
-0.033497866730724114 0.006624506207207441 -0.05848254199848008 0.5720995899485349 0.5972378475655827 0.1355506018432819 0.20903701605504635 0.5919070846416341
0.5839011562503482 -0.06446309978882869 0.018139922511049 0.005709363883974027 -0.20578947931670555 0.7087132178342141 0.336029808822242 0.4866436223493572
-0.04275772335131807 0.0024521778488285594 -0.20876751725282716 0.557689530047098 0.6709417626525205 -0.003932516148242542 0.424527946391468 0.37607411927357165
-0.13790867183683722 0.008414368540423723 -1.1394514477657594 -0.0376917535985782 -0.06317388001606826 0.6774433558464095 -0.1612166151922693 0.32644107394756094
-0.06036749290863286 -0.03907892152796394 0.9718449190719483 -0.022068093666911936 -0.5432862202803754 0.09465139722595295 -0.02082447499615556 -0.07358900844214226
00000000: 8212 fdb8 5965 dd3f 3128 6b87 7a60 cbbf
00000010: 1972 cf70 326b 7ebf a80f 029f 25ee e43f
00000020: bd23 4a3c 7682 92bf 041e 3abd 361d b7bf
00000030: 940c 4b8d 68e5 90bf 3672 ed38 67bf 92bf
00000040: 5a07 05cf bd9b d53f cccb 6058 6ba5 62bf
00000050: 0674 e293 09b7 c4bf 3b85 21df 7885 9d3f
00000060: 6414 819d 1e63 df3f 3994 86ad 86bf ea3f
00000070: 3d4d 1f65 97a6 bbbf 397f fc9f 9dc9 cdbf
00000080: b05a 353b 151d cdbf 5492 5647 09e0 ee3f
00000090: e050 19b1 ff2c d6bf f931 d09b 18cc 99bf
000000a0: bdb4 693e 76ce d73f ab9b 30b6 aac8 b03f
000000b0: 25ae 0344 19db afbf f69e f303 d1da d0bf
000000c0: b6a1 a19e 38fe d0bf 391d 09bc 137b adbf
000000d0: 6bd5 6829 195e c3bf c383 cba2 874f e93f
000000e0: 65b5 3036 29b1 9fbf 6b93 a725 670f adbf
000000f0: 1a0b 75ef bc8a a13f 76ef 2586 6809 adbf
00000100: 12d5 ba9e cc04 993f 7162 0ae4 d944 ce3f
00000110: 6d86 6db4 403e ddbf ff5b c380 5f70 e23f
00000120: 80d7 5056 e7d0 92bf e6dd 8db4 712c d43f
00000130: 349a 433a 4f56 633f c37e d95c d435 af3f
00000140: fc2e e170 bfd2 90bf 2561 340f 5260 e9bf
00000150: c626 8275 014e a9bf 0075 a1e3 d24a a83f
00000160: caa4 3b1d 7a3c adbf 0d1d 56af 174a e03f
00000170: 29e8 034f 0e3a b9bf e29b d07e 8a1b a3bf
00000180: 2220 b4b8 8951 983f 7a8e 29c3 52b1 c3bf
00000190: ab0a a8b6 1037 dd3f 4c62 1757 ed6c 8bbf
000001a0: 5e96 57c5 921b c53f bc8e e611 25bf e73f
000001b0: b104 acca e587 de3f 955a 3341 8f3d ccbf
000001c0: 0f0a 7de9 1b62 d03f 0e13 f4e1 0996 e43f
000001d0: 7c11 efff 7003 bebf 6154 900e 667f 9fbf
000001e0: 17e9 9dc6 7bc9 d63f 3e6b bddb 97b1 95bf
000001f0: c244 9521 2d8b d0bf da07 c2b5 8089 c43f
00000200: abe8 d619 fe30 bfbf ae5e 28d4 cda8 b3bf
00000210: 1e5b ded6 be2d a8bf d868 8b1a 8686 d33f
00000220: 09f7 4f19 920d 92bf 35bc 5f69 5f7d e63f
00000230: ea4c c1aa 2f3e a8bf 6b09 964c c90c 9cbf
00000240: 27d2 cd51 a22c 7bbf eda7 678e 8c52 e03f
00000250: d0c8 3ffe 49d0 de3f 12e1 4414 c634 e63f
00000260: e9c8 d404 b28f 693f 3805 72d4 071e b8bf
00000270: 628a 4f2b 3d90 cc3f f0e8 c4b7 8ab2 d7bf
00000280: 753e 30e4 a126 a1bf f894 3158 4c22 7b3f
00000290: 4974 8a7a 6cf1 adbf 7749 9ccc a34e e23f
000002a0: 9748 e78b 921c e33f 975c efdc b859 c13f
000002b0: 990f ce95 b9c1 ca3f 08cf 5920 e7f0 e23f
000002c0: 7c23 467a 51af e23f 404d 6459 a780 b0bf
000002d0: 7d6a bf97 4593 923f ff23 9ab2 b362 773f
000002e0: dc57 c345 4f57 cabf 70e8 9a57 c7ad e63f
000002f0: b0d9 d72b 8381 d53f a609 b34a 2b25 df3f
00000300: da01 e41e 57e4 a5bf f82c 45f5 9616 643f
00000310: 80b4 88dd e4b8 cabf f3f6 9bb6 97d8 e13f
00000320: 169f 03dc 5a78 e53f 928d f6c3 8a1b 70bf
00000330: 4552 7f43 772b db3f 43ba c92e 9911 d83f
00000340: a1df afc9 fda6 c1bf 27b5 946d 8d3b 813f
00000350: 668a f870 313b f2bf 2bcf 1162 554c a3bf
00000360: 9764 a1d4 292c b0bf 1817 48b0 9dad e53f
00000370: 654b e9fc bea2 c4bf d041 2b1a 69e4 d43f
00000380: 4074 91ef 7ce8 aebf 68e2 d903 2702 a4bf
00000390: 4054 0684 5a19 ef3f 737a 56b2 0499 96bf
000003a0: e017 8fc8 9962 e1bf 282e 9bef 123b b83f
000003b0: 196a 42dc 0253 95bf 43a4 9ab0 bad6 b2bf
