trained_models/toy_mlp2_e_50_init.model (torch, 4823 bytes, 4 tensors)

fc1_weight f8 [8, 2]
000000 f7 ca 08 1b d7 06 e4 3f 6a 38 57 b8 b9 1d de 3f
       0.625834992219409 0.47056429864904337
000010 7b 9b b6 97 0e f7 e2 bf 88 e3 76 1d 9b d8 cc 3f
       -0.5926583254957757 0.22536028803531516
000020 6e e5 e5 5c 26 1c e5 bf 5e 19 3e fd c9 c3 d6 3f
       -0.6596862615980805 0.35570001345367597
000030 f6 55 70 bf eb ba d5 bf 59 47 86 c9 00 0a e4 3f
       -0.3395337457198758 0.6262210784936811
000040 f0 50 a9 5b 36 a0 cf 3f d1 8c ed 77 0a 42 e1 3f
       0.2470767924847972 0.539311632379759
000050 c5 f8 a0 1c 4c 2c d6 bf 01 28 c3 61 02 44 e5 3f
       -0.34645369334965564 0.6645519170208446
000060 00 e1 64 ae 86 b5 88 3f 58 ba d1 ad 9c 58 c5 3f
       0.012064983555874154 0.16676672446506546
000070 a3 bd d4 9b 7b 65 e5 3f 22 78 37 a1 80 97 d8 bf
       0.6686380427908499 -0.38424697631660554

fc1_bias f8 [8]
000000 cc 1f 58 26 83 d4 e3 bf b2 d2 9d 8e 58 2a e2 3f
       -0.6196914433394283 0.5676691804388467
000010 0f 40 c9 6f 50 db e2 bf 88 44 9a 03 56 70 c4 3f
       -0.589271753628056 0.15967822242649654
000020 8c 56 6f 18 1d 21 cf 3f cb 97 68 ae df 40 d8 bf
       0.24319804852591564 -0.37895957977377454
000030 d0 e5 d5 1d cb dc ae 3f 87 a6 a0 59 b5 e4 e0 bf
       0.06027827014163345 -0.5279185057199393

fc2_weight f8 [2, 8]
000000 70 9d 62 10 bd 48 a9 bf b3 4f 8a 7e dd bf d3 3f
       -0.04938307595267133 0.3085855231995495
000010 18 62 d5 d4 bb 53 b8 bf e4 51 15 7e 75 ed bc bf
       -0.09502767511492782 -0.11299833610730264
000020 8d a9 fc 73 af 97 cb bf 7c 95 41 7a 3c eb bd 3f
       -0.2155665699331845 0.11687067017336078
000030 66 53 7b 4b c9 ee c2 bf 27 1a cb 0a 0b 93 d3 bf
       -0.14791217980987453 -0.3058498006252272
000040 f2 3c 9d 4c f4 fb cb bf 03 c9 bd 36 ad 74 d0 bf
       -0.2186265348522976 -0.25712137552103814
000050 94 7c fc 8e dd 35 b7 bf bf b3 57 8f ed 79 c0 bf
       -0.09066567173839452 -0.12872094630384187
000060 5a 4a 33 4c 73 01 c8 3f 86 c7 2e 13 7c ad cd 3f
       0.18754426212997793 0.23185683190018497
000070 d1 51 16 fb da 75 d4 3f 92 ac 08 5d 31 d7 cb 3f
       0.3196933223746586 0.2175046638743408

fc2_bias f8 [2]
000000 68 e6 14 6f 65 88 d0 bf 3b ff 83 6a 0b a4 c8 bf
       -0.2583249649793289 -0.19250624371488265
