trained_models/toy_mlp2_e_50.model (torch, 4823 bytes, 4 tensors)

fc1_weight f8 [8, 2]
00000000: 4180 de7e afe5 0f40 0f39 9276 972e 1340
00000010: 1322 651c f6ae 15c0 c469 0111 f314 0d40
00000020: 6ee5 e55c 261c e5bf 5e19 3efd c9c3 d63f
00000030: 78fd 43ca 256b e2bf fab2 c172 b890 0140
00000040: c792 bc69 5c3a debf cde0 d224 fc7c 0f40
00000050: 3121 f498 8070 d7bf a0a3 0611 df8d e33f
00000060: 0c96 8022 52ab d1bf 56aa b0cc b64b 0140
00000070: a3bd d49b 7b65 e53f 2278 37a1 8097 d8bf
3.9871511375095285 4.795499661135422 -5.4208607136465785 3.6352292374187716 -0.6596862615980805 0.35570001345367597 -0.5755795431613668 2.195664307152012
-0.4723120720466735 3.9360278012137315 -0.36624159752729485 0.6110682804620531 -0.27608159417499745 2.1619697562612528 0.6686380427908499 -0.38424697631660554

fc1_bias f8 [8]
00000000: 36fd 2812 4258 13c0 638c f1b5 d892 d53f
00000010: 0f40 c96f 50db e2bf ba22 3263 140e 963f
00000020: d790 8c61 7492 d2bf 1f60 7c41 6c42 dcbf
00000030: 4dd4 10e1 d421 c3bf 87a6 a059 b5e4 e0bf
-4.836189540626313 0.33708780067371985 -0.589271753628056 0.021538084558900585 -0.29018888021734085 -0.44155413050748565 -0.14946995725191173 -0.5279185057199393

fc2_weight f8 [2, 8]
00000000: 21ca 119f a1e7 0f40 bfc3 947a 95fa 0e40
00000010: 1862 d5d4 bb53 b8bf 6aeb e84b 4921 f1bf
00000020: 8eec acd2 3a09 fbbf 814d 5e5a decd c03f
00000030: aea7 5ee0 80cb eabf 271a cb0a 0b93 d3bf
00000040: 3294 0eec 4106 11c0 e832 9b71 2f91 0ec0
00000050: 947c fc8e dd35 b7bf af3f 3984 6886 ea3f
00000060: a4c0 b34d 7396 fa3f c244 f1f5 3bd5 cb3f
00000070: df7d 8505 5e25 f03f 92ac 085d 31d7 cb3f
3.9881012370399422 3.8723554207467425 -0.09502767511492782 -1.0706265416362961 -1.6897533635626902 0.13128261005895683 -0.8373417265149692 -0.3058498006252272
-4.25611084784491 -3.8208912730682307 -0.09066567173839452 0.8289072592251524 1.6617310557594829 0.2174448920145889 1.0091228690797533 0.2175046638743408

fc2_bias f8 [2]
00000000: 86d4 4520 b23a ec3f c5a3 38d9 f353 f5bf
0.8821650152518863 -1.332996223946098
